Multiclass_weights30k 5I/multiClass_weights.npy (npy, 62848 bytes, 1 tensors)

array f8 [10, 784]
0.04161406232467525 0.04161406232467525 0.04161406232467525 0.04161406232467525 0.04161406232467525 0.04161406232467525 0.04161406232467525 0.04161406232467525
0.04161406232467525 0.04161406232467525 0.04161406232467525 0.04161406232467525 0.04160788517109832 0.04154481809080139 0.04155205840878945 0.041611478828180004
0.04161406232467525 0.04161406232467525 0.04161406232467525 0.04161406232467525 0.04161406232467525 0.04161406232467525 0.04161406232467525 0.04161406232467525
0.04161406232467525 0.04161406232467525 0.04161406232467525 0.04161406232467525 0.04161406232467525 0.04161406232467525 0.04161406232467525 0.04161406232467525
0.04161406232467525 0.041613395950360156 0.04157659879095412 0.04152140828597014 0.04146315613307393 0.041396378982088713 0.041386295630156146 0.04140648574318489
0.04141484474259071 0.04110673856249156 0.04059643893233241 0.042781034972034546 0.04566364285089889 0.04351955856000713 0.041201004259964896 0.04122158105854562
0.04124477462454961 0.04148643921774662 0.04159367473263928 0.04160953482418481 0.04161406232467525 0.04161406232467525 0.04161406232467525 0.04161406232467525
0.04161406232467525 0.04161406232467525 0.04161406232467525 0.04161406232467525 0.04160927458779238 0.04160950203804523 0.041424768835853526 0.04219445700475394
0.03844964998543152 0.03035669031974955 0.030543730537952438 0.032579739953429665 0.023482799139682403 0.01840880367181602 0.017822621528065276 0.014616323614089304
0.012664565747333167 0.010262497158140916 0.013723867141579749 0.01844119806248757 0.02516880224472909 0.033886990667188886 0.037746575255560536 0.039894505824236294
0.040871964539857884 0.041612099720791974 0.04161406232467525 0.04161406232467525 0.04161406232467525 0.04161406232467525 0.04161406232467525 0.041539536063265124
0.04156327619368059 0.03633291860617757 0.03521063596317027 0.03205773909420974 0.02157136688439242 0.007454375771745214 -0.003104619908199553 -0.005474443750833078
-0.013292715624173689 -0.01936240713655102 -0.021337000367733193 -0.02714912181760043 -0.04456920363124211 -0.0514080063214813 -0.05348752785101202 -0.04094723093816823
-0.0225074077149985 -0.0017788431768181634 0.016975791142763586 0.032784661182409795 0.03773499350907806 0.04105478154141165 0.04161406232467525 0.04161406232467525
0.04161406232467525 0.041613135102020304 0.04161406232467525 0.041640546240531116 0.04034850420403749 0.03282925126316452 0.028906100683429196 0.024045116640493944
0.006770037481579015 -0.020050709048234555 -0.025094424713861165 -0.026817993567629195 -0.021612716351461177 -0.002536048085658296 -0.004729544357018159 0.0029258691548120276
-0.03370247700290266 -0.01510272477620363 -0.010211608931286469 -0.016961744916640754 -0.021339096461080075 -0.017299231035459526 -0.0034388464773967534 0.011469364785323129
0.02579369457299243 0.03866849411104705 0.04158137669530302 0.04161406232467525 0.04161406232467525 0.04161406232467525 0.04156692382297831 0.0415919054631838
0.03459882999950441 0.01848798908004495 0.010280426903675059 -0.009973760525705198 -0.034452225854916294 -0.05714847517622938 -0.049352482581856226 -0.020697750751756613
0.0023229539611404173 0.04813585910575853 0.06022033997322338 0.053094136525949874 0.030283087533613546 0.033889832138884864 0.03792314575349481 0.016001206224427567
0.0014730614010985527 -0.02302544300287971 -0.015600865080940851 -0.014917084108145615 -0.002574843142545361 0.02605022427055357 0.03758874929355896 0.04019575001584282
0.04161406232467525 0.041613591423640156 0.04125045526644717 0.040022067983328594 0.028786297082222242 0.0129466944491708 -0.004189080992472734 -0.029138204171697213
-0.05896543941992345 -0.07877572454717811 -0.02463653922787026 0.00637352047843094 0.022462649477296034 0.0354014525810684 0.028465788404653598 0.039028868522640765
0.047688945601057305 0.05078992204009493 0.06190819842644645 0.045789181860342976 0.007449235484248084 0.007203112791127848 -0.0016997868266142436 -0.017475670180790666
-0.02580862989795766 0.004710491915708283 0.026339309553355048 0.03611755305802007 0.041612754277527024 0.04152361026585608 0.04018642999794746 0.037199692666636225
0.02197532374999653 0.005651594606099173 -0.015129447266621323 -0.051541224924369376 -0.07233742635047803 -0.0276164019589046 0.005261944155695172 -0.009991670372873225
0.0009625360385397742 0.003141029446080458 0.028425789344128347 0.048062283319742605 0.06138689073204127 0.08931390365329848 0.0753793663587888 0.04850505508899841
0.014654682042298379 -0.004583825697301981 -0.015411083890190056 -0.02872379162579249 -0.04096844079438234 -0.006349801597980315 0.027688443923619372 0.04055763950989153
0.04160874664371099 0.041185393818165626 0.03889086945076227 0.029757480342999486 0.007728198414668829 -0.010303666930773326 -0.02665307518660468 -0.06361893048986252
-0.05495120432014348 -0.02181100375327694 -0.009206398029872375 -0.020793198335145893 -0.003118786685945986 -0.002183644265268562 0.028038736427892192 0.05270625385477421
0.0929004287229192 0.08900995087884636 0.06524752427987343 0.026814721508150282 -0.0008552210174520894 -0.0070528512947346375 0.0011344830701112132 -0.005953079190190353
-0.023587808663931627 -0.003472611684886491 0.029720361171357203 0.04093798864913049 0.041613199570173225 0.04066506302214894 0.03813758477121623 0.025348953465814228
00000000: 82f3 7939 704e a53f 82f3 7939 704e a53f
00000010: 82f3 7939 704e a53f 82f3 7939 704e a53f
00000020: 82f3 7939 704e a53f 82f3 7939 704e a53f
00000030: 82f3 7939 704e a53f 82f3 7939 704e a53f
00000040: 82f3 7939 704e a53f 82f3 7939 704e a53f
00000050: 82f3 7939 704e a53f 82f3 7939 704e a53f
00000060: 1995 21f4 a04d a53f 8659 09c6 5c45 a53f
00000070: a8fb e4b7 4f46 a53f d813 6989 194e a53f
00000080: 82f3 7939 704e a53f 82f3 7939 704e a53f
00000090: 82f3 7939 704e a53f 82f3 7939 704e a53f
000000a0: 82f3 7939 704e a53f 82f3 7939 704e a53f
000000b0: 82f3 7939 704e a53f 82f3 7939 704e a53f
000000c0: 82f3 7939 704e a53f 82f3 7939 704e a53f
000000d0: 82f3 7939 704e a53f 82f3 7939 704e a53f
000000e0: 82f3 7939 704e a53f 82f3 7939 704e a53f
000000f0: 82f3 7939 704e a53f 82f3 7939 704e a53f
00000100: 82f3 7939 704e a53f dd55 5ddd 594e a53f
00000110: 3310 2c28 8749 a53f 2b1e 5845 4b42 a53f
00000120: 8e36 29a7 a83a a53f d241 cdfb e731 a53f
00000130: 0ddd 77a4 9530 a53f 27f2 371c 3b33 a53f
00000140: 4f08 7a97 5334 a53f acd0 8a43 f10b a53f
00000150: abcb 1873 0ec9 a43f 5e16 3054 65e7 a53f
00000160: f558 5299 3961 a73f 13d0 8011 3248 a63f
00000170: 84c2 b74b 4c18 a53f 185d 12bd fe1a a53f
00000180: b762 49fc 081e a53f 8dde 55e7 b53d a53f
00000190: 7cf0 6421 c44b a53f 4c15 8b4e d84d a53f
000001a0: 82f3 7939 704e a53f 82f3 7939 704e a53f
000001b0: 82f3 7939 704e a53f 82f3 7939 704e a53f
000001c0: 82f3 7939 704e a53f 82f3 7939 704e a53f
000001d0: 82f3 7939 704e a53f 82f3 7939 704e a53f
000001e0: 4d34 2193 cf4d a53f 8d99 e934 d74d a53f
000001f0: 5ce8 c996 a035 a53f c8d7 d009 839a a53f
00000200: 6ccc 752a acaf a33f 6770 8d00 d315 9f3f
00000210: dc8a 080f db46 9f3f b06d 39ab 4aae a03f
00000220: 783c 4bf9 df0b 983f d06d eae6 c1d9 923f
00000230: 0a3c 5ee2 1740 923f 9639 48bf 29ef 8d3f
00000240: 6669 9f3d e1ef 893f 1a27 5b0d 8104 853f
00000250: 60c2 6144 421b 8c3f 224d 4fda 3fe2 923f
00000260: e918 15ba d9c5 993f 6bd2 59b9 a259 a13f
00000270: da6b 84e4 8453 a33f 1540 9c7b 0d6d a43f
00000280: 833e 0b8e 2bed a43f d55e d65e 2e4e a53f
00000290: 82f3 7939 704e a53f 82f3 7939 704e a53f
000002a0: 82f3 7939 704e a53f 82f3 7939 704e a53f
000002b0: 82f3 7939 704e a53f 03f6 c389 ab44 a53f
000002c0: 9dd5 ee1f c847 a53f fc0f 5d72 3a9a a23f
000002d0: 7ac9 dde3 2007 a23f f295 fc39 df69 a03f
000002e0: 7da5 31ed cd16 963f 6687 6dc2 7a88 7e3f
000002f0: 107d 1c1f dc6e 69bf 9758 facd 5e6c 76bf
00000300: 4cfd 0b17 3639 8bbf c07b b125 bdd3 93bf
00000310: d6bb 18db 5dd9 95bf 606f 49b9 facc 9bbf
00000320: b788 0250 c6d1 a6bf 6980 ce73 2652 aabf
00000330: 585c ba9d b762 abbf 837d 7b13 09f7 a4bf
00000340: c5f1 3690 2e0c 97bf 52b3 3951 0225 5dbf
00000350: 5da9 200f 1a62 913f 1783 2daf 26c9 a03f
00000360: 0191 1246 0052 a33f d42b 21e0 2105 a53f
00000370: 82f3 7939 704e a53f 82f3 7939 704e a53f
00000380: 82f3 7939 704e a53f 18c5 b11c 514e a53f
00000390: 82f3 7939 704e a53f fbd0 94e0 e851 a53f
000003a0: 846a ff23 8fa8 a43f 040f 0ee1 fece a03f
000003b0: 7160 5c94 8f99 9d3f 29d0 6576 489f 983f
000003c0: 8b9b 3719 e6ba 7b3f d8bf 7e4e 2c88 94bf
000003d0: 87f5 d455 5ab2 99bf cdeb 4415 2d76 9bbf
000003e0: 3206 a1d7 a421 96bf b9f8 d872 7ac6 64bf
000003f0: 37fb 6965 495f 73bf 8d24 a20a fef7 673f
00000400: e416 0b79 7341 a1bf ea4a f467 2dee 8ebf
00000410: 7c01 32f3 d2e9 84bf 2dde cc6e 6b5e 91bf
00000420: d3c3 b485 ead9 95bf e948 2cbe e3b6 91bf
00000430: b918 01a5 c82b 6cbf c456 4515 407d 873f
00000440: 463b 898a a969 9a3f 375e 2f5b 5bcc a33f
00000450: ddd6 0e7a 274a a53f 82f3 7939 704e a53f
00000460: 82f3 7939 704e a53f 82f3 7939 704e a53f
00000470: dd7c d484 4248 a53f ef42 7cc3 884b a53f
00000480: e6cc a716 f0b6 a13f 0fd2 def1 83ee 923f
00000490: 4fbc b88a e70d 853f 3f54 357a 1f6d 84bf
000004a0: a67d a4de b8a3 a1bf 56dd cb9f 9042 adbf
000004b0: 13ba 5485 ba44 a9bf 9f76 518a ca31 95bf
000004c0: 9afd 6169 9607 633f 9a89 3f69 43a5 a83f
000004d0: ad5d 7a4d 33d5 ae3f 4304 fa97 272f ab3f
000004e0: 85aa 509a 8702 9f3f 5129 6811 025a a13f
000004f0: 879f 8b9d a96a a33f 9dcc b8c5 9e62 903f
00000500: 36e5 bba2 7722 583f 6a70 b152 fb93 97bf
00000510: 4ddf 7eaa 58f3 8fbf 7859 2b23 d98c 8ebf
00000520: 88b1 dd62 d617 65bf ba95 2ef5 e8ac 9a3f
00000530: 64a6 d321 d53e a33f 6b31 838f 8994 a43f
00000540: 82f3 7939 704e a53f bc9f 776c 604e a53f
00000550: 5906 a198 c71e a53f 6a9f 36c2 c57d a43f
00000560: 1f12 2ab2 277a 9d3f a402 01ea cb83 8a3f
00000570: 08b5 cedd 9128 71bf 402b edc7 67d6 9dbf
00000580: 1a41 ced3 b730 aebf 031a a658 a52a b4bf
00000590: c7cf 1429 523a 99bf cf73 3ee0 1e1b 7a3f
000005a0: 1fc6 8be3 7200 973f 3e17 22a2 2320 a23f
000005b0: 55e9 02b9 2226 9d3f 212b cf83 97fb a33f
000005c0: b17a 797b af6a a83f 82d7 41fc 2201 aa3f
000005d0: 5f15 316f 6eb2 af3f 1098 33fd ad71 a73f
000005e0: bf8e 8fec 1683 7e3f 086f e0dd 0281 7d3f
000005f0: be94 2635 6cd9 5bbf a2d4 9b5f 24e5 91bf
00000600: 4a16 77d5 936d 9abf 8fdb 9d0b 4f4b 733f
00000610: 7c05 8624 b1f8 9a3f 2a38 64fa ff7d a23f
00000620: 57da 6f55 444e a53f 6518 3528 9542 a53f
00000630: 5719 2bd5 5093 a43f fc51 d98e d60b a33f
00000640: 990d 4d03 b380 963f 571d 0e60 2026 773f
00000650: aeca bb09 30fc 8ebf 1b53 e486 9c63 aabf
00000660: 99bd 73a0 b484 b2bf 269b fc5c 7947 9cbf
00000670: 2351 fe60 8c8d 753f 5708 df4b 8376 84bf
00000680: 3493 4367 568a 4f3f 6adf e457 37bb 693f
00000690: 2952 626e a61b 9d3f 000b 0f9e 9e9b a83f
000006a0: cdc9 3140 1a6e af3f f7dd 44a7 46dd b63f
000006b0: 15e0 4de9 0f4c b33f d489 9892 a7d5 a83f
000006c0: 0af0 d620 4603 8e3f 811c 5e57 7dc6 72bf
000006d0: b229 6faa d88f 8fbf b57e 9906 c569 9dbf
000006e0: 518d c2c2 d0f9 a4bf bacc 30e3 3f02 7abf
000006f0: 452c 8404 5c5a 9c3f cd8b 988e f8c3 a43f
00000700: 46e4 1fdc bd4d a53f bb36 0b7f 4016 a53f
00000710: f2dc ce08 81e9 a33f 56c6 89b3 be78 9e3f
00000720: cc03 2b77 9aa7 7f3f 3aee f8c3 161a 85bf
00000730: aaa3 0e99 f14a 9bbf e546 dc89 5449 b0bf
00000740: c595 dc72 9022 acbf a1c6 40af 9f55 96bf
00000750: d93a 9ed3 cdda 82bf f794 50eb cf4a 95bf
00000760: d004 38da 918c 69bf 6fda 9216 6fe3 61bf
00000770: b574 eabf 2fb6 9c3f fdac 3369 50fc aa3f
00000780: a439 268f 52c8 b73f ea0f 0b2c 5bc9 b63f
00000790: 5651 edce 0fb4 b03f 4f25 b77f 5175 9b3f
000007a0: 2ce5 8026 1d06 4cbf 6f92 785a 73e3 7cbf
000007b0: fc8b c6eb 5d96 523f 54f8 ea86 4162 78bf
000007c0: 42fe 2e0b 6727 98bf 7612 c933 9872 6cbf
000007d0: 3770 06ad 036f 9e3f 35f6 d2f4 d2f5 a43f
000007e0: c7bc 7846 534e a53f 7631 8a17 0dd2 a43f
000007f0: 847d aefe c486 a33f 4076 7e78 13f5 993f
