Multiclass_weights6k 5I/class0weights.npy (npy, 6400 bytes, 1 tensors)

array f8 [1, 784]
0.0 0.0 0.0 0.0 0.0 0.0 0.0 0.0
0.0 0.0 0.0 0.0 0.0 0.0 0.0 0.0
0.0 0.0 0.0 0.0 0.0 0.0 0.0 0.0
0.0 0.0 0.0 0.0 0.0 0.0 0.0 0.0
0.0 0.0 0.0 -8.50000000000061e-06 -3.4218955032246676e-05 -5.167902003974464e-05 -6.321436978215852e-05 -0.00011239999812571991
-6.515224160731089e-05 -0.00018991233551690647 -0.0003943054535889519 -0.0003406055725681619 -0.0006392628590158089 -0.00020733310138318866 -0.00012483339853860395 -0.0009589754574437406
-0.0032328246553066306 -0.0008406790430575875 -3.5499999999988e-05 0.0 0.0 0.0 0.0 0.0
0.0 0.0 0.0 0.0 -1.4499999999999992e-05 -2.4166805344914815e-06 -4.25006429627869e-06 -1.8986826308185007e-05
-0.0002895993723129448 -0.002220998150859741 -0.0022441474808890622 -0.0008010694265844585 -0.002868595956480154 -0.004466967303325837 -0.006451979394881598 -0.01892932962636396
-0.041156221804322365 -0.02353740134934333 -0.012944711246626698 -0.007305038646090337 -0.005100378476496471 -0.0014381174530321294 -0.00028548211014138157 -2.916666666690135e-05
-1.2250000000103627e-05 0.0 0.0 0.0 0.0 0.0 0.0 0.0
-4.249999999999999e-06 -5.558355234674261e-05 -0.00018016700862683258 -0.00032613600055840785 -0.0028849374868844244 -0.008244840232153853 -0.013683787816136073 -0.03534897279074826
-0.0446986660131932 -0.01811534475455828 0.0062360751946622574 -0.014036211288556357 -0.03640733439538562 -0.01228352832861473 -0.04137385403765495 -0.03666809654249845
-0.017196954816779665 -0.012647678729322804 -0.004902344683008681 -0.001365951725744428 -0.00045761857340685273 0.0 0.0 0.0
0.0 0.0 0.0 -1.5000000000000002e-05 -0.0007178293810382897 -0.0019161256101193629 -0.0018315590281049571 -0.0029971785277731955
-0.008699389894080433 -0.018744854018895894 -0.03164971826915528 -0.013228964690009193 -0.01546934013141695 0.02531107296011036 0.0018967702977233018 -0.006607746418784665
-0.0272168174772093 -0.004786631892460193 0.008232362853656696 -0.01193770478481282 -0.007253025915522848 -0.045165315512289035 -0.040274392850275766 0.0018554304094094956
0.0047687063816329225 -0.00010348632841068395 0.0 0.0 0.0 0.0 -6.333333333333333e-06 -0.00012419294779732255
-0.001331570675483376 -0.003685520691587879 -0.006878692741828742 -0.013993746563978327 -0.018652238866761626 -0.028773068555800127 -0.03534084925828701 -0.027744700191700843
-0.02509493139217545 -0.010008716173776404 -0.009088541293988426 -0.006605148379492022 0.036662874289564974 -0.003477041426303616 0.004177737175613394 0.019885724978029658
-0.01834949185275385 -0.027603716359503094 -0.015290595086466663 -0.0002761567835516797 -0.0005607847187524894 -0.003619633535136111 -0.00013758331622805157 -4.500000000000052e-06
0.0 0.0 -2.2336136713152234e-05 -0.00028780844856040417 -0.0015490146096577685 -0.005119319325227979 -0.011803391670738357 -0.01762720426184933
-0.02214009932410917 -0.025363424020218038 0.01793747117580495 0.010671052166217476 0.02743080744642242 0.01121999875810994 0.011498054934737946 -0.010513423397469662
0.0012825105028446678 0.006238640865330812 -0.029375535350742814 0.04549458896004613 -0.0015505169074864036 0.03795499959314636 0.011525850372795167 -0.0154180189130931
-0.028785657274056207 -0.03811063078923716 -0.010838108569828496 -0.007799915985844813 -3.916666666666667e-06 -6.241036325461974e-05 -0.00015069142092951647 -0.0006085964663940646
-0.0029525638520923893 -0.006911492053041321 -0.012683152916780254 -0.01132758061172216 -0.02196551719612646 -0.0002443551391261637 0.02896882692288331 -0.006611451357030295
0.020096800000511644 0.01455880706792057 0.02763555638187038 0.017253814463774476 0.007403587685276995 0.0267266172677567 -0.01907467770096121 0.009334403432703831
-0.01005482641318798 -0.013497123577928689 -0.01711381767813495 -0.009605515352131262 -0.03060316834344057 -0.02977261824894941 -0.0038738635974741075 -7.964313772082271e-05
-1.5916666666666666e-05 -8.439590887871902e-05 -0.00022102183994039372 -0.001434372148172506 -0.006815198795967898 -0.012398092912121576 -0.015890961384401 -0.03312097369244296
-0.031892528808055945 -0.01623534295253067 -0.00039920240158534547 -0.03697151005546862 -0.016751481750614014 -0.005435900960343735 0.021868918445094802 0.00876057002414794
0.0060128005880524795 0.010733037200237064 0.02098516109500828 0.01413779688912429 0.0014798271109326576 -0.02090325726881776 -0.010584581092641938 -0.009233150897640484
-0.016228316004611394 -0.021399660985546153 -0.006001487417771732 -0.004494612460521003 -2.5833333333333333e-06 -7.1924461658311e-05 -0.0005413971877839836 -0.002168890915331712
00000000: 0000 0000 0000 0000 0000 0000 0000 0000
00000010: 0000 0000 0000 0000 0000 0000 0000 0000
00000020: 0000 0000 0000 0000 0000 0000 0000 0000
00000030: 0000 0000 0000 0000 0000 0000 0000 0000
00000040: 0000 0000 0000 0000 0000 0000 0000 0000
00000050: 0000 0000 0000 0000 0000 0000 0000 0000
00000060: 0000 0000 0000 0000 0000 0000 0000 0000
00000070: 0000 0000 0000 0000 0000 0000 0000 0000
00000080: 0000 0000 0000 0000 0000 0000 0000 0000
00000090: 0000 0000 0000 0000 0000 0000 0000 0000
000000a0: 0000 0000 0000 0000 0000 0000 0000 0000
000000b0: 0000 0000 0000 0000 0000 0000 0000 0000
000000c0: 0000 0000 0000 0000 0000 0000 0000 0000
000000d0: 0000 0000 0000 0000 0000 0000 0000 0000
000000e0: 0000 0000 0000 0000 0000 0000 0000 0000
000000f0: 0000 0000 0000 0000 0000 0000 0000 0000
00000100: 0000 0000 0000 0000 0000 0000 0000 0000
00000110: 0000 0000 0000 0000 ce4d c11a 67d3 e1be
00000120: f01d 9657 caf0 01bf e5ee 909b 3d18 0bbf
00000130: f3d8 789a 3e92 10bf f2db 9a43 0977 1dbf
00000140: 6c42 e4fc 4a14 11bf 0560 518a 66e4 28bf
00000150: bbd5 1d07 59d7 39bf 9d24 86cb 6952 36bf
00000160: 29bb 5889 86f2 44bf ba5c 96c7 f12c 2bbf
00000170: 2ebb 74ba b65c 20bf a608 1b1d 786c 4fbf
00000180: 3042 6285 b97b 6abf b1e2 887f 208c 4bbf
00000190: 9ecc 49b6 ba9c 02bf 0000 0000 0000 0000
000001a0: 0000 0000 0000 0000 0000 0000 0000 0000
000001b0: 0000 0000 0000 0000 0000 0000 0000 0000
000001c0: 0000 0000 0000 0000 0000 0000 0000 0000
000001d0: 0000 0000 0000 0000 0000 0000 0000 0000
000001e0: 8bbe 49d3 a068 eebe fcdf 942c c845 c4be
000001f0: df15 34c7 78d3 d1be 867d cec4 bce8 f3be
00000200: ec34 41d5 abfa 32bf fb74 844d c531 62bf
00000210: d6d0 3581 5162 62bf 50bd 977e db3f 4abf
00000220: 1151 31ba e17f 67bf 6e6e ae67 f44b 72bf
00000230: e27e ed07 646d 7abf 81c4 b8ce 3562 93bf
00000240: 765c 5aa5 6d12 a5bf 1cef 1c44 301a 98bf
00000250: 55f3 aebb c182 8abf 84ab 4b61 e3eb 7dbf
00000260: 0176 0f6c 22e4 74bf 05da 6ddb e68f 57bf
00000270: b45a 9f53 98b5 32bf 46b2 4c12 5e95 febe
00000280: b382 172e abb0 e9be 0000 0000 0000 0000
00000290: 0000 0000 0000 0000 0000 0000 0000 0000
000002a0: 0000 0000 0000 0000 0000 0000 0000 0000
000002b0: 0000 0000 0000 0000 0000 0000 0000 0000
000002c0: 654c c11a 67d3 d1be f75b f250 4c24 0dbf
000002d0: 5388 dad1 669d 27bf 31af d974 a75f 35bf
000002e0: bd8f 0705 27a2 67bf af44 43b9 abe2 80bf
000002f0: ade3 3ee9 3e06 8cbf f5ba 2ab4 4219 a2bf
00000300: e529 6759 bee2 a6bf 2f3b 1b35 d48c 92bf
00000310: 5677 43b0 ff8a 793f fb81 8d63 04bf 8cbf
00000320: 771c 206d fba3 a2bf 1d6c 9b43 1b28 89bf
00000330: 049e 002c f42e a5bf adc7 e926 29c6 a2bf
00000340: 0a8d 1d1a 149c 91bf f71f 1ab4 06e7 89bf
00000350: a157 6521 7b14 74bf c4f2 5b7f 3761 56bf
00000360: b80e 8cce 90fd 3dbf 0000 0000 0000 0000
00000370: 0000 0000 0000 0000 0000 0000 0000 0000
00000380: 0000 0000 0000 0000 0000 0000 0000 0000
00000390: 0000 0000 0000 0000 6a1d 554d 1075 efbe
000003a0: 15fd 9adb 9685 47bf 82c2 2635 d064 5fbf
000003b0: 3602 1788 1d02 5ebf 6ed4 39f8 898d 68bf
000003c0: a6c9 b858 fcd0 81bf 79f5 eadb d931 93bf
000003d0: 9d8a c951 6434 a0bf 6dd3 a095 c917 8bbf
000003e0: 6b1e a4af 63ae 8fbf 1d83 5c5a 25eb 993f
000003f0: 5948 6499 a113 5f3f 5995 4d6c b910 7bbf
00000400: a7fe dcb3 b9de 9bbf 754b fab6 259b 73bf
00000410: 8155 cd09 21dc 803f 00df 1e9d cb72 88bf
00000420: 40d9 aa51 59b5 7dbf f9dd 1382 e81f a7bf
00000430: 5dfe 5060 d89e a4bf f731 6b3b 3d66 5e3f
00000440: 56e1 40df 5988 733f 0213 9d95 d920 1bbf
00000450: 0000 0000 0000 0000 0000 0000 0000 0000
00000460: 0000 0000 0000 0000 0000 0000 0000 0000
00000470: 750d 2069 5d90 dabe 17c2 614c 3947 20bf
00000480: a691 3920 03d1 55bf d9ea d9da 1831 6ebf
00000490: 0fa0 d805 d52c 7cbf faf4 b9de c0a8 8cbf
000004a0: 493d b88f 9219 93bf cc97 cff1 af76 9dbf
000004b0: 48ee 8d1f 3218 a2bf 83bc d74f 1b69 9cbf
000004c0: 61c0 7f56 7cb2 99bf 3c6a 2125 737f 84bf
000004d0: d219 025d 039d 82bf 1bff 6604 000e 7bbf
000004e0: 0522 1aec 79c5 a23f 7c59 cf66 e27b 6cbf
000004f0: 5a10 a6c8 ac1c 713f a265 c069 ec5c 943f
00000500: 0c89 9f8d 35ca 92bf c06a 0c0c 2644 9cbf
00000510: 337a a9ee ac50 8fbf dfb2 9a5a 2419 32bf
00000520: 3d46 7903 3460 42bf 7b71 05f5 eba6 6dbf
00000530: 9b21 f6af 8708 22bf 7cab cc94 d6df d2be
00000540: 0000 0000 0000 0000 0000 0000 0000 0000
00000550: b53f 92a0 cf6b f7be 78ab c3df 9fdc 32bf
00000560: b978 bac5 0961 59bf 4e2f 46d1 fef7 74bf
00000570: a45e a969 602c 88bf 1158 4ca7 dd0c 92bf
00000580: f5e4 1bea e4ab 96bf 76c5 b992 def8 99bf
00000590: 0cc7 4a50 335e 923f 13e2 8a60 b4da 853f
000005a0: f680 8a53 d216 9c3f ad64 d1bd 82fa 863f
000005b0: a769 4ccf 4a8c 873f 5000 4acd 0f88 85bf
000005c0: f9d7 a72a 3d03 553f 3232 cf67 b08d 793f
000005d0: 8b25 89ce 9e14 9ebf b4eb 7417 114b a73f
000005e0: af0d 36da 5667 59bf a9cb f173 d66e a33f
000005f0: 3428 4773 dd9a 873f acba 0178 7b93 8fbf
00000600: 96ff 57c2 fc79 9dbf e149 bd91 3c83 a3bf
00000610: 4c00 dd4e 4a32 86bf e0cb 2101 cef2 7fbf
00000620: 4523 b222 7d6d d0be 0464 5ee0 495c 10bf
00000630: 3b43 0973 5dc0 23bf 7b3a b6f5 46f1 43bf
00000640: c30d e4a5 f92f 68bf 0a9b 5985 394f 7cbf
00000650: 49e3 e6f7 9ff9 89bf 9644 2922 ea32 87bf
00000660: d604 fde7 207e 96bf 81aa c654 9903 30bf
00000670: 6bf6 f210 01aa 9d3f cc7b b8f5 9b14 7bbf
00000680: e89a 066b 4194 943f 03cf cd01 02d1 8d3f
00000690: f2b3 77cb 7e4c 9c3f 9aa3 69e3 fbaa 913f
000006a0: 458a b36f 3953 7e3f bc11 64ec 385e 9b3f
000006b0: 4e25 a1f3 4f88 93bf 6de1 c46b ea1d 833f
000006c0: 348e e4f4 9f97 84bf 97b2 db42 61a4 8bbf
000006d0: cbfd f2dc 4886 91bf f797 6372 0eac 83bf
000006e0: e198 c1dc 6f56 9fbf 2639 c896 b67c 9ebf
000006f0: 0ae9 baae 14bc 6fbf 5087 fcaf c2e0 14bf
00000700: fbfa 3401 99b0 f0be c672 98ac b61f 16bf
00000710: 8e89 0326 43f8 2cbf 4351 de5d 3180 57bf
00000720: e158 1cff 40ea 7bbf c2ff b8dc 2b64 89bf
00000730: d2c0 ca5d b845 90bf 4435 a475 3bf5 a0bf
00000740: f246 6fb0 3754 a0bf 55f4 146c ff9f 90bf
00000750: b412 6142 8129 3abf a1d9 2405 eeed a2bf
00000760: 3c1c 1de9 4c27 91bf f762 958d f443 76bf
00000770: 2e11 1546 ce64 963f e6f8 fbcd 0ff1 813f
00000780: 3ffe 20de e0a0 783f a81a 18de 33fb 853f
00000790: 48db 6a52 227d 953f f4d1 35fa 46f4 8c3f
000007a0: 4c64 e442 d83e 583f 52d5 65d9 a967 95bf
000007b0: 84fb 136d 5ead 85bf 9fba 2789 d4e8 82bf
000007c0: a22c 09da 279e 90bf 264a 50f0 cae9 95bf
000007d0: 7ea9 fc02 0495 78bf 2d09 6b58 f168 72bf
000007e0: 81fd ea84 aaab c5be 59cc a8d7 c4da 12bf
000007f0: 105b 9b9b 91bd 41bf 4e1e 9971 7ec4 61bf
