Multiclass_weights6k 5I/class1weights.npy (npy, 6400 bytes, 1 tensors)

array f8 [1, 784]
0	0x0000000000000000	0.0
1	0x0000000000000000	0.0
2	0x0000000000000000	0.0
3	0x0000000000000000	0.0
4	0x0000000000000000	0.0
5	0x0000000000000000	0.0
6	0x0000000000000000	0.0
7	0x0000000000000000	0.0
8	0x0000000000000000	0.0
9	0x0000000000000000	0.0
10	0x0000000000000000	0.0
11	0x0000000000000000	0.0
12	0x0000000000000000	0.0
13	0x0000000000000000	0.0
14	0x0000000000000000	0.0
15	0x0000000000000000	0.0
16	0x0000000000000000	0.0
17	0x0000000000000000	0.0
18	0x0000000000000000	0.0
19	0x0000000000000000	0.0
20	0x0000000000000000	0.0
21	0x0000000000000000	0.0
22	0x0000000000000000	0.0
23	0x0000000000000000	0.0
24	0x0000000000000000	0.0
25	0x0000000000000000	0.0
26	0x0000000000000000	0.0
27	0x0000000000000000	0.0
28	0x0000000000000000	0.0
29	0x0000000000000000	0.0
30	0x0000000000000000	0.0
31	0x0000000000000000	0.0
32	0x0000000000000000	0.0
33	0x0000000000000000	0.0
34	0x0000000000000000	0.0
35	0xbee1d3671ac14c66	-8.5e-06
36	0xbefe524233c8cbfe	-2.8916666666666667e-05
37	0xbf04940bbb1f2560	-3.9250000000000005e-05
38	0xbf02434038460941	-3.483333333333334e-05
39	0xbf1205bc01a36e2f	-6.875e-05
40	0xbf0855f085c7e3e9	-4.641666666666667e-05
41	0xbf0b43526527a206	-5.2000000000000004e-05
42	0xbf07763e4abe6a34	-4.4750000000000004e-05
43	0xbf21175428d306fe	-0.0001303949578979543
44	0xbf42bc06fb0ccece	-0.0005717310033106161
45	0xbf29129ec429d6f6	-0.00019128978790988017
46	0xbf0d2f741a3c7c08	-5.5666666666669194e-05
47	0xbf00e8858ff759c4	-3.225000000000062e-05
48	0xbf0402a4ae58fcaa	-3.816666666666667e-05
49	0xbef7dae81882adc5	-2.275e-05
50	0xbee8d0f8f30d1a0c	-1.1833333333333334e-05
51	0x0000000000000000	0.0
52	0x0000000000000000	0.0
53	0x0000000000000000	0.0
54	0x0000000000000000	0.0
55	0x0000000000000000	0.0
56	0x0000000000000000	0.0
57	0x0000000000000000	0.0
58	0x0000000000000000	0.0
59	0x0000000000000000	0.0
60	0xbed445c08cdbd460	-4.833333333333333e-06
61	0xbeb7c4897901bb33	-1.4166666666666667e-06
62	0xbed1d3671ac14c66	-4.25e-06
63	0xbef22ce199a3882b	-1.733333338272567e-05
64	0xbf154700b8e39ce7	-8.116666706180533e-05
65	0xbf2718247da33085	-0.00017619557804094215
66	0xbf371c312edef2fd	-0.00035263252982158084
67	0xbf4bec45f1aa7c64	-0.00085214057192563
68	0xbf668d1152a89a5d	-0.002752813180694687
69	0xbf66b52718ac0a17	-0.0027719272233082226
70	0xbf668f74f17167e1	-0.0027539524121893287
71	0xbf6236dfc0c0d1cb	-0.002223431603875369
72	0xbf8d1dc334e3ab33	-0.014216923762850086
73	0xbfa41d333ab01a32	-0.039285279192018754
74	0xbf735eaacf1a2622	-0.004728953573825774
75	0xbf64b297e8611a38	-0.0025265662143596733
76	0xbf4da7eac05fafac	-0.0009050270316470674
77	0xbf370ac2ca839c3a	-0.0003515935482156261
78	0xbf1e5b4c547ae968	-0.00011580136662817586
79	0xbf108f0843f6ef87	-6.31665034153667e-05
80	0xbef9f3c1fc12adee	-2.4749926301010786e-05
81	0x0000000000000000	0.0
82	0x0000000000000000	0.0
83	0x0000000000000000	0.0
84	0x0000000000000000	0.0
85	0x0000000000000000	0.0
86	0x0000000000000000	0.0
87	0x0000000000000000	0.0
88	0xbeb7c4897901bb33	-1.4166666666666667e-06
89	0xbf15397befc265d7	-8.096522282343505e-05
90	0xbf396d844d6c2dff	-0.0003879974369034033
91	0xbf4d4ca219cb8e4c	-0.0008941451556804896
92	0xbf6c76bc8c3c8feb	-0.003474586732311371
93	0xbf83201151757d02	-0.00933850793688729
94	0xbf8e7e73e1d8b1bb	-0.01488962681750016
95	0xbf90d86a9b656276	-0.01645056317770118
96	0xbf8e41b1d93951a9	-0.014773740235946091
97	0xbf9b5ba4a296a91a	-0.026716778205504978
98	0xbf91ca5653ae547d	-0.017373417718392837
99	0x3f735d0f81f8540e	0.004727421357093154
100	0xbf988c6d85f0ba7e	-0.02397318964011185
101	0xbf9fb440c107b16d	-0.030961047917956664
102	0xbf87854a5b3fc473	-0.011484700116826318
103	0xbf8d6517ec74b171	-0.014352976707038253
104	0xbf5d0b7e8aa9d815	-0.0017727599867192235
105	0x3f73e7056da58937	0.004858990864109728
106	0xbf4fc8d063759812	-0.000969983818248423
107	0xbf2c11f1c81dc580	-0.00021415783345050607
108	0xbf09625f12d59578	-4.841663972391779e-05
109	0x0000000000000000	0.0
110	0x0000000000000000	0.0
111	0x0000000000000000	0.0
112	0x0000000000000000	0.0
113	0x0000000000000000	0.0
114	0x0000000000000000	0.0
115	0xbeef750ea94c658c	-1.4999988061914123e-05
116	0xbef73565d4c1cb91	-2.213343150043627e-05
117	0xbf6b2d2300863047	-0.0033174213060132326
118	0xbf7731b4421e069e	-0.005662635930890806
119	0xbf63a21b254a50d3	-0.002396634119870547
120	0x3f886e24dac32bb2	0.011928832937334242
121	0xbfa201ab9e171007	-0.035168993995768054
122	0xbf94fda6ca9c321a	-0.0204988537944236
123	0xbf89f8d49107c4fd	-0.012681637454962752
124	0xbf8c98add970eea3	-0.013963087271000879
125	0xbf993e3356e5f5fa	-0.024651338747835518
126	0xbfa4ed9f2e140202	-0.04087541043736921
127	0x3fa298c4cef4e95a	0.036321783316867154
128	0xbf882072d62e1a68	-0.011780640755899088
129	0xbfac744a918cc707	-0.05557473208172153
130	0x3f9b55c495fb42db	0.026694366125243767
131	0x3f5fea018dd80faf	0.0019478812386077673
132	0xbf9640ccd684e306	-0.021731567948537943
133	0x3f70f8232d917d65	0.00414289227873552
134	0xbf6a65522908d52b	-0.003222141713446055
135	0x3f74d18e7c44909b	0.0050826612316862375
136	0xbf24d39b86263189	-0.00015889428602767718
137	0xbf3164d018be308a	-0.0002654083298174811
138	0x0000000000000000	0.0
139	0x0000000000000000	0.0
140	0x0000000000000000	0.0
141	0x0000000000000000	0.0
142	0x3f2174410ce65645	0.0001331643492902703
143	0xbeeb6216bfc30b7d	-1.3057308017377353e-05
144	0xbf45a35008b1a048	-0.0006603375235387865
145	0xbf861d966f9691e7	-0.010798621445084101
146	0xbf805f9b7ee170e3	-0.007994856652822019
147	0x3f8b0e5cd0259a9e	0.013210988142146104
148	0xbf94dfbece9fe3d5	-0.020384770737994124
149	0x3f877d64d826ff00	0.011469638678021976
150	0xbfa18b9c27c921c6	-0.03426826463379799
151	0xbfa03ee73dce9857	-0.03172991399269225
152	0xbfa0f47a6fedfeb6	-0.0331152211792846
153	0xbf9566e8e72b3627	-0.02090038214628556
154	0xbf8453a446340b7e	-0.009925158874926284
155	0x3f50121f33ad2619	0.000980883093421153
156	0x3f9b7c559a111253	0.026841485527500385
157	0xbf89a1e30fc1cf52	-0.0125158061202694
158	0xbf70249ac7cc15b6	-0.003941158877528597
159	0x3f8865a27ed1e67d	0.011912602896916308
160	0x3f7bfe2bda7457aa	0.006834193517780843
161	0xbf847e2f937638d8	-0.010006305396725798
162	0x3f5567d0e4387c63	0.0013064899402548617
163	0x3f91d714602f00ad	0.017422026033955863
164	0xbf73ff2d2ae179bf	-0.0048820270877442664
165	0xbf639ebf3b035a8c	-0.002395032403096414
166	0xbf3fda4c2e010c7f	-0.00048603401046793526
167	0xbeb92a737110e454	-1.5e-06
168	0x0000000000000000	0.0
169	0x0000000000000000	0.0
170	0x3efba7d462fe0651	2.637442065590016e-05
171	0xbf2f1dcd5c286234	-0.00023739940486745966
172	0xbf55178972fd9e39	-0.0012873499180957716
173	0xbf9670553f2bdf08	-0.021912891369509274
174	0xbf309203cdcae7da	-0.0002528437887964176
175	0xbf70d8b7e545070d	-0.004112928716780717
176	0xbf9c67e5b7b0da5b	-0.02774008687648642
177	0x3f6d8eff5fbc0439	0.003608225610037621
178	0xbf3876076265ad22	-0.0003732460048897092
179	0xbf8a71ed083f7a5d	-0.012912608923156538
180	0xbfa117a4bda8caad	-0.03338351073434374
181	0x3f64344cfbe045dd	0.0024663451758974845
182	0xbfa1d51e6b50da31	-0.03482909259803469
183	0xbf8b5e78a21d2992	-0.013363783309291919
184	0xbfa5ae679f72a149	-0.0423462278498073
185	0xbf6284cb0d74cbdf	-0.002260586344755108
186	0xbf7905a1885bb2c1	-0.006108885752592997
187	0x3f84bf3a2e103ecf	0.010130362063164892
188	0xbf65ff91e909136d	-0.0026853418169445115
189	0xbf664372ddecc633	-0.0027177089208627824
190	0xbf620e1c10109a31	-0.00220399361616621
191	0xbf91ac2587e6cbae	-0.017258249683162745
192	0xbf9462320059a40e	-0.01990583541047291
193	0xbf8147e72a722889	-0.008437925322386757
194	0xbf4229a1ac69e679	-0.0005542792722074828
195	0xbf316a90620636b1	-0.0002657511231739336
196	0xbed06d7d22b22345	-3.916666666666667e-06
197	0xbf0ba7fc32eba796	-5.274999999989244e-05
198	0xbf0df8c7b5c501b6	-5.716666666666667e-05
199	0xbf3d9379afb0b54c	-0.00045129509789173096
200	0xbf5e932237d0c52e	-0.0018661340866511045
201	0xbf9657fef2aae88a	-0.021820052682166614
202	0xbf9c9130bb3b7668	-0.027897607257605733
203	0x3f820a1953d2b605	0.008808324690416045
204	0xbf93511af8d64fc8	-0.018864079892935398
205	0xbf8c24677db88d06	-0.013741310619542545
206	0xbf9e979a50b2ef94	-0.029875193763231403
207	0xbf9c53063cc4d9cd	-0.02766046281723238
208	0xbf3fc7f83b32c3d8	-0.00048494158108796986
209	0xbf8b47da1c3215cd	-0.013320640550101093
210	0x3f806353b5d98d50	0.008001951205364094
211	0xbf8a8ea4e5dbfb74	-0.01296738459086353
212	0xbf92c227e6f7e318	-0.018318770858942818
213	0xbfa04813dd06600d	-0.031799908381060595
214	0x3f80940ff4f6a97a	0.00809490648574206
215	0x3f954ca582770721	0.020800195777844203
216	0xbf5bbfa4330891df	-0.0016936400899193388
217	0x3f987d3c9c158132	0.023915240313159454
218	0xbf8899ab70b1e0ed	-0.012011851669953855
219	0xbfa1e165fc676cb0	-0.03492277818778555
220	0xbf95e1f74eba8c3c	-0.021369804554194113
221	0xbf70a7475402d74d	-0.004065779328973407
222	0xbf52dfeecbfbb9a8	-0.0011520225524993353
223	0xbf264ddec7121f5f	-0.00017016739323971305
224	0xbef0b0990134fafb	-1.5916666666666666e-05
225	0xbf0b919d936af305	-5.2583333333333335e-05
226	0xbf20f680b55c5905	-0.00012941666744187993
227	0xbf411ab7d59c7a47	-0.0005219838742254811
228	0xbf68b20ba4508b3e	-0.0030145861988030423
229	0xbfa33269fadf9444	-0.0374940031759157
230	0xbf9651e50069a726	-0.02179677786845171
231	0xbf8c790347c631b0	-0.013902688625216125
232	0x3f75ddcb11514db9	0.005338471634860503
233	0xbf99826a8d74f6d7	-0.02491156090149257
234	0xbf80b77e628f2141	-0.00816248644140727
235	0xbf81071214089932	-0.008314267383934568
236	0xbf8c19fd1cfc48cd	-0.0137214445563
237	0xbf90f71ddfe6b732	-0.016567675391051036
238	0x3f8516288af59d95	0.01029616998739761
239	0xbf707829270a2906	-0.004020844222973224
240	0xbf706f16a11317da	-0.004012192149451333
241	0xbf9710dfdaac27cf	-0.022525308343609936
242	0x3f8d555114850c08	0.014322884978019715
243	0xbf96fad39d9ee0b6	-0.02244120263614554
244	0xbf8054aaa47e0be8	-0.007973988671215751
245	0x3f7082a6429d0672	0.00403084702867461
246	0xbf8e192fb99c72f4	-0.014696476795103199
247	0xbfa01afcbc823b4c	-0.03145589638835719
248	0xbf913f1f03c5d752	-0.016842350583338224
249	0xbf6f96ad6e4f604c	-0.0038560283014526294
250	0xbf472d61c74e17ec	-0.0007073142465834326
251	0xbf001f31f46ed6a0	-3.075000000000755e-05
252	0xbec5abaa84eafd81	-2.5833333333333333e-06
253	0xbf3ad4f4fde2dc47	-0.00040942174190256416
254	0xbf2c289c1a103996	-0.00021483331241296523
255	0xbf4678b6d4e89280	-0.0006857769711286626
