Multiclass_weights6k 5I/class5weights.npy (npy, 6400 bytes, 1 tensors)

array f8 [1, 784]
0.0 0.0 0.0 0.0 0.0 0.0 0.0 0.0
0.0 0.0 0.0 0.0 0.0 0.0 0.0 0.0
0.0 0.0 0.0 0.0 0.0 0.0 0.0 0.0
0.0 0.0 0.0 0.0 0.0 0.0 0.0 0.0
0.0 0.0 0.0 -8.5e-06 -2.8916666666666667e-05 -3.9250000000000005e-05 -3.483333333333344e-05 -6.875000000000064e-05
-0.001311082974889307 -0.0031293546833417647 -0.00038199511870378724 -8.18346741456897e-05 -0.00011741666666666667 -7.883333333333334e-05 -5.566666666666667e-05 -3.225099626717231e-05
-3.817022709688908e-05 -2.2750881941431243e-05 -1.1833333333333334e-05 0.0 0.0 0.0 0.0 0.0
0.0 0.0 0.0 0.0 -4.833333333333333e-06 -1.4166666666666667e-06 -4.25e-06 -1.7333333333333336e-05
-0.0005254330857327621 -0.0076137142323808756 -0.01770432279392745 -0.01774011200900671 -0.03000151633760108 -0.03340043756878006 -0.06921367927308271 -0.06132596016499381
-0.04195365384526972 -0.054406510879180026 -0.03434049869520691 -0.005747711700578597 -0.03389853407928994 -0.05539323237586245 -0.02928973974449263 -2.116666813428867e-05
-9.250000000000001e-06 0.0 0.0 0.0 0.0 0.0 0.0 0.0
-1.4166666666666667e-06 -6.757086272456374e-05 -0.000252905800343685 -0.00035473641761748294 -0.005512605727115843 -0.026804364240139083 -0.0552054410691528 -0.04292068547922177
0.0644459491096872 0.029020226290437184 -0.01193682629755866 -0.04804572692541855 0.008881449371577432 -0.08001714707030641 -0.06957748787037064 0.03567556793084356
-0.04518790071872352 0.00157767026035291 0.021477741075622295 0.022035884787319916 0.021111969041329202 0.0 0.0 0.0
0.0 0.0 0.0 -1.0933562748975723e-05 -0.0005520308832246653 -0.004872596304364157 -0.02530946648099787 -0.04131408659269341
0.056061050119778445 -0.005098589849016019 -0.022765357031122452 0.015395617981243899 0.018787091748623013 -0.03396726538579057 0.03569087448556221 0.0006939272546829223
-0.04229492370111415 0.038720078534136435 -0.04281304141828485 0.007427536606238188 0.0434741485230065 -0.011732345711385976 0.034880173852460776 -0.06572150644273118
0.06959674092042126 0.08611087321486127 0.0 0.0 0.0 0.0 -6.333333333333333e-06 -0.009975725785220239
-0.046152546487708876 -0.0737241574072869 -0.11654079775043083 -0.10473401320792726 0.07543800434645824 -0.030777438945300245 -0.0675670952085472 -0.046208279965310906
-0.06643896152554929 0.004463058739092902 0.046490948844758316 -0.08455312761578479 0.011373085377440913 -0.006313688516839031 0.06052581815443305 -0.022903682402730507
0.04160158100895635 -0.033013545527035754 0.09911710143919979 -0.000890392218355657 0.04518336390585977 0.11740344390590803 0.024194576443766703 0.00020988211691125183
0.0 0.0 -8.5e-06 -0.02085218518309906 -0.0722359358117434 -0.07435505657227151 -0.04950483813480795 -0.044020253670531174
0.07085274236858688 0.02476455124096637 0.00656214114120536 0.0016653249225604355 0.11480140069378125 -0.11732304855943944 0.05651273921911664 0.016545069249501308
0.001813619941795233 -0.08008909650749846 0.019524085455386787 0.047882234953914894 -0.004195484302972731 0.01566748572232278 -0.02148290584600236 -0.022218354932096653
0.06037321056640613 0.07225361006616716 0.04512231785716587 -0.006275625829838204 -3.916666666666667e-06 -0.005795228734249824 -5.716666666666667e-05 -0.016559586921125278
-0.09739604442480071 -0.03551003184934196 0.0189135805580927 -0.13539435685474643 0.056536364452663176 -0.0410362195163469 0.021025263673461084 -0.026265985936465345
0.02494356114235205 -0.05702101674192717 0.048977940497728537 -0.04380244128700141 -0.0007199288600839071 -0.0020286408027371076 -0.0621572458276579 -0.00325673829599591
0.04375774586376065 -0.013518378242384992 -0.0020289598264885 0.11847857586530686 0.06307996326311786 0.12499854624898811 -0.06026473281466413 -0.0043739014932808505
-1.5916666666666666e-05 -5.2583333333333335e-05 -0.00012941666666666668 -0.03471733918875233 -0.11783687374394251 -0.02205921788465175 0.04391282499183965 -0.0888558338792093
-0.00620240621494989 0.06982953598381016 -0.053908916984730285 0.09392585717492143 0.023976350959119323 0.022684871057006797 -0.06766030109670121 0.012205066958752963
-0.03735663416944114 0.03860443574525599 0.027933613015002887 -0.030010596032948554 0.042604809468416306 0.10766733929692099 0.001862293393403541 0.06062661832540122
0.02776613630358745 0.15790463125388376 -0.043489353568728815 -0.009603532547834566 -2.5833333333333333e-06 -5.908333333340089e-05 -0.00021183333333344207 -0.021099632271069334
00000000: 0000 0000 0000 0000 0000 0000 0000 0000
00000010: 0000 0000 0000 0000 0000 0000 0000 0000
00000020: 0000 0000 0000 0000 0000 0000 0000 0000
00000030: 0000 0000 0000 0000 0000 0000 0000 0000
00000040: 0000 0000 0000 0000 0000 0000 0000 0000
00000050: 0000 0000 0000 0000 0000 0000 0000 0000
00000060: 0000 0000 0000 0000 0000 0000 0000 0000
00000070: 0000 0000 0000 0000 0000 0000 0000 0000
00000080: 0000 0000 0000 0000 0000 0000 0000 0000
00000090: 0000 0000 0000 0000 0000 0000 0000 0000
000000a0: 0000 0000 0000 0000 0000 0000 0000 0000
000000b0: 0000 0000 0000 0000 0000 0000 0000 0000
000000c0: 0000 0000 0000 0000 0000 0000 0000 0000
000000d0: 0000 0000 0000 0000 0000 0000 0000 0000
000000e0: 0000 0000 0000 0000 0000 0000 0000 0000
000000f0: 0000 0000 0000 0000 0000 0000 0000 0000
00000100: 0000 0000 0000 0000 0000 0000 0000 0000
00000110: 0000 0000 0000 0000 664c c11a 67d3 e1be
00000120: fecb c833 4252 febe 6025 1fbb 0b94 04bf
00000130: 5009 4638 4043 02bf 5e6e a301 bc05 12bf
00000140: 23ad f79f 147b 55bf 2da0 b880 bba2 69bf
00000150: 98bb c48a d008 39bf e720 1dff d473 15bf
00000160: 7dc5 2df9 b2c7 1ebf f217 a05a 6aaa 14bf
00000170: 937a 3c1a 742f 0dbf 0d95 39cb a7e8 00bf
00000180: 3319 3904 1f03 04bf a7c7 c9b3 24db f7be
00000190: 0c1a 0df3 f8d0 e8be 0000 0000 0000 0000
000001a0: 0000 0000 0000 0000 0000 0000 0000 0000
000001b0: 0000 0000 0000 0000 0000 0000 0000 0000
000001c0: 0000 0000 0000 0000 0000 0000 0000 0000
000001d0: 0000 0000 0000 0000 0000 0000 0000 0000
000001e0: 60d4 db8c c045 d4be 33bb 0179 89c4 b7be
000001f0: 664c c11a 67d3 d1be af16 c598 e12c f2be
00000200: 94d1 b0f5 a637 41bf f40f 11da 8e2f 7fbf
00000210: a94a 97fd 1421 92bf 5fce 9fc3 762a 92bf
00000220: 856a 00ae b7b8 9ebf 2d5c 0fb6 dc19 a1bf
00000230: c5e9 e9d8 fcb7 b1bf 80e0 9bc2 1d66 afbf
00000240: 7020 6d06 f37a a5bf 80c2 d491 2bdb abbf
00000250: 5b03 a6ed 1395 a1bf cf3e 7e9c e98a 77bf
00000260: 077b 810e 265b a1bf aeb7 f272 805c acbf
00000270: f468 3e29 21fe 9dbf e541 c25b e231 f6be
00000280: ac5a d251 0e66 e3be 0000 0000 0000 0000
00000290: 0000 0000 0000 0000 0000 0000 0000 0000
000002a0: 0000 0000 0000 0000 0000 0000 0000 0000
000002b0: 0000 0000 0000 0000 0000 0000 0000 0000
000002c0: 33bb 0179 89c4 b7be afdc 0e95 9ab6 11bf
000002d0: 82ba 3524 0e93 30bf 744d f74f 7d3f 37bf
000002e0: 5fef 04d5 6294 76bf 5bb4 346f 9a72 9bbf
000002f0: 8e12 e837 e343 acbf ae0a e938 b3f9 a5bf
00000300: 5429 c99b 877f b03f 181b 5c6b 7ab7 9d3f
00000310: c243 87b4 5572 88bf 73e5 b613 7399 a8bf
00000320: 066d bcf4 6f30 823f a243 c9f5 007c b4bf
00000330: 87ea f08a d4cf b1bf 3cf3 0e6b 1144 a23f
00000340: 470c 8657 de22 a7bf 847b 038b 3ad9 593f
00000350: 2409 0cce 42fe 953f 4af6 ff31 9390 963f
00000360: e9c0 5842 609e 953f 0000 0000 0000 0000
00000370: 0000 0000 0000 0000 0000 0000 0000 0000
00000380: 0000 0000 0000 0000 0000 0000 0000 0000
00000390: 0000 0000 0000 0000 ee3c 046c e9ed e6be
000003a0: de9c 7f4b c516 42bf 46b5 619c 49f5 73bf
000003b0: 04a8 428b b9ea 99bf ce38 8fb5 1e27 a5bf
000003c0: 1d0f b0b1 08b4 ac3f 890f 844a 42e2 74bf
000003d0: d8c3 b83f cd4f 97bf 4466 d9dd bc87 8f3f
000003e0: 7bd2 9662 ec3c 933f 25dc ee4b 2864 a1bf
000003f0: 24bd 5c05 1346 a23f ec61 ad6e 15bd 463f
00000400: 288c 2a24 aea7 a5bf a65d 013e 1ed3 a33f
00000410: 28b8 7749 97eb a5bf 06a7 042d 566c 7e3f
00000420: b669 415c 3e42 a63f dc0d 16c9 2007 88bf
00000430: 0f42 f36b d0db a13f fdbc d0e8 1fd3 b0bf
00000440: 2251 298e 17d1 b13f 54af 49b8 5c0b b63f
00000450: 0000 0000 0000 0000 0000 0000 0000 0000
00000460: 0000 0000 0000 0000 0000 0000 0000 0000
00000470: 750d 2069 5d90 dabe 0fd6 0240 276e 84bf
00000480: a66a 957b 4ea1 a7bf d14c fd1c 96df b2bf
00000490: cae3 fc22 9ed5 bdbf ddc2 8129 d9cf babf
000004a0: b325 8bb1 e74f b33f 1818 e6f6 1e84 9fbf
000004b0: 80d8 34c0 134c b1bf b8c6 8296 9ca8 a7bf
000004c0: 28b4 eece 2402 b1bf 6e47 3135 db47 723f
000004d0: 4b4d b261 a9cd a73f 2662 e215 46a5 b5bf
000004e0: de7b 01ae c54a 873f a4b9 26db 61dc 79bf
000004f0: e3e8 1273 3dfd ae3f 53c3 821b 1074 97bf
00000500: ea6c ca6b cd4c a53f 242d bac4 26e7 a0bf
00000510: 7dda 2705 bd5f b93f 0281 aeba 262d 4dbf
00000520: f30d 991c 4622 a73f 457e 03f0 260e be3f
00000530: ad25 448a 76c6 983f d427 03a8 7982 2b3f
00000540: 0000 0000 0000 0000 0000 0000 0000 0000
00000550: 664c c11a 67d3 e1be 606c a575 465a 95bf
00000560: ea4a e8e5 0d7e b2bf a227 45d8 ee08 b3bf
00000570: bac7 90b9 b258 a9bf ddcb c09b d289 a6bf
00000580: 1a14 4ec3 6723 b23f 6d63 b8e6 e05b 993f
00000590: 10cd 7d59 e7e0 7a3f e957 1805 e148 5b3f
000005a0: c4c8 83e5 9f63 bd3f 613b a120 e208 bebf
000005b0: 77c8 81dd 3cef ac3f 49be 58cd 30f1 903f
000005c0: d9b2 9795 dfb6 5d3f 9c11 4412 b880 b4bf
000005d0: 6a8f 0f32 1ffe 933f b576 5f32 0584 a83f
000005e0: c252 f4bd 482f 71bf 5cd5 262b 230b 903f
000005f0: eb62 2068 9dff 95bf fa93 378f 68c0 96bf
00000600: 64dd dfc9 3ce9 ae3f 398b 406c 367f b23f
00000610: 2951 08bf 451a a73f ffa7 377b 78b4 79bf
00000620: 4523 b222 7d6d d0be 4cde 2ede bcbc 77bf
00000630: b601 c5b5 c7f8 0dbf 49c7 0b11 fff4 90bf
00000640: cc74 9079 f2ee b8bf 5d18 f2f2 5e2e a2bf
00000650: 0901 cae7 145e 933f 0086 602f 9a54 c1bf
00000660: 0ec5 b798 55f2 ac3f 3962 8c09 b302 a5bf
00000670: 711b 788f a587 953f 0194 607a 78e5 9abf
00000680: 78a1 680d ce8a 993f c1b7 2ed4 db31 adbf
00000690: 128c 53f9 a213 a93f 3311 a009 466d a6bf
000006a0: 33b9 6a74 3397 47bf d816 e63c 5e9e 60bf
000006b0: 0e15 1414 13d3 afbf cf44 220f e0ad 6abf
000006c0: aaf1 dc4e 6a67 a63f 3c69 9103 86af 8bbf
000006d0: a176 3083 099f 60bf f03e 9ea8 9c54 be3f
000006e0: 237b 3f2b 0226 b03f c9db 2f9c e7ff bf3f
000006f0: fc12 15e1 04db aebf e5be e93d 5eea 71bf
00000700: fbfa 3401 99b0 f0be 05f3 6a93 9d91 0bbf
00000710: 04f1 a7b3 80f6 20bf 04f4 d698 78c6 a1bf
00000720: bb3c feae 8e2a bebf 8d46 8f0d b196 96bf
00000730: 5b0a 6ee6 bd7b a63f 5bec 9184 41bf b6bf
00000740: c670 98bd b167 79bf e166 5835 59e0 b13f
00000750: 4a0b d316 f399 abbf 69a7 d064 860b b83f
00000760: 81c2 fcac 418d 983f e41c 37ed b33a 973f
00000770: f2a5 727c 2f52 b1bf e677 775b f8fe 883f
00000780: e2bf 17a4 6820 a3bf e447 03ea f5c3 a33f
00000790: a929 6f09 a19a 9c3f 66dc fa01 19bb 9ebf
000007a0: d568 a32e 4cd0 a53f 22ab 2035 1690 bb3f
000007b0: e52a 184e 0683 5e3f 4708 f3bd 730a af3f
000007c0: b6d4 70dd b96e 9c3f d4a9 8f0d 3836 c43f
000007d0: db8e 9a8e 3c44 a6bf 178e c051 04ab 83bf
000007e0: 81fd ea84 aaab c5be 370e 10e0 07fa 0ebf
000007f0: 7924 4d7a f2c3 2bbf 965a 3f5a 249b 95bf
