Multiclass_weights6k 5I/class2weights.npy (npy, 6400 bytes, 1 tensors)

array f8 [1, 784]
000000 00 00 00 00 00 00 00 00 00 00 00 00 00 00 00 00
       0.0 0.0
000010 00 00 00 00 00 00 00 00 00 00 00 00 00 00 00 00
       0.0 0.0
000020 00 00 00 00 00 00 00 00 00 00 00 00 00 00 00 00
       0.0 0.0
000030 00 00 00 00 00 00 00 00 00 00 00 00 00 00 00 00
       0.0 0.0
000040 00 00 00 00 00 00 00 00 00 00 00 00 00 00 00 00
       0.0 0.0
000050 00 00 00 00 00 00 00 00 00 00 00 00 00 00 00 00
       0.0 0.0
000060 00 00 00 00 00 00 00 00 00 00 00 00 00 00 00 00
       0.0 0.0
000070 00 00 00 00 00 00 00 00 00 00 00 00 00 00 00 00
       0.0 0.0
000080 00 00 00 00 00 00 00 00 00 00 00 00 00 00 00 00
       0.0 0.0
000090 00 00 00 00 00 00 00 00 00 00 00 00 00 00 00 00
       0.0 0.0
0000a0 00 00 00 00 00 00 00 00 00 00 00 00 00 00 00 00
       0.0 0.0
0000b0 00 00 00 00 00 00 00 00 00 00 00 00 00 00 00 00
       0.0 0.0
0000c0 00 00 00 00 00 00 00 00 00 00 00 00 00 00 00 00
       0.0 0.0
0000d0 00 00 00 00 00 00 00 00 00 00 00 00 00 00 00 00
       0.0 0.0
0000e0 00 00 00 00 00 00 00 00 00 00 00 00 00 00 00 00
       0.0 0.0
0000f0 00 00 00 00 00 00 00 00 00 00 00 00 00 00 00 00
       0.0 0.0
000100 00 00 00 00 00 00 00 00 00 00 00 00 00 00 00 00
       0.0 0.0
000110 00 00 00 00 00 00 00 00 82 de 14 86 f6 52 4f bf
       0.0 -0.0009559348801877062
000120 35 2c e0 00 ad 13 94 bf 91 5f 5d 3e 52 e3 a5 bf
       -0.019606307199904378 -0.04274994860924076
000130 c9 c7 af 13 f8 09 9f bf c4 81 d0 32 7b 03 8a bf
       -0.030311466409280095 -0.012701952446207872
000140 cf 7c 52 31 06 08 64 bf 49 20 16 18 c0 13 67 bf
       -0.00244523248200288 -0.0028170348966263564
000150 6b 47 31 f8 48 84 88 bf a6 09 b0 05 ca 35 91 3f
       -0.011971063684686553 0.016806751820703923
000160 db b0 4a cb 7e a2 b3 3f 3b 89 37 b6 a8 34 7f 3f
       0.07669823134591829 0.0076185789398286975
000170 a8 bb 7f 2c e0 fc 5f bf e9 0f 20 86 31 f4 55 bf
       -0.0019523801038265707 -0.001339958537301728
000180 c3 f4 03 eb 39 18 61 bf 35 f0 04 30 1a 4a 72 bf
       -0.0020867472850328596 -0.004465200705734464
000190 bb a4 5b 3e cf 9d 67 bf 00 00 00 00 00 00 00 00
       -0.002882866642597818 0.0
0001a0 00 00 00 00 00 00 00 00 00 00 00 00 00 00 00 00
       0.0 0.0
0001b0 00 00 00 00 00 00 00 00 00 00 00 00 00 00 00 00
       0.0 0.0
0001c0 00 00 00 00 00 00 00 00 00 00 00 00 00 00 00 00
       0.0 0.0
0001d0 00 00 00 00 00 00 00 00 00 00 00 00 00 00 00 00
       0.0 0.0
0001e0 cf 74 b7 c8 4a 0e 13 bf ed 3b ba c8 c1 4a 2e bf
       -7.269221730817346e-05 -0.00023110976723159042
0001f0 11 d2 62 05 00 fc 50 bf 29 0f 4d a1 14 58 6c bf
       -0.0010366440015278126 -0.0034599688464441902
000200 75 63 5b 46 59 8e a3 bf 2c 8a 54 e6 56 02 b1 bf
       -0.03819540962076121 -0.06644194720551216
000210 dd d4 7f 37 e6 67 aa bf 3e 3b 72 ac 2c e3 78 bf
       -0.051573938631841655 -0.0060760254920200745
000220 d8 15 6c 67 96 7d b3 3f 22 08 97 4b 14 9b 9b 3f
       0.07613506340938814 0.02695876799931097
000230 03 27 86 bf 53 c5 a5 bf 64 1e 98 26 f2 ce ac bf
       -0.04252111161174634 -0.056266371928413134
000240 31 49 d1 2b 7b 17 b5 bf 17 55 ab a1 f2 0a 9c bf
       -0.08238954372180697 -0.02738551246405504
000250 42 0a 6e 02 ac cf b2 bf bb 03 38 66 47 ba a9 bf
       -0.07348132190058101 -0.05024932024753733
000260 77 46 b1 49 f5 c9 9e bf ac d2 bd ad fd dd 91 bf
       -0.03006728422435009 -0.017448390702571245
000270 d7 a3 a3 7f 5e 05 76 bf cc f8 5d c4 0f f5 85 3f
       -0.005376214156265178 0.01072132413878215
000280 8d ce 05 e7 a0 f2 73 3f 00 00 00 00 00 00 00 00
       0.004870060467840565 0.0
000290 00 00 00 00 00 00 00 00 00 00 00 00 00 00 00 00
       0.0 0.0
0002a0 00 00 00 00 00 00 00 00 00 00 00 00 00 00 00 00
       0.0 0.0
0002b0 00 00 00 00 00 00 00 00 00 00 00 00 00 00 00 00
       0.0 0.0
0002c0 dd 76 f7 3d f3 12 1f bf db a5 cd 0e 36 aa 77 bf
       -0.00011853799468705289 -0.005777560389881721
0002d0 60 63 b0 1d 79 a6 96 bf c5 0b 58 d4 cb d9 73 bf
       -0.0221194195147264 -0.004846378525601607
0002e0 92 45 33 be 02 55 a1 bf ff 1a 28 28 2f 75 93 3f
       -0.03385170528202787 0.019001709772079597
0002f0 86 ca 79 83 0b 63 b7 3f ce ba 8e 4b 88 23 b8 3f
       0.09135505637986271 0.09429218144098714
000300 4b c4 28 22 3c 36 b0 bf 9a 7c 96 fc 04 c8 8c bf
       -0.06332755884138057 -0.014053381880158523
000310 0e 31 c6 b8 c3 a1 8e 3f 02 ec de ac 37 49 b0 bf
       0.014956978870735795 -0.06361721010664215
000320 19 2c 23 44 0d ae 7e 3f e1 96 29 6a e0 fa 9d bf
       0.007490207501358114 -0.029277330855982057
000330 6f a7 95 5e a3 6a bf bf dd bb 51 a8 bc 5d a7 bf
       -0.12272091921991345 -0.04563703112295745
000340 de f8 3d 6e f8 33 97 3f e1 8f 72 7e b9 e4 a5 bf
       0.022659188965456482 -0.04276065510319405
000350 29 f3 7c 95 f0 95 81 3f d7 47 56 80 88 d3 7d 3f
       0.008586768686308215 0.0072818119127919445
000360 8a ec fd bd 20 bf 55 3f 00 00 00 00 00 00 00 00
       0.0013273067233672575 0.0
000370 00 00 00 00 00 00 00 00 00 00 00 00 00 00 00 00
       0.0 0.0
000380 00 00 00 00 00 00 00 00 00 00 00 00 00 00 00 00
       0.0 0.0
000390 00 00 00 00 00 00 00 00 2c c4 80 6a df 59 69 bf
       0.0 -0.003094612464359622
0003a0 c1 b4 b6 34 20 82 95 bf 73 7f c9 7b ec 87 74 3f
       -0.02100420305003037 0.0050124395025646805
0003b0 5b 83 ef 39 94 89 9d 3f be f3 b9 af 25 4f a6 3f
       0.028845134769542962 0.04357259531113965
0003c0 23 fc bb ca 89 1a a7 bf 1a 40 ef 1b d3 cc bb 3f
       -0.04512434577736026 0.10859412605282195
0003d0 29 dc b0 1b 91 18 a4 3f 6b a7 82 d9 6a e8 9d bf
       0.03924993002913652 -0.02920691444948124
0003e0 04 26 3f 9e 9f ea 9f bf 1c 0b 31 b6 e7 32 a8 3f
       -0.031168455155954802 0.047263375272924985
0003f0 c9 d3 d3 d7 ba 8f 86 3f 40 aa 5e ea fa 87 9e bf
       0.011016330443888738 -0.02981559806327483
000400 e4 b8 d3 ff 62 3c 9f 3f 10 73 28 a7 80 d2 a4 bf
       0.03050379454082809 -0.040668507008581156
000410 14 af 5a 38 96 38 94 3f c7 8b 47 34 7f 5f 91 bf
       0.01974711150130222 -0.01696585423077204
000420 2f 8b 3b a2 1e 8d 8e bf a8 36 25 2f ab 8c 7c 3f
       -0.014917601896234338 0.00697008961499327
000430 aa 88 d1 f5 6a 9c b7 bf 04 18 78 e5 82 33 9c bf
       -0.09223049642017381 -0.027540250068362596
000440 20 66 3d 96 39 e2 97 bf e1 0f 38 ab a4 b2 93 bf
       -0.023323917193328936 -0.019236157369974086
000450 00 00 00 00 00 00 00 00 00 00 00 00 00 00 00 00
       0.0 0.0
000460 00 00 00 00 00 00 00 00 00 00 00 00 00 00 00 00
       0.0 0.0
000470 94 2b d9 6c 55 f3 35 bf 85 1e 80 90 c9 aa 82 bf
       -0.00033493838859460193 -0.009114813539795161
000480 b4 e1 d2 6e 66 43 91 bf 88 40 f8 d0 82 e7 98 3f
       -0.016858673586030284 0.024320644382954032
000490 93 36 ae ed c8 79 b4 3f b2 16 fb bd 13 b9 96 3f
       0.07998328974482609 0.02219038817454217
0004a0 19 3b 9a ea b1 3d a3 3f 93 96 ac d2 4e e3 af bf
       0.03758007038879025 -0.06228109666544159
0004b0 96 f5 47 2b f7 6a 28 3f 39 50 67 b8 93 56 b3 3f
       0.00018629328918954847 0.07553981067695838
0004c0 76 54 e0 82 3f f8 96 bf 27 68 3b 3f 23 44 b2 3f
       -0.02243136631303285 0.0713521985411779
0004d0 09 3e ce ea 3e a5 a0 3f 96 c2 ac be 5f 39 81 3f
       0.032510725176617745 0.008410213476595357
0004e0 6c 76 7b 7b f2 97 92 3f 82 78 8d e7 28 35 99 3f
       0.01815775755573272 0.02461685097966227
0004f0 8b a7 73 2c 63 df 9e 3f 00 89 44 25 fa 7f aa bf
       0.030149030292626427 -0.05175763802459876
000500 fb 22 b1 45 1d cc 9a 3f e8 8e 5e 9a 21 e1 ad bf
       0.026169259432466934 -0.05835824021712971
000510 b6 6a ef 07 3c ca b0 bf b9 c2 59 e1 7d 52 a7 bf
       -0.06558585351687438 -0.045551236876126784
000520 1f a7 6d 46 e2 de 52 3f 22 9b 4e 1a a2 83 91 3f
       0.0011517724721791867 0.017103703361182394
000530 32 2f 7d c6 79 2d 2d bf 54 e4 10 71 73 2a b9 be
       -0.0002226077224299849 -1.5e-06
000540 00 00 00 00 00 00 00 00 00 00 00 00 00 00 00 00
       0.0 0.0
000550 30 b3 60 c9 05 7a 40 3f 44 17 1e ed a7 93 a8 bf
       0.0005028274779355964 -0.04800152558804752
000560 10 2d fd b3 30 d1 a5 bf 64 e2 1c a1 a8 ba 95 3f
       -0.04261161992197959 0.02121985896448776
000570 c5 0b b3 fb b2 b0 73 bf d0 d9 7b 2c e2 41 92 bf
       -0.004807185319068934 -0.017829450573992933
000580 16 04 08 1f 1f 70 9b bf bf 61 93 00 83 0b ad 3f
       -0.026794897336007116 0.05672845251109803
000590 5c c6 b0 cc e2 f2 88 3f 38 96 95 44 2e 81 a4 bf
       0.012182018157633916 -0.040048070785627166
0005a0 f8 4f fd 75 1c 9d 9b bf 32 0d d3 fe 90 2b 8f bf
       -0.026966519071109446 -0.015219815041183613
0005b0 50 5d ea 11 32 1f a2 bf 4d 9d 0d 91 21 81 af 3f
       -0.03539425343222524 0.06153206725758285
0005c0 c5 d4 61 b5 dd 33 91 bf 5d a7 fd 4d c2 92 9a 3f
       -0.016799415775001564 0.025950466165716935
0005d0 33 fa 8b 11 12 0f 85 bf be 3a 88 da d2 79 74 bf
       -0.010282651100621631 -0.004998992583309101
0005e0 a3 07 81 2b 7c 5a 9e bf e9 55 64 cb ef e6 5d 3f
       -0.029642048030161693 0.0018250791304742448
0005f0 49 b3 5e ba 39 37 94 bf 10 21 b6 f7 41 ba b4 bf
       -0.019741918563954717 -0.08096706674234988
000600 1a ef 19 93 ea b2 b0 bf ed 93 59 f7 3a 8f a1 bf
       -0.06523004618969389 -0.03429588574798701
000610 61 50 e7 02 bc 9a 4d bf 51 43 83 bf 45 de 41 bf
       -0.0009034555458193977 -0.0005452957693937531
000620 45 23 b2 22 7d 6d d0 be e9 4d 8a ca 62 05 32 bf
       -3.916666666666667e-06 -0.0002749792279612405
000630 f3 a4 2d 9e 7d 0f 93 3f a7 a4 d8 60 f3 cf a0 bf
       0.01861377981132235 -0.032836537906697764
000640 ac 0a e2 65 61 31 60 bf ac e5 4f e5 3e 6b 9b bf
       -0.0019766714386276387 -0.026776297327136753
000650 2f e9 0f 7a 64 01 b7 bf 2f f4 61 5d aa b2 9d 3f
       -0.08986499767334942 0.029001867246268794
000660 e1 22 03 68 8a f9 ba 3f 48 fb d3 31 b9 a6 bd bf
       0.10537018813478084 -0.1158252474451561
000670 4f 05 82 d0 1e ad 50 bf 9c c6 ae 77 d3 aa b4 3f
       -0.0010178376124091065 0.08073159858647688
000680 f0 9c 41 2f 17 1f b0 3f ee 72 6b 8e 91 c8 83 3f
       0.0629744043704823 0.00965989795570851
000690 91 d3 f8 75 42 14 a2 3f b6 3b 8e da 02 ca a6 bf
       0.0353108185776484 -0.044509972743177625
0006a0 31 45 bc 5e 08 e1 5a bf c1 63 66 b4 35 7f b8 bf
       -0.001640566038023938 -0.09569106725974931
0006b0 e4 6c b8 c7 87 e0 a2 bf fd b9 10 f4 d4 da 93 bf
       -0.036869280939038324 -0.019389464756551778
0006c0 98 10 2f 6e 7e 4d a5 bf 26 9f 57 2e 25 03 74 bf
       -0.0416068562986151 -0.004885812033059078
0006d0 bb 1c b4 7e fd ed 89 3f f2 76 73 83 20 bd be bf
       0.012660961560426611 -0.1200733490872741
0006e0 77 b0 b5 0d de 1c bc bf 01 ce 3c 4a a3 4b a6 bf
       -0.10981548151693397 -0.04354582101077754
0006f0 03 11 68 95 9c ff 52 bf 1b f1 f6 4f 19 05 37 bf
       -0.001159575380030254 -0.0003512560651548633
000700 fb fa 34 01 99 b0 f0 be 2e 40 b2 7a 89 eb 3a bf
       -1.5916666666666666e-05 -0.0004107676165370247
000710 1f be 6d 89 8f 2a 84 3f 61 c2 6f ab d2 12 a8 bf
       0.009846803075304554 -0.04701860754710619
000720 25 5b c9 f6 c3 f2 8a 3f 72 0f 20 9b 0b 22 b8 3f
       0.013158350914790848 0.094269490597126
000730 89 db c7 73 8f 80 b2 bf 7a 16 8a b2 61 0a 9c 3f
       -0.07227417542149629 0.027383352777653226
000740 f7 7c 79 ec 2a 59 a5 bf ff 44 5a 7c f7 10 71 3f
       -0.041695920340083896 0.004166571370334936
000750 67 8a a7 0b 95 60 b4 3f 84 17 3b a7 8b 6a 90 bf
       0.07959872755558593 -0.0160314389056775
000760 3f 94 24 72 ac f4 ac bf 65 63 81 65 4e 56 ad bf
       -0.056554211553056614 -0.05729908932762021
000770 25 89 c4 be 2a c6 74 bf 9b 58 d9 62 e4 60 71 bf
       -0.005071799252876629 -0.004242794164005438
000780 b2 90 9e f9 92 69 7a bf e4 7b 5f 90 64 ea b8 3f
       -0.0064483395780465125 0.09732655071955737
000790 8c 2e c9 cf 3e 73 7a bf bc ea 5b a0 05 2e 9f 3f
       -0.006457562788067538 0.030448997414149956
0007a0 21 e6 e3 02 db 9c ba 3f 43 02 f9 39 f5 a4 97 3f
       0.10395592518388998 0.02309020201050972
0007b0 ce 26 dd 10 e1 0b b8 3f f7 83 e4 95 1c 87 b9 bf
       0.09393126165118845 -0.09971789035309074
0007c0 aa 0e f7 ae f1 40 c2 bf f6 83 84 e5 9d f4 af bf
       -0.1426069359132403 -0.06241315294960963
0007d0 97 75 b1 fa 7d 81 50 bf 46 d2 6e f4 31 1f 00 bf
       -0.001007435824042479 -3.075e-05
0007e0 81 fd ea 84 aa ab c5 be 3c 16 f4 67 a0 40 58 bf
       -2.5833333333333333e-06 -0.0014802519288549384
0007f0 09 cd ff 21 1f 82 8b bf 18 d2 d4 ed de 85 90 bf
       -0.013431781029771732 -0.016135676637718616
