Multiclass_weights6k 5I/class7weights.npy (npy, 6400 bytes, 1 tensors)

array f8 [1, 784]
000000 00 00 00 00 00 00 00 00 00 00 00 00 00 00 00 00
       0.0 0.0
000010 00 00 00 00 00 00 00 00 00 00 00 00 00 00 00 00
       0.0 0.0
000020 00 00 00 00 00 00 00 00 00 00 00 00 00 00 00 00
       0.0 0.0
000030 00 00 00 00 00 00 00 00 00 00 00 00 00 00 00 00
       0.0 0.0
000040 00 00 00 00 00 00 00 00 00 00 00 00 00 00 00 00
       0.0 0.0
000050 00 00 00 00 00 00 00 00 00 00 00 00 00 00 00 00
       0.0 0.0
000060 00 00 00 00 00 00 00 00 00 00 00 00 00 00 00 00
       0.0 0.0
000070 00 00 00 00 00 00 00 00 00 00 00 00 00 00 00 00
       0.0 0.0
000080 00 00 00 00 00 00 00 00 00 00 00 00 00 00 00 00
       0.0 0.0
000090 00 00 00 00 00 00 00 00 00 00 00 00 00 00 00 00
       0.0 0.0
0000a0 00 00 00 00 00 00 00 00 00 00 00 00 00 00 00 00
       0.0 0.0
0000b0 00 00 00 00 00 00 00 00 00 00 00 00 00 00 00 00
       0.0 0.0
0000c0 00 00 00 00 00 00 00 00 00 00 00 00 00 00 00 00
       0.0 0.0
0000d0 00 00 00 00 00 00 00 00 00 00 00 00 00 00 00 00
       0.0 0.0
0000e0 00 00 00 00 00 00 00 00 00 00 00 00 00 00 00 00
       0.0 0.0
0000f0 00 00 00 00 00 00 00 00 00 00 00 00 00 00 00 00
       0.0 0.0
000100 00 00 00 00 00 00 00 00 00 00 00 00 00 00 00 00
       0.0 0.0
000110 00 00 00 00 00 00 00 00 66 4c c1 1a 67 d3 e1 be
       0.0 -8.5e-06
000120 fe cb c8 33 42 52 fe be 60 25 1f bb 0b 94 04 bf
       -2.8916666666666667e-05 -3.9250000000000005e-05
000130 56 b3 49 53 76 8b 06 bf d8 0e a4 89 34 82 1c bf
       -4.300074434557845e-05 -0.00010875173248697399
000140 c8 61 f5 c0 0b ab 10 bf 3f 84 a9 87 52 43 0b bf
       -6.358393897210664e-05 -5.200000392303243e-05
000150 ba 5f b0 38 41 ea 15 bf a2 3e 5e 28 2b ba 28 bf
       -8.359931068502207e-05 -0.00018865372493025607
000160 9f c3 87 69 9c 40 21 bf 0f 2f a0 5a 6a aa 14 bf
       -0.0001316252644439049 -7.883333333341353e-05
000170 93 7a 3c 1a 74 2f 0d bf 69 59 f7 8f 85 e8 00 bf
       -5.566666666666667e-05 -3.2250000000000005e-05
000180 aa fc 58 ae a4 02 04 bf c5 ad 82 18 e8 da f7 be
       -3.816666666666667e-05 -2.275e-05
000190 0c 1a 0d f3 f8 d0 e8 be 00 00 00 00 00 00 00 00
       -1.1833333333333334e-05 0.0
0001a0 00 00 00 00 00 00 00 00 00 00 00 00 00 00 00 00
       0.0 0.0
0001b0 00 00 00 00 00 00 00 00 00 00 00 00 00 00 00 00
       0.0 0.0
0001c0 00 00 00 00 00 00 00 00 00 00 00 00 00 00 00 00
       0.0 0.0
0001d0 00 00 00 00 00 00 00 00 00 00 00 00 00 00 00 00
       0.0 0.0
0001e0 60 d4 db 8c c0 45 d4 be 33 bb 01 79 89 c4 b7 be
       -4.833333333333333e-06 -1.4166666666666667e-06
0001f0 66 4c c1 1a 67 d3 d1 be c4 1c e9 8f 99 04 f3 be
       -4.25e-06 -1.8136947796312778e-05
000200 0d 00 04 42 32 24 19 bf 41 84 96 64 d0 84 37 bf
       -9.590679883686466e-05 -0.0003588684818059442
000210 30 e5 95 78 20 07 3e bf 6f 9c 56 1a b3 e2 49 bf
       -0.0004581884646409238 -0.0007899641538430378
000220 f8 05 99 e8 47 f3 60 bf 4e e6 4a 77 2d d3 66 bf
       -0.0020691303696203055 -0.0027862442023803063
000230 43 bd be c3 7b 19 59 bf 7b 17 50 09 46 3d 64 bf
       -0.0015319546355206527 -0.002470623769570799
000240 ff ce b5 28 15 b2 70 bf 27 be c5 7f cb 8d 68 bf
       -0.0040760828518278105 -0.0029973005859387394
000250 86 b0 08 f6 68 b5 62 bf b7 9e dd e5 c9 7b 58 bf
       -0.0022837686558628304 -0.001494357267313546
000260 75 c0 94 b9 21 02 44 bf 3b a9 c9 48 55 00 30 bf
       -0.0006106056854715674 -0.0002441604818047731
000270 3c 2b 28 1f 95 75 12 bf ee ac f0 41 e2 31 f6 be
       -7.041666666666736e-05 -2.116666666666667e-05
000280 ac 5a d2 51 0e 66 e3 be 00 00 00 00 00 00 00 00
       -9.250000000000001e-06 0.0
000290 00 00 00 00 00 00 00 00 00 00 00 00 00 00 00 00
       0.0 0.0
0002a0 00 00 00 00 00 00 00 00 00 00 00 00 00 00 00 00
       0.0 0.0
0002b0 00 00 00 00 00 00 00 00 00 00 00 00 00 00 00 00
       0.0 0.0
0002c0 33 bb 01 79 89 c4 b7 be 03 19 2f 31 e8 58 34 bf
       -1.4166666666666667e-06 -0.0003104750514321271
0002d0 57 d9 f3 85 3e 35 42 bf 05 92 c0 20 4a 68 4b bf
       -0.0005556636132542464 -0.0008364068939994978
0002e0 41 c3 16 b3 f6 38 4b bf e8 53 f9 69 44 4d 5e bf
       -0.0008307652080273635 -0.0018494766335568295
0002f0 c0 a1 25 45 fa d9 6d bf 77 28 e5 90 6e 18 82 bf
       -0.0036439788902280223 -0.008835662648057003
000300 ce 6b c4 1d 22 e4 85 bf d6 01 e8 4f 5a 8f 87 bf
       -0.010689035924363124 -0.011503892482324678
000310 10 4a 41 45 f5 25 91 bf c3 d3 2e e9 88 ea 8d bf
       -0.01674636111449429 -0.014607495895555439
000320 72 44 1e e5 7f 07 86 bf 73 e8 4a 5a 6c c1 82 bf
       -0.010756491832383672 -0.009157988076698076
000330 2a b1 b5 63 3f 72 7d bf 5d 0e ae 50 97 6d 73 bf
       -0.00718903314132672 -0.0047431860683705114
000340 69 eb cd 03 0f 39 62 bf ec 9f 2a 54 43 9d 51 bf
       -0.0022244733103752756 -0.0010750920779773977
000350 ce 63 5c 1c bf 87 3d bf a1 aa 2f 38 70 f4 1e bf
       -0.000450596006304202 -0.00011808333333333333
000360 5b 0b b3 d0 ce 69 06 bf 00 00 00 00 00 00 00 00
       -4.275e-05 0.0
000370 00 00 00 00 00 00 00 00 00 00 00 00 00 00 00 00
       0.0 0.0
000380 00 00 00 00 00 00 00 00 00 00 00 00 00 00 00 00
       0.0 0.0
000390 00 00 00 00 00 00 00 00 02 d6 b2 fa 28 71 ef be
       0.0 -1.4992728969746679e-05
0003a0 a8 57 7c 9b 44 4c 1b bf 7b 4d 3d fd e6 23 66 bf
       -0.00010413330789690747 -0.0027026664264810352
0003b0 d8 d2 e6 ad f9 91 66 bf eb 8f 74 f8 22 f0 67 bf
       -0.0027551533268826804 -0.0029221232431542086
0003c0 b4 77 7f bb f5 a4 6e bf 9f 03 81 c0 ff ca 85 bf
       -0.0037407683812337948 -0.010641096174482998
0003d0 40 1d b2 d4 07 85 93 bf 0f 86 df 32 24 2f 76 bf
       -0.01906215892497909 -0.005416051293623449
0003e0 bc 57 8e ad 57 b7 56 bf a4 05 84 9b 42 3c 71 bf
       -0.0013864856939327227 -0.004207859216195518
0003f0 23 4f 9b 1d cb 2f 61 bf 73 fe ee cf 33 df a2 bf
       -0.0020979849913177625 -0.036859149105564
000400 18 79 eb fc 84 a5 a5 bf 0b a0 4f d2 dc bd 9b bf
       -0.04227843844795326 -0.02709145578037923
000410 f3 38 b0 b3 62 6a 96 bf 69 bb 7f 8a 39 72 95 bf
       -0.0218902036831929 -0.020943545416169416
000420 36 0e 70 68 3a 35 90 bf c4 9d 80 40 b9 a6 84 bf
       -0.015828049301502577 -0.010083625107724432
000430 6e d2 91 0a fb 6f 83 bf 02 11 31 10 88 c2 67 bf
       -0.009490929851588361 -0.0029003770337415755
000440 f8 0a 60 43 d3 ab 46 bf 16 3e 97 df 44 5d 05 bf
       -0.000691869884349521 -4.074922976437746e-05
000450 00 00 00 00 00 00 00 00 00 00 00 00 00 00 00 00
       0.0 0.0
000460 00 00 00 00 00 00 00 00 00 00 00 00 00 00 00 00
       0.0 0.0
000470 09 61 00 6e d1 99 00 bf d6 ba f0 0a 22 cd 21 bf
       -3.166361216261528e-05 -0.00013581314621676524
000480 ca 96 96 7f 91 cc 64 bf 82 6c 75 4a 9a b7 92 bf
       -0.0025389520421466904 -0.01827851371249923
000490 b7 10 7b ec 07 66 91 bf fb f2 db 4a c8 07 7e 3f
       -0.01699077969421189 0.007331640617618924
0004a0 33 a7 72 15 a2 77 86 bf 5e b4 88 0f 78 a1 74 3f
       -0.01097036960557638 0.005036801325826705
0004b0 27 eb 01 04 a3 c3 83 bf b2 d9 7f 91 44 3d 98 3f
       -0.009650491294669173 0.023671218281344948
0004c0 03 60 c6 ef f0 c6 92 bf 52 2a 80 db d4 02 96 bf
       -0.018337025294016495 -0.021495176217323504
0004d0 df 1c c9 52 d9 18 a4 3f ad 38 68 74 a6 e7 a2 3f
       0.03925208221022002 0.03692360087380684
0004e0 45 69 bf 4e 5e df a8 bf 15 1d 0c 11 9b 2f c2 bf
       -0.048579165566212036 -0.14207781155003177
0004f0 e2 69 3d 2d 87 66 b8 bf 4c f5 21 34 73 06 b2 bf
       -0.09531445364465399 -0.07041091940660243
000500 ff b0 d9 94 ce 1a b1 bf ed fe ab 0b e5 b7 af bf
       -0.06681529172937316 -0.06194988028982871
000510 e1 33 fb 9e 32 77 a3 bf fd 60 0d 6f a7 4a 96 bf
       -0.038018781573192724 -0.021769157555667985
000520 95 98 d9 56 10 e3 6e bf b5 aa 34 6e b4 47 46 bf
       -0.003770381844151303 -0.0006799345978028755
000530 1a 81 ef af 4b f9 19 bf 54 e4 10 71 73 2a b9 be
       -9.908222635557733e-05 -1.5e-06
000540 00 00 00 00 00 00 00 00 00 00 00 00 00 00 00 00
       0.0 0.0
000550 5f 9e f4 06 70 54 45 bf 1e 9d aa c1 18 e9 66 bf
       -0.0006509348876635005 -0.0027966960454538633
000560 07 8a 7e 98 d4 b7 8d bf 32 7a 84 fd 76 eb 94 bf
       -0.014510785011059303 -0.020429476951102817
000570 39 e8 62 85 32 5e 87 bf 85 80 a4 37 cb 08 a4 3f
       -0.01141013593256811 0.039129591505344265
000580 d6 97 1b 1d 1c 20 a2 3f 05 4d 91 b4 b8 c6 ac 3f
       0.03540122847861908 0.056203624765339945
000590 e5 b7 0c 07 21 28 a9 3f e1 af 95 51 eb 5b 77 bf
       0.04913428507857968 -0.005702895368226963
0005a0 e1 d5 0c a4 52 01 98 bf cb 81 2d 7c ef e4 94 3f
       -0.023442546141458357 0.020404569582184878
0005b0 f5 6e 33 d6 15 34 60 3f 3a f2 69 28 a3 89 79 3f
       0.0019779612062914517 0.006234776816765259
0005c0 09 8e f9 2b dd 7c a7 3f 26 3e 3b bf 5c a7 8b 3f
       0.045874511354465915 0.013502811990661345
0005d0 92 51 14 a4 cf 56 5c bf 70 16 dc aa 37 88 88 3f
       -0.0017296817534929493 0.011978564168667577
0005e0 bb 25 49 8a 3f c6 94 bf db 10 dd 51 bd 96 86 bf
       -0.020287506881037958 -0.011029700337197237
0005f0 d8 9b 0d dc 4a dd a5 3f ea 7a ba 4a b4 93 9a bf
       0.04270395218082229 -0.02595407205682935
000600 36 e4 da fe 71 dd 88 bf 21 17 af b0 46 2b 76 bf
       -0.012141123380717028 -0.005412365087016175
000610 d7 fa e6 13 e5 af 59 bf ad 42 64 5b df 0b 47 bf
       -0.0015678155028663787 -0.0007033196077675573
000620 18 45 31 7b 33 35 28 3f 48 de 07 e7 e2 38 37 3f
       0.0001846909850394061 0.0003543428383916175
000630 e2 f4 83 92 39 f1 83 bf 58 71 68 07 f4 51 84 3f
       -0.00973744371776281 0.009921938396524041
000640 61 85 c0 e4 22 c5 68 bf 16 f0 fd 61 6d 2a a3 3f
       -0.0030236894144912018 0.037433069431216534
000650 e6 93 ab e1 a3 5d ad 3f ea ca a4 db 67 93 b9 3f
       0.05735504274142737 0.09990548241038835
000660 f6 86 57 db c6 08 b8 bf ae df c5 50 bd 6c 91 bf
       -0.093883923101682 -0.017016370825757292
000670 1a ba b4 6b 22 4c 9b 3f e4 84 cf 11 3d 4b 93 bf
       0.02665761740098036 -0.018841699802469317
000680 06 12 c7 dc 2a b6 a4 3f 2c 0d e7 c7 90 ce 9f bf
       0.040452327204125324 -0.031061422539790204
000690 7c 33 f6 54 db b5 ac bf 3c 8d a1 c1 b6 bb 64 bf
       -0.05607495700960549 -0.0025309152088525393
0006a0 15 1c 28 af 31 5d 86 3f 39 5e 26 3d 96 e2 95 3f
       0.010919941099031086 0.02137217281560153
0006b0 22 32 9c 8f 3c 1c 71 bf 6c 05 cc 55 11 84 9e bf
       -0.0041773191130798654 -0.02980067335284302
0006c0 3c 54 33 7a 5c b8 65 3f ba 86 05 e1 c7 b4 8d 3f
       0.0026513868520887923 0.014504968218435155
0006d0 f5 c1 8d c7 14 e6 89 bf e1 0d eb 8a 32 37 a9 bf
       -0.012645876254937053 -0.04924924798754283
0006e0 b7 6f 8c 42 36 59 a6 bf ec b3 7d 38 25 80 a1 bf
       -0.0436493831859645 -0.03418079676234939
0006f0 c7 45 32 58 20 6e 82 bf 90 49 a8 62 66 56 29 bf
       -0.008999111835040886 -0.00019330978223359692
000700 24 f3 fc b4 17 98 48 3f c1 fe 94 3c d5 86 63 3f
       0.0007505527264367357 0.002383629300908158
000710 51 6f 75 21 99 8c 58 bf 91 6e 19 06 2b 2c a1 3f
       -0.0014983649651502849 0.03354010056929469
000720 45 e6 dd bf 7a 31 a1 bf 80 41 ab be 11 9a 8f bf
       -0.03358062355159722 -0.015430582648520597
000730 bf c2 79 3b 3a 75 b6 3f 78 61 a8 4d d1 3c a0 3f
       0.08772624923745818 0.0317140013978045
000740 10 f6 85 07 67 40 89 3f a6 a7 02 20 c7 d5 b3 3f
       0.01232986919125792 0.077480740847618
000750 7a 45 af 76 f0 0d a0 3f 16 82 aa 3e ab 19 94 bf
       0.031356348502991474 -0.019629169177848814
000760 00 0b 0c 16 20 69 9f 3f f3 36 97 53 fc 48 a2 3f
       0.030674458833355622 0.03571308632272787
000770 3f fe 4d a1 af 9d 7a 3f c8 a1 5b d5 d5 c7 b2 3f
       0.006498037390769761 0.07336174448904054
000780 90 8c 7b 30 82 2e 9d bf e5 82 e3 95 41 bc 9a bf
       -0.02849772854723348 -0.026108765386086658
000790 aa 97 75 c8 84 f7 9a 3f 46 55 84 f6 64 9f 6b bf
       0.02633483384615657 -0.003371903603815926
0007a0 d6 92 8e 09 1f d5 a1 3f f9 f7 6d b0 e5 0c 5d bf
       0.03482911101972312 -0.0017730944689158242
0007b0 15 e2 6b 2b 45 89 96 3f 0d 2a 2e a4 70 9d a1 bf
       0.022008019232972204 -0.03440429691461953
0007c0 5b 7a 3e 22 11 d3 99 bf 2d 19 93 22 9f 53 a8 bf
       -0.025219218936053483 -0.04751298234036692
0007d0 8f e6 7f 20 67 0a 94 bf 37 7d 9b 66 bf 5a 41 bf
       -0.0195709336839856 -0.0005296167921321819
0007e0 de dd 1a ff 07 ef 1f 3f f5 41 66 e5 84 93 6c 3f
       0.00012181745821748062 0.0034883113505161886
0007f0 0f 0f 5f e3 70 d8 9f 3f 0d e1 87 e0 cf e0 a6 3f
       0.031099094274181612 0.044683929594557005
