Multiclass_weights6k 5I/class9weights.npy (npy, 6400 bytes, 1 tensors)

array f8 [1, 784]
00000000: 0000 0000 0000 0000 0000 0000 0000 0000
00000010: 0000 0000 0000 0000 0000 0000 0000 0000
00000020: 0000 0000 0000 0000 0000 0000 0000 0000
00000030: 0000 0000 0000 0000 0000 0000 0000 0000
00000040: 0000 0000 0000 0000 0000 0000 0000 0000
00000050: 0000 0000 0000 0000 0000 0000 0000 0000
00000060: 0000 0000 0000 0000 0000 0000 0000 0000
00000070: 0000 0000 0000 0000 0000 0000 0000 0000
00000080: 0000 0000 0000 0000 0000 0000 0000 0000
00000090: 0000 0000 0000 0000 0000 0000 0000 0000
000000a0: 0000 0000 0000 0000 0000 0000 0000 0000
000000b0: 0000 0000 0000 0000 0000 0000 0000 0000
000000c0: 0000 0000 0000 0000 0000 0000 0000 0000
000000d0: 0000 0000 0000 0000 0000 0000 0000 0000
000000e0: 0000 0000 0000 0000 0000 0000 0000 0000
000000f0: 0000 0000 0000 0000 0000 0000 0000 0000
00000100: 0000 0000 0000 0000 0000 0000 0000 0000
00000110: 0000 0000 0000 0000 664c c11a 67d3 e1be
00000120: fecb c833 4252 febe 6025 1fbb 0b94 04bf
00000130: a966 bcbf 4c9f 26bf e98e b868 0e06 40bf
00000140: bc11 3f57 7c1f 47bf a5d2 d728 75e7 5abf
00000150: b53d 7ccb 0ed1 4abf dba3 c81e db74 54bf
00000160: 715f 0f49 1339 37bf 80d6 e676 79f5 22bf
00000170: f519 c868 5ae8 1dbf 7b03 e787 58ef 1bbf
00000180: b9ff c9c6 972f 31bf bfd4 3ba8 aaab 1cbf
00000190: fa16 9ae4 4cc1 01bf 0000 0000 0000 0000
000001a0: 0000 0000 0000 0000 0000 0000 0000 0000
000001b0: 0000 0000 0000 0000 0000 0000 0000 0000
000001c0: 0000 0000 0000 0000 0000 0000 0000 0000
000001d0: 0000 0000 0000 0000 0000 0000 0000 0000
000001e0: 60d4 db8c c045 d4be 33bb 0179 89c4 b7be
000001f0: 664c c11a 67d3 d1be af16 c598 e12c f2be
00000200: 1aad 0462 0347 15bf b755 ce82 2073 28bf
00000210: d9fa cc98 0406 45bf 1b40 3f78 95a5 58bf
00000220: edc8 9999 ffda 8fbf a958 9a7b f499 a8bf
00000230: d129 73b8 2ebe a1bf 9e11 4f88 32a9 89bf
00000240: e090 49da ed18 a3bf 6a95 63a9 dcb2 9ebf
00000250: bf7b e518 ba38 86bf 26dc 19f7 357d 78bf
00000260: 17b1 46a8 ba39 56bf 9a7a 41c7 df21 35bf
00000270: f99c ee7f d465 18bf eeac f041 e231 f6be
00000280: ac5a d251 0e66 e3be 0000 0000 0000 0000
00000290: 0000 0000 0000 0000 0000 0000 0000 0000
000002a0: 0000 0000 0000 0000 0000 0000 0000 0000
000002b0: 0000 0000 0000 0000 0000 0000 0000 0000
000002c0: 33bb 0179 89c4 b7be ea41 4129 5ab9 07bf
000002d0: 3423 0b9c 2600 22bf 24cc 2aa7 4525 2dbf
000002e0: ab9f 46f2 998e 3ebf fb20 11b7 a534 4cbf
000002f0: 490b 4951 e8f1 5dbf 0f93 f4d3 af00 82bf
00000300: f45e 6722 65be bfbf 1bb4 72c3 0117 bebf
00000310: 227a d8e0 4dc6 bebf 99fc f7f9 b4aa b3bf
00000320: 75f9 ddbf e206 b9bf f1d9 973c a7fb b2bf
00000330: fe36 7ee4 70bc aabf 9051 0197 2e2a a1bf
00000340: 46d1 b6d7 c159 8abf e4ed f7ac 2bd8 71bf
00000350: 5562 8225 8aad 45bf a5ac 2f38 70f4 1ebf
00000360: cf0d b3d0 ce69 06bf 0000 0000 0000 0000
00000370: 0000 0000 0000 0000 0000 0000 0000 0000
00000380: 0000 0000 0000 0000 0000 0000 0000 0000
00000390: 0000 0000 0000 0000 f168 e388 b5f8 d4be
000003a0: 259d a702 fc97 50bf cba2 dd68 d51b 61bf
000003b0: c0f2 c7de 3d21 87bf 49c2 631d 1e58 9cbf
000003c0: 256d 98fe b510 9abf c478 bebe 9634 a2bf
000003d0: 6557 ab26 9c95 b3bf e1a2 0945 cf58 b03f
000003e0: 7f6f cf60 904a acbf 8ff5 4424 c53e c5bf
000003f0: 6052 07cb f22e 88bf 3d8a 8e12 efb7 a63f
00000400: 2248 493d 1ed2 b4bf c87f 3544 6fa5 d1bf
00000410: 8433 fb9f b505 d1bf 7578 8306 fa32 c4bf
00000420: 5db7 0d08 bf05 b1bf 1d51 d739 221e a4bf
00000430: ca48 f295 b400 a0bf 8bb8 ae0c 0371 84bf
00000440: 106f 8404 ea22 7dbf 94f5 d72b 2cb8 ffbe
00000450: 0000 0000 0000 0000 0000 0000 0000 0000
00000460: 0000 0000 0000 0000 0000 0000 0000 0000
00000470: 750d 2069 5d90 dabe 1756 4467 07c9 25bf
00000480: 4626 fd25 9941 76bf d126 ea2b ab67 8abf
00000490: 805b 684d b65e 9ebf 4454 a583 6385 b2bf
000004a0: 0ac5 5507 bcbf b7bf f5c4 e0a7 ca1e b9bf
000004b0: bf95 454b f375 c9bf 1cc3 6418 689f a93f
000004c0: 8c7c 6be5 7a14 c13f 2648 7826 d5dc b23f
000004d0: 284d f0b7 adba bdbf 3de4 7b74 33b7 97bf
000004e0: 2e12 8ad0 7956 c3bf 2129 fdc9 afe4 aebf
000004f0: a5df 1a11 243b c4bf b4db 7794 4026 a83f
00000500: 2c9d 53db d7a7 c1bf 33cc 6771 680f cfbf
00000510: 6295 50b6 5c6e c1bf 5628 6a05 275b b2bf
00000520: ac25 6195 0c29 a4bf ea8c a83c 5482 89bf
00000530: 47b5 8fca 177f 2abf f36a c558 0be9 d2be
00000540: 0000 0000 0000 0000 0000 0000 0000 0000
00000550: cf1a 2755 605a 36bf a8c6 1fca 44bf 6cbf
00000560: 4d90 4376 e158 93bf 2a67 f268 33af b6bf
00000570: 17c2 d5f8 2376 bdbf 7ab0 e227 f9f4 b2bf
00000580: 283b 350c 9b61 c6bf ce17 7ffd 7797 a03f
00000590: de8b 181a f683 b03f 7d2a d51f 0486 abbf
000005a0: 32b1 4c2b 4acc 78bf 5226 6ae5 446a a13f
000005b0: 70cd 23b8 8984 613f 173a 5157 dd25 a33f
000005c0: d424 43c2 be33 ac3f 246b 78de 27ec b83f
000005d0: eb65 926f 45fb ac3f 57f4 0f35 6f2a a2bf
000005e0: ca77 44e2 4315 8abf bcb8 c6b1 e8d8 bfbf
000005f0: b2ac f230 26ad cdbf e0c7 26ce 285c c5bf
00000600: 8b76 d5af 3662 b7bf 2bb6 ed74 8f65 abbf
00000610: 6901 845f 5bef 70bf 507f c618 e057 78bf
00000620: 543d b61f 4a72 02bf bbfc 780c be7d 2bbf
00000630: 60ed d733 85e2 30bf 3dfc ae80 0a86 7abf
00000640: bbea 9670 844c b5bf d648 a838 dd1a c2bf
00000650: 25ec 847d 2e19 bebf 431b c2d1 c151 b6bf
00000660: 7e50 7541 8a54 a53f 1a49 d542 2dbf bfbf
00000670: f599 0601 982a a93f db27 1c4a 3649 b53f
00000680: 752b 556e 386d b3bf ab87 3df7 b052 be3f
00000690: f3fc b716 fd0d bb3f 23d4 8da8 9160 c43f
000006a0: ebc8 705d 0ba2 c43f 66e1 01d0 da96 a83f
000006b0: 10e4 7485 a06b b7bf 011a e6e9 d292 a93f
000006c0: eabe ed23 2bb3 a4bf 83f0 120b 5fae b23f
000006d0: 9965 1b65 33e0 633f 5b11 fe14 0bae c1bf
000006e0: d3ca e9a5 5d94 c1bf 28ae 75dd db4d bcbf
000006f0: a7d4 1da1 1d26 a3bf 828e f5ed 789e 70bf
00000700: 50be d52d a5bd 22bf c041 e330 4d0d 3bbf
00000710: a8a9 590e 8425 47bf eea1 d819 a50f 90bf
00000720: 8c47 8ee8 2300 b7bf 69b0 75ed 001b 833f
00000730: 5322 07e7 c499 c7bf 367e ac01 1293 abbf
00000740: 7366 59c5 990b 92bf 4d00 44e6 1f47 aebf
00000750: 2470 6c69 efcd b7bf b662 0f19 3f26 8cbf
00000760: 0a71 6d50 25dd a8bf 26ce f576 d0ef 9b3f
00000770: 2b61 62e9 1933 823f 0d1a 4ea5 9299 77bf
00000780: a5a8 e6ed 9f61 8e3f 5703 d53f 3068 83bf
00000790: bb90 8a78 9f04 9dbf 666d fae4 f6f2 86bf
000007a0: 9a10 b3e7 85c2 a13f 86f0 1a92 4f91 9bbf
000007b0: c642 2eec 7702 bdbf 4ff1 854b 2720 b1bf
000007c0: ebab 2147 e40a c6bf ef1e 7f50 1e5b c1bf
000007d0: 1315 dc5f db29 9dbf ff0d c297 1494 39bf
000007e0: e650 2c3a 6755 f8be 3199 7a49 04bd 58bf
000007f0: f502 458f 00f4 93bf 4bcd f23d c446 92bf
0.0 0.0 0.0 0.0 0.0 0.0 0.0 0.0
0.0 0.0 0.0 0.0 0.0 0.0 0.0 0.0
0.0 0.0 0.0 0.0 0.0 0.0 0.0 0.0
0.0 0.0 0.0 0.0 0.0 0.0 0.0 0.0
0.0 0.0 0.0 -8.5e-06 -2.8916666666666667e-05 -3.9250000000000005e-05 -0.00017259418370301385 -0.0004890032154815902
-0.0007056576855509126 -0.0016420978675998701 -0.0008183786621617702 -0.001248563751810253 -0.00035435410341965514 -0.00014464481087166428 -0.00011408855261416785 -0.00010656335687199245
-0.00026223617059173036 -0.00010936955555592135 -3.386512669316211e-05 0.0 0.0 0.0 0.0 0.0
0.0 0.0 0.0 0.0 -4.833333333333333e-06 -1.4166666666666667e-06 -4.25e-06 -1.7333333333333336e-05
-8.11668219326444e-05 -0.0001865365205985633 -0.0006415865369503129 -0.0015043220200716748 -0.015554425120374716 -0.048049583519217016 -0.034654102340556776 -0.012529749665085185
-0.03729956903114995 -0.02997917922848129 -0.010850385556009699 -0.005978785325729629 -0.0013565371346926974 -0.0003224536260456962 -9.307012076808012e-05 -2.116666666666667e-05
-9.250000000000001e-06 0.0 0.0 0.0 0.0 0.0 0.0 0.0
-1.4166666666666667e-06 -4.525e-05 -0.00013733359630510036 -0.00022236323601063188 -0.00046626337487020814 -0.0008607682376658149 -0.0018276947713650896 -0.008790372520317584
-0.1239989480012545 -0.11753855725938005 -0.12021338214297164 -0.07682353117705744 -0.09776131805663175 -0.07415242413831159 -0.05221894063207165 -0.03352494805645556
-0.012866510768483008 -0.00435654698184915 -0.0006615566772039764 -0.00011808333333334033 -4.275000000000426e-05 0.0 0.0 0.0
0.0 0.0 0.0 -5e-06 -0.0010127984083910327 -0.002088467422187134 -0.01129387222408107 -0.027679892104915536
-0.025454372085829697 -0.03555747106951082 -0.076501616898296 0.06385512767304703 -0.05525637799993798 -0.16597809096303393 -0.011808296986523803 0.044372054114564886
-0.0813311481117869 -0.2757223287680941 -0.2659734785382215 -0.15780568426174893 -0.06649393030758462 -0.03929240184848679 -0.031255381874090896 -0.009981178116359032
-0.007113374835423306 -3.0250000000000396e-05 0.0 0.0 0.0 0.0 -6.333333333333333e-06 -0.00016620841382379632
-0.005433653102792818 -0.012893044736546429 -0.02965817306002405 -0.07234785045632558 -0.09276938609197685 -0.09812609289726366 -0.19891205954915667 0.05004430101178611
0.1334375019277768 0.0736821383400473 -0.11612973919573177 -0.023159793839088606 -0.15107653315148312 -0.06033849087414667 -0.15805483660892353 0.04716684162479315
-0.13793466767604323 -0.24265771424652058 -0.13618048574532354 -0.0717033756465367 -0.039375680193710266 -0.012455614186427561 -0.0002021519224223811 -4.508573862994512e-06
0.0 0.0 -0.00034108020659255346 -0.003509172777733511 -0.018893740504509805 -0.08861085235767222 -0.11508393120835368 -0.07405049537436695
-0.1748536882027676 0.03240561456145451 0.06451357018572376 -0.05375683678228869 -0.006054200862120761 0.03401389408561485 0.002138394339562026 0.03739825907597465
0.05508228417745334 0.09735345059781914 0.05660454737626338 -0.035479998805364836 -0.012735872595438642 -0.12440351810684808 -0.23184659376179223 -0.166874981555849
-0.09134237091844903 -0.05350921919203374 -0.004134518552973845 -0.005943179491083431 -3.518379886735071e-05 -0.00020974106722524373 -0.0002576422883462017 -0.006475487733893334
-0.08319881199615058 -0.14144482866738056 -0.11757174076494488 -0.0871850144486475 0.041660614481458844 -0.12401087648075695 0.04915308964273272 0.08314837750745545
-0.07588532155675216 0.11844926868573562 0.10568219952255102 0.15919705133606596 0.1611952024700892 0.04802593030121009 -0.0914860082456388 0.049948302318671985
-0.04042944730360694 0.07297319431649112 0.0024262431914904956 -0.13812387967130743 -0.1373402652858063 -0.11056303173762017 -0.03740017501596898 -0.004057381039590193
-0.0001429809698651912 -0.0004127801374922656 -0.0007063765339812471 -0.01568468065502942 -0.0898458903086789 0.009328849074073458 -0.18438016205461114 -0.05385643263275279
-0.017622378034820984 -0.05913638769016014 -0.09298607181375523 -0.013744824363969382 -0.0485622082403286 0.02728200651240633 0.008886530337165318 -0.0057616928432993155
0.014834641883528408 -0.00947606749343925 -0.028337947590117745 -0.011205605376111104 0.03468721822130867 -0.026921504299693776 -0.11331891552095916 -0.06689687341526461
-0.17220738862246718 -0.13559321337219596 -0.02847998402196079 -0.00039029600862525155 -2.320633542314621e-05 -0.0015099088540551748 -0.01948548197219942 -0.017848078042061826
