Multiclass_weights6k 5I/class4weights.npy (npy, 6400 bytes, 1 tensors)

array f8 [1, 784]
000000 00 00 00 00 00 00 00 00 00 00 00 00 00 00 00 00
       0.0 0.0
000010 00 00 00 00 00 00 00 00 00 00 00 00 00 00 00 00
       0.0 0.0
000020 00 00 00 00 00 00 00 00 00 00 00 00 00 00 00 00
       0.0 0.0
000030 00 00 00 00 00 00 00 00 00 00 00 00 00 00 00 00
       0.0 0.0
000040 00 00 00 00 00 00 00 00 00 00 00 00 00 00 00 00
       0.0 0.0
000050 00 00 00 00 00 00 00 00 00 00 00 00 00 00 00 00
       0.0 0.0
000060 00 00 00 00 00 00 00 00 00 00 00 00 00 00 00 00
       0.0 0.0
000070 00 00 00 00 00 00 00 00 00 00 00 00 00 00 00 00
       0.0 0.0
000080 00 00 00 00 00 00 00 00 00 00 00 00 00 00 00 00
       0.0 0.0
000090 00 00 00 00 00 00 00 00 00 00 00 00 00 00 00 00
       0.0 0.0
0000a0 00 00 00 00 00 00 00 00 00 00 00 00 00 00 00 00
       0.0 0.0
0000b0 00 00 00 00 00 00 00 00 00 00 00 00 00 00 00 00
       0.0 0.0
0000c0 00 00 00 00 00 00 00 00 00 00 00 00 00 00 00 00
       0.0 0.0
0000d0 00 00 00 00 00 00 00 00 00 00 00 00 00 00 00 00
       0.0 0.0
0000e0 00 00 00 00 00 00 00 00 00 00 00 00 00 00 00 00
       0.0 0.0
0000f0 00 00 00 00 00 00 00 00 00 00 00 00 00 00 00 00
       0.0 0.0
000100 00 00 00 00 00 00 00 00 00 00 00 00 00 00 00 00
       0.0 0.0
000110 00 00 00 00 00 00 00 00 c9 3d fc 4a d5 df 0c bf
       0.0 -5.507344883259495e-05
000120 ad e8 70 b1 00 ac 34 bf 71 05 24 02 a1 2b 42 bf
       -0.00031542794153306236 -0.0005545173810618654
000130 8b bf 90 d2 15 08 81 bf d9 e1 d3 b6 6d f9 a5 bf
       -0.008316202629515398 -0.04291861397536296
000140 6b 2a 80 02 99 4f 8d bf e9 dc 3a 5a cf 3e 9a bf
       -0.01431197680360193 -0.02563022602290924
000150 a6 a2 ed 04 19 42 8d bf 68 1a d0 29 c5 7f 93 bf
       -0.014286227667711881 -0.01904209201532084
000160 f2 2a 0e cb d8 ff 90 bf 79 07 74 e3 32 37 77 bf
       -0.016600978272928786 -0.0056678760367975195
000170 bf 3d a7 f4 71 82 74 bf 63 af 4d f8 2c 4a 49 bf
       -0.005007214679110416 -0.0007717818813097573
000180 72 6e 71 b0 de 06 37 bf d9 13 71 ae 5a 7a 20 bf
       -0.0003513616251831004 -0.00012571675253716835
000190 06 33 e6 31 87 df 02 bf 00 00 00 00 00 00 00 00
       -3.599768955373475e-05 0.0
0001a0 00 00 00 00 00 00 00 00 00 00 00 00 00 00 00 00
       0.0 0.0
0001b0 00 00 00 00 00 00 00 00 00 00 00 00 00 00 00 00
       0.0 0.0
0001c0 00 00 00 00 00 00 00 00 00 00 00 00 00 00 00 00
       0.0 0.0
0001d0 00 00 00 00 00 00 00 00 00 00 00 00 00 00 00 00
       0.0 0.0
0001e0 77 ff 23 bc c0 45 d4 be 36 05 33 29 8b 49 1c bf
       -4.8333340052496515e-06 -0.00010790740843715372
0001f0 76 ef 95 7b 5b 51 40 bf 11 67 cd 54 ed f2 35 bf
       -0.00049797980243181 -0.0003349141523379821
000200 e9 ab 32 ef 1f 78 55 bf 6c 74 25 22 4d 27 65 bf
       -0.0013103782519390211 -0.0025822168837935
000210 3f 51 2b 7e 35 87 ab bf 5e e1 e0 67 0e 1c b2 bf
       -0.053765937472834306 -0.07074060474486063
000220 d4 7d a0 79 bf 22 a1 bf 6f 2e 5a 39 f3 89 a8 bf
       -0.03346823081687558 -0.04792747569180455
000230 fa 50 aa ab 81 b3 b5 bf 66 61 39 66 8a 06 a3 bf
       -0.08477030221030538 -0.03715927598813344
000240 bb ee e0 35 a7 94 91 bf 8c 23 24 5e 20 80 b3 bf
       -0.01716862932538164 -0.07617380426758141
000250 03 d3 b2 bd 65 3d a7 bf 43 92 d8 4e 0b 6a a1 bf
       -0.04539030018478309 -0.03401217782473911
000260 48 54 84 7f 8c 0e 96 bf d1 f0 9e 8e b8 33 a5 bf
       -0.021539874346747007 -0.04141022435166664
000270 77 da 21 39 40 bb 9a bf e6 f1 6a 7b e2 31 f6 be
       -0.02610493038852232 -2.1166669933890806e-05
000280 b8 5a d2 51 0e 66 e3 be 00 00 00 00 00 00 00 00
       -9.250000000000022e-06 0.0
000290 00 00 00 00 00 00 00 00 00 00 00 00 00 00 00 00
       0.0 0.0
0002a0 00 00 00 00 00 00 00 00 00 00 00 00 00 00 00 00
       0.0 0.0
0002b0 00 00 00 00 00 00 00 00 00 00 00 00 00 00 00 00
       0.0 0.0
0002c0 5b e1 f8 41 aa 70 cb be 18 29 fe 51 95 59 5c bf
       -3.2711145790087574e-06 -0.0017303426938917784
0002d0 f4 95 1d fd 4e a7 65 bf 0e 1f 2b f2 8a 82 67 bf
       -0.002643255495899716 -0.002869864825104324
0002e0 4b d2 82 13 65 5e 6f bf ac 3c 22 40 87 4c 91 bf
       -0.00382919064949253 -0.01689349488202356
0002f0 c2 a1 34 68 d9 47 b5 bf c4 51 72 71 2d cb b8 bf
       -0.0831275824936091 -0.09685024280253801
000300 74 63 56 f5 15 16 a7 bf c8 9a 7b 2e 94 24 bc bf
       -0.045090376089496426 -0.10993314871630411
000310 ed 0e 5d 92 fb 72 b5 bf cc d4 20 90 1b 65 a1 bf
       -0.08378574679687363 -0.03397451528909698
000320 42 b6 15 56 cd 0f b2 bf bb d4 5a 19 1c 3c b4 bf
       -0.07055362083129871 -0.0790422021771801
000330 46 10 99 42 b2 75 a8 bf 30 6f 9e 2c 9c b3 a3 bf
       -0.04777295172655775 -0.03847969097770798
000340 98 1a 04 a5 55 a1 aa bf 3b 82 ae 33 d8 7b ac bf
       -0.052012134927328535 -0.05563235884551828
000350 5c 67 fe 22 6a 3a 99 bf 54 50 5e f3 da 35 32 bf
       -0.024636896501397984 -0.00027786822772069464
000360 48 02 a4 8f 86 7d 1f bf 00 00 00 00 00 00 00 00
       -0.00012012609287027313 0.0
000370 00 00 00 00 00 00 00 00 00 00 00 00 00 00 00 00
       0.0 0.0
000380 00 00 00 00 00 00 00 00 00 00 00 00 00 00 00 00
       0.0 0.0
000390 00 00 00 00 00 00 00 00 f1 68 e3 88 b5 f8 d4 be
       0.0 -5e-06
0003a0 63 d9 2a 13 be 6a 81 3f 80 0e 83 e3 a4 fa 8b bf
       0.008504376373235705 -0.01366165942488995
0003b0 1d e7 c1 56 08 f2 a4 bf 74 18 4f bf 15 38 7d bf
       -0.04090906199503606 -0.007133564901726886
0003c0 fa 3b 11 25 4a a1 78 bf 62 5e 95 8a 4a 94 96 bf
       -0.0060131927758240115 -0.022050060947860557
0003d0 d1 15 e8 ca 8c ac a1 bf 13 af 1e 8f 9a 4c 80 bf
       -0.034519576805944426 -0.007958610050841785
0003e0 2e 94 94 3e 3b 66 a2 bf 9b e1 34 26 5d 47 af bf
       -0.035936213864524155 -0.06109133807553065
0003f0 ad 31 53 1a 6a 82 a4 bf 3e eb 03 ed 52 2b 99 3f
       -0.040057483399866235 0.024579330173746465
000400 e4 e5 c6 16 cf 4f b1 bf 5d 27 27 b4 ba 93 a8 bf
       -0.06762403780057685 -0.04800208520062086
000410 76 50 44 86 bd e5 af bf 64 7e af 9b 4d 8f 92 bf
       -0.062299654617306396 -0.018124783160486393
000420 1e cb 4c 97 ab cd 96 3f cb 3e 15 8b 2b 7e 94 3f
       0.022268944844834875 0.02001255070109557
000430 05 86 bb 67 42 ba b1 3f 6f db 35 a5 bc e7 74 3f
       0.06924834282428811 0.0051038140257933925
000440 c3 4d d8 26 9b 8e 5b 3f d6 55 c8 7f dc 48 4f bf
       0.0016819491532985432 -0.0009547306686409861
000450 00 00 00 00 00 00 00 00 00 00 00 00 00 00 00 00
       0.0 0.0
000460 00 00 00 00 00 00 00 00 00 00 00 00 00 00 00 00
       0.0 0.0
000470 6b f9 b2 71 76 90 da be 4c b9 7d 16 6b 15 15 bf
       -6.333424404646142e-06 -8.042780029679958e-05
000480 b5 f8 f7 7a 3e d3 9b 3f b7 ca 80 5b 71 70 75 3f
       0.02717301965275772 0.005234186937786481
000490 49 b3 e0 44 8e 47 97 bf 6c e9 91 dd f7 1a 87 bf
       -0.022733900979960784 -0.011281906556395348
0004a0 af ce 02 50 91 da 66 bf cb ad 61 0f 12 d4 85 bf
       -0.0027897680411913188 -0.010658398718269254
0004b0 59 68 cc ea 51 d0 94 3f 1e 8f f7 4f 0d e2 80 bf
       0.020325927692376265 -0.008243659975910197
0004c0 c7 f9 08 60 8a 6b 8e bf 59 32 68 d8 e5 17 a3 bf
       -0.014853554778821455 -0.03729170099913821
0004d0 ad f0 c1 28 03 3e 85 bf 74 b0 90 77 a4 a1 85 bf
       -0.010372185403177825 -0.010562214754905798
0004e0 bf 55 1f 42 68 0c 7e 3f 8c 9c ac 36 c3 4f b8 3f
       0.0073360512341955056 0.09496707997151271
0004f0 aa 8f 53 8e b3 26 a5 bf 54 a0 a2 a4 1c 94 97 bf
       -0.041310893176869826 -0.023025939510859253
000500 af 48 b6 b7 d8 15 ad 3f 96 1d cd 00 3e 12 a3 3f
       0.056807300973689016 0.0372485519388263
000510 5f 30 27 88 fe 1c a0 3f 4d 86 7f 83 83 1a 39 3f
       0.031471208687066314 0.0003830500677378432
000520 d7 b5 01 6f fc 32 9a bf f6 90 b1 1a 0f 48 6e bf
       -0.02558512141734134 -0.003696469784289498
000530 f1 f3 b2 5e 4c ba 58 bf 17 25 ed 36 31 23 05 bf
       -0.0015092607307416429 -4.0316523942049934e-05
000540 00 00 00 00 00 00 00 00 00 00 00 00 00 00 00 00
       0.0 0.0
000550 c0 da 90 77 b9 5c 36 bf f3 cf 36 ca f6 95 50 bf
       -0.00034122016910790795 -0.001012316709290137
000560 8e ad bf 1c 47 88 aa 3f 03 ec c6 db 0b d1 95 3f
       0.05182096696793358 0.021305260933996106
000570 ae cf 3d fa 81 5b 70 bf b5 6f 67 e5 b9 67 69 3f
       -0.00399351856673384 0.0031012182982816613
000580 4d 26 86 e1 b7 6f a3 3f 97 fc 4d dc 3a ec 61 bf
       0.03796171787241729 -0.0021878385181817827
000590 d3 c0 af 1b c8 0b 9a bf 34 f5 58 7e 8d e9 a2 bf
       -0.025435568513729145 -0.0369381157620218
0005a0 be 60 ef e9 04 b8 78 bf 10 6b a9 39 bd 47 a7 bf
       -0.00603486937958325 -0.04546920136336585
0005b0 b7 27 6f ad 79 3d 92 3f 8b bf 8d ac 5a 67 a6 bf
       0.01781263466890667 -0.04375727993362862
0005c0 31 0b 5d 1d 93 ee 95 3f 52 85 eb cb 8d 7e b0 bf
       0.021417902629092104 -0.0644310591556139
0005d0 40 5f 63 a9 85 54 a7 bf 9f d4 a7 2f 5e 4f 6f 3f
       -0.04556672756888114 0.0038220252583821136
0005e0 48 86 8d 59 c1 af a5 3f c2 79 4f 1d 84 87 86 bf
       0.042356531316511126 -0.011000663895114896
0005f0 2a 28 15 22 9e 46 a2 3f 85 69 27 5d bf 94 ac 3f
       0.03569502035186674 0.05582235347874857
000600 6f 73 f5 3b 6e 4f 9e bf 23 9c 73 23 90 e5 70 3f
       -0.029599878701776768 0.004125178376148705
000610 ad cb e2 57 2e 21 a2 bf ef 98 9c aa 34 46 33 bf
       -0.035409401157628785 -0.00029410157968569236
000620 5f 23 b2 22 7d 6d d0 be 9b 9c 72 72 ac 78 00 bf
       -3.916666666666689e-06 -3.1416666666666755e-05
000630 d0 0b 3d bc a7 2a 19 bf 35 f3 fa d2 80 d8 88 bf
       -9.600304389061e-05 -0.012131697119338017
000640 6d e5 63 c2 0f 1a 84 3f 66 64 5c eb 81 65 83 3f
       0.00981533348066207 0.009470953936714998
000650 b3 10 01 25 09 67 90 bf 83 a9 ec 7f c9 82 a0 bf
       -0.01601805008273578 -0.03224782644822979
000660 78 d0 38 54 06 53 a3 3f 0e 31 fe 99 14 14 82 3f
       0.037742803364751276 0.00882736296605249
000670 61 34 c0 6f 3a 0e a2 bf 77 bd e8 f3 44 92 9f bf
       -0.035264803067641244 -0.030831410777123005
000680 38 67 01 cc 50 de ad bf 35 55 b7 01 e7 3a a2 bf
       -0.05833675852109227 -0.0356056394190695
000690 f9 72 34 d8 50 5d 94 bf cd a0 47 fb 74 d6 b1 bf
       -0.019887221523378937 -0.0696786035038059
0006a0 7a a7 e8 77 c8 82 b7 bf 06 c7 ba dd d3 fd a2 bf
       -0.09183934142552444 -0.03709280091915272
0006b0 4d a8 56 71 55 82 b2 3f 2d f8 29 68 9a 8e a2 bf
       0.07230123536160811 -0.036244225707364165
0006c0 10 ea cc 9d 35 55 65 3f 22 05 1f 7f ea 69 a7 3f
       0.002604107589289535 0.04572994996807213
0006d0 0e 9d 68 19 a0 70 7b 3f 7a 69 ec 3d 2b 13 93 3f
       0.006699204814629723 0.018627811102399396
0006e0 4b 72 5d f4 28 2b 8e bf b7 4e 17 0c fb e0 a3 bf
       -0.014730758626393078 -0.03882584116550219
0006f0 d9 17 a7 95 09 50 ac bf 06 3e 69 17 7e de 4d bf
       -0.05529813720526961 -0.0009115329438120219
000700 15 fb 34 01 99 b0 f0 be e3 9c b9 93 9d 91 0b bf
       -1.5916666666666754e-05 -5.2583333368266966e-05
000710 a3 85 c9 08 8f 79 4a bf 2a 74 1c 50 cb 91 94 bf
       -0.0008079479608335448 -0.020087410702320486
000720 68 84 fd 88 f1 39 a0 3f 1e b0 31 f1 56 ef 57 3f
       0.031692073795746734 0.0014608716053556912
000730 37 cb 8d 52 eb 87 91 bf 33 2c 51 e1 79 cf 89 3f
       -0.017120053209008303 0.01260276049483453
000740 78 66 dd 7f 9d 15 a7 bf 86 7b 22 da c8 f1 9f bf
       -0.045086786135198176 -0.03119577247036489
000750 08 ce aa 3c f7 06 8f 3f 6e bb e6 11 51 56 75 bf
       0.015150004900852401 -0.005209271125223276
000760 e1 b1 73 1e 9a ff a9 bf eb 27 57 26 dd 82 88 bf
       -0.05077821370818803 -0.011968353016431585
000770 2f 12 d2 dc 3c 87 ac bf 26 ee aa 32 cc 2e 8a bf
       -0.05571928210796206 -0.012784571930175192
000780 7c 5f 6a 40 28 e5 a1 3f 1e 8f e3 48 16 48 84 3f
       0.03495145593950519 0.009903120135681894
000790 93 00 67 9b fe 4b 9a bf 5c 5c 76 4c af b0 95 bf
       -0.025680521235472552 -0.021181811372653278
0007a0 7e 3c bb f6 14 e7 6c bf d9 f4 9b 4d 1d 1b 91 3f
       -0.0035281571816550552 0.016704995977296775
0007b0 65 17 10 ae af 6f 6a bf f5 99 6b 07 a7 63 a1 bf
       -0.003227084278935632 -0.0339634129102712
0007c0 4d ff 02 ca bc c8 75 3f 3a 95 f5 d5 19 f0 83 bf
       0.005318391282514612 -0.009735299913425356
0007d0 2d 94 02 7f 8e 2d 9e bf d5 3e 53 0c e9 bf 8d bf
       -0.02947065973480194 -0.014526196182856147
0007e0 a3 fd ea 84 aa ab c5 be 96 6b 1c 5c 83 18 33 bf
       -2.5833333333333477e-06 -0.00029137808825090963
0007f0 90 97 01 81 55 e5 82 bf 41 64 6b 3b 00 15 98 bf
       -0.009226482390839924 -0.023517612101248146
