Multiclass_weights6k 5I/class3weights.npy (npy, 6400 bytes, 1 tensors)

array f8 [1, 784]
000000 00 00 00 00 00 00 00 00 00 00 00 00 00 00 00 00
       0.0 0.0
000010 00 00 00 00 00 00 00 00 00 00 00 00 00 00 00 00
       0.0 0.0
000020 00 00 00 00 00 00 00 00 00 00 00 00 00 00 00 00
       0.0 0.0
000030 00 00 00 00 00 00 00 00 00 00 00 00 00 00 00 00
       0.0 0.0
000040 00 00 00 00 00 00 00 00 00 00 00 00 00 00 00 00
       0.0 0.0
000050 00 00 00 00 00 00 00 00 00 00 00 00 00 00 00 00
       0.0 0.0
000060 00 00 00 00 00 00 00 00 00 00 00 00 00 00 00 00
       0.0 0.0
000070 00 00 00 00 00 00 00 00 00 00 00 00 00 00 00 00
       0.0 0.0
000080 00 00 00 00 00 00 00 00 00 00 00 00 00 00 00 00
       0.0 0.0
000090 00 00 00 00 00 00 00 00 00 00 00 00 00 00 00 00
       0.0 0.0
0000a0 00 00 00 00 00 00 00 00 00 00 00 00 00 00 00 00
       0.0 0.0
0000b0 00 00 00 00 00 00 00 00 00 00 00 00 00 00 00 00
       0.0 0.0
0000c0 00 00 00 00 00 00 00 00 00 00 00 00 00 00 00 00
       0.0 0.0
0000d0 00 00 00 00 00 00 00 00 00 00 00 00 00 00 00 00
       0.0 0.0
0000e0 00 00 00 00 00 00 00 00 00 00 00 00 00 00 00 00
       0.0 0.0
0000f0 00 00 00 00 00 00 00 00 00 00 00 00 00 00 00 00
       0.0 0.0
000100 00 00 00 00 00 00 00 00 00 00 00 00 00 00 00 00
       0.0 0.0
000110 00 00 00 00 00 00 00 00 66 4c c1 1a 67 d3 e1 be
       0.0 -8.5e-06
000120 fe cb c8 33 42 52 fe be 60 25 1f bb 0b 94 04 bf
       -2.8916666666666667e-05 -3.9250000000000005e-05
000130 41 09 46 38 40 43 02 bf 2f 6e a3 01 bc 05 12 bf
       -3.483333333333334e-05 -6.875e-05
000140 e9 e3 c7 85 f0 55 08 bf 06 a2 27 65 52 43 0b bf
       -4.641666666666667e-05 -5.2000000000000004e-05
000150 34 6a be 4a 3e 76 07 bf 14 9f 28 f6 bd 73 15 bf
       -4.4750000000000004e-05 -8.183333333333333e-05
000160 7f c5 2d f9 b2 c7 1e bf f2 17 a0 5a 6a aa 14 bf
       -0.0001174166666666667 -7.883333333333334e-05
000170 93 7a 3c 1a 74 2f 0d bf 2e 48 d8 d5 ff 34 06 bf
       -5.566666666666667e-05 -4.235654590102642e-05
000180 e8 a9 2a 06 31 79 13 bf 63 15 9d 02 45 9e 00 bf
       -7.428514212885035e-05 -3.169677832074826e-05
000190 0c 1a 0d f3 f8 d0 e8 be 00 00 00 00 00 00 00 00
       -1.1833333333333334e-05 0.0
0001a0 00 00 00 00 00 00 00 00 00 00 00 00 00 00 00 00
       0.0 0.0
0001b0 00 00 00 00 00 00 00 00 00 00 00 00 00 00 00 00
       0.0 0.0
0001c0 00 00 00 00 00 00 00 00 00 00 00 00 00 00 00 00
       0.0 0.0
0001d0 00 00 00 00 00 00 00 00 00 00 00 00 00 00 00 00
       0.0 0.0
0001e0 60 d4 db 8c c0 45 d4 be 33 bb 01 79 89 c4 b7 be
       -4.833333333333333e-06 -1.4166666666666667e-06
0001f0 66 4c c1 1a 67 d3 d1 be c3 11 c7 98 e1 2c f2 be
       -4.25e-06 -1.7333333333773156e-05
000200 e1 2e 28 b7 00 47 15 bf 20 ec 3e df 29 f7 25 bf
       -8.116666666796057e-05 -0.00016758333333463746
000210 4d e3 09 60 85 02 38 bf d2 0c 68 e8 95 5f 5d bf
       -0.00036636120061177697 -0.00179280890881799
000220 32 7d 59 59 e8 d8 6a bf ca df 11 49 7b 88 6c bf
       -0.003277257734950156 -0.003483048240521901
000230 21 6a f1 a8 28 da 6f bf 24 d0 fd f9 c9 58 78 bf
       -0.0038882059230165443 -0.005944050761048234
000240 0b 3b 6b bd 26 19 85 bf 1a 37 7f d1 a4 3c 78 bf
       -0.010301878600697664 -0.005917209455174955
000250 0b 27 2f 96 25 fb 5f bf 21 cc 5a af 8e fe 55 bf
       -0.0019519679124066515 -0.0013424294860839919
000260 4f 8f ad 5e cc 0e 44 bf 41 be f8 03 c4 37 30 bf
       -0.0006121156596745422 -0.00024746451888100004
000270 09 2b 28 1f 95 75 12 bf ee ac f0 41 e2 31 f6 be
       -7.041666666666667e-05 -2.116666666666667e-05
000280 ac 5a d2 51 0e 66 e3 be 00 00 00 00 00 00 00 00
       -9.250000000000001e-06 0.0
000290 00 00 00 00 00 00 00 00 00 00 00 00 00 00 00 00
       0.0 0.0
0002a0 00 00 00 00 00 00 00 00 00 00 00 00 00 00 00 00
       0.0 0.0
0002b0 00 00 00 00 00 00 00 00 00 00 00 00 00 00 00 00
       0.0 0.0
0002c0 33 bb 01 79 89 c4 b7 be 01 cd cf 92 b1 9d 75 bf
       -1.4166666666666667e-06 -0.00527734150545034
0002d0 07 1b bc f6 17 5e 7e bf 32 8a fb c0 76 c8 93 bf
       -0.007413953407882762 -0.019319396523210304
0002e0 81 a8 9d c1 54 74 a0 bf c6 ad 95 13 5a 3a a7 bf
       -0.032137535700557336 -0.045367064371784546
0002f0 e7 1e 64 2c 07 4a 9e bf 67 20 ad c2 3f 7a a9 bf
       -0.0295792694896865 -0.04976081134242421
000300 b6 78 ac 31 4e df a3 3f 04 3b 6b 6a 89 a5 ba 3f
       0.03881306034439673 0.10408839080922055
000310 ed 93 62 14 4b 62 9e bf d1 05 2e 8c e3 66 7d bf
       -0.02967183410568801 -0.007178200586055409
000320 39 ef d1 d3 13 a7 a9 3f 5e 45 41 5a b9 90 a4 3f
       0.05010282478994416 0.04016665674920249
000330 40 42 de a5 04 36 3e 3f e5 a4 18 1e 93 b6 6f bf
       0.00046098340487169334 -0.003871238078109062
000340 bd ef fd 44 ca cd 6c 3f 61 c0 30 4f da 96 97 3f
       0.003516097123734212 0.023036395152474024
000350 53 67 14 42 7b 4d 6d bf 68 98 21 de 23 33 42 bf
       -0.003576985109828104 -0.0005554127822165024
000360 17 70 9c 02 cf 69 06 bf 00 00 00 00 00 00 00 00
       -4.275000567430258e-05 0.0
000370 00 00 00 00 00 00 00 00 00 00 00 00 00 00 00 00
       0.0 0.0
000380 00 00 00 00 00 00 00 00 00 00 00 00 00 00 00 00
       0.0 0.0
000390 00 00 00 00 00 00 00 00 50 87 0c 08 00 61 45 3f
       0.0 0.0006524324563523618
0003a0 be 6c d6 f5 32 92 74 3f e1 08 ef bd e2 40 91 bf
       0.005022238792118104 -0.016849081843027917
0003b0 56 c2 7e a5 82 22 77 bf 76 88 5a 5a 35 86 3f bf
       -0.005648145997768047 -0.00048102190553767717
0003c0 18 29 90 a0 72 84 b0 3f d1 21 5b eb a3 e5 9c bf
       0.06452099246977061 -0.028219758262624076
0003d0 42 ef 34 5a cf f8 b2 3f 97 95 f0 c2 0c ea b8 bf
       0.07410903885187017 -0.09732131728431735
0003e0 01 10 45 83 ae fe a3 bf 09 b0 39 d3 f4 a1 a1 3f
       -0.039052442096846114 0.03443875387606005
0003f0 1a 37 b8 b3 5d 99 9c bf 76 ee bc 5e e8 32 83 3f
       -0.027928794950688653 0.009374442473578198
000400 e8 b9 c8 3d 58 e0 78 3f e6 a7 e5 72 6e 8e a2 bf
       0.006073326771498057 -0.036242915654682226
000410 b7 bf 14 9f fa a4 a8 bf 9e 90 91 1f 0e 83 99 3f
       -0.048133689803193595 0.024913998295588706
000420 e6 9a 49 66 84 94 b3 bf a0 68 67 a1 a9 68 9d bf
       -0.07648494241002943 -0.02871956870681258
000430 15 f4 f3 98 ab 53 ab bf ce 5c 25 6c 6f 7b 9a bf
       -0.05337272874928815 -0.025861493087487024
000440 48 47 0d 08 ff 81 60 bf ec 9d d4 ef 2b a7 16 bf
       -0.002015112026506314 -8.6414391223692e-05
000450 00 00 00 00 00 00 00 00 00 00 00 00 00 00 00 00
       0.0 0.0
000460 00 00 00 00 00 00 00 00 00 00 00 00 00 00 00 00
       0.0 0.0
000470 22 0a 7e 96 65 e9 10 bf a1 9a 80 d0 38 f8 94 3f
       -6.451303999991572e-05 0.020478141523336494
000480 2c ed a7 67 2d 8d 8d bf e3 75 01 2c d8 f6 a0 3f
       -0.014429430700138988 0.03313327347926156
000490 52 e1 c3 9b c4 8c 92 bf 4e 36 38 f0 f8 3a a3 3f
       -0.018115112311506927 0.0375592988240042
0004a0 af cb 87 06 c0 ae 9d bf 66 0f 66 ce b7 50 a8 bf
       -0.028986931227290288 -0.04749082941546483
0004b0 93 c3 4f 43 53 44 a5 bf c0 b8 88 a6 5f 01 a9 3f
       -0.04153690525698219 0.048838605002275326
0004c0 2c 70 58 18 60 c0 8e 3f d4 83 27 77 71 d9 92 bf
       0.015015364401783492 -0.01840760507355184
0004d0 ba 3d 88 94 ea fb ad bf 01 02 93 69 bf 0f 6f 3f
       -0.05856259406220539 0.0037916887782503132
0004e0 03 18 d1 63 f5 52 a4 3f 4b f7 c6 7a a7 4f 78 bf
       0.039695423540749196 -0.005935339181119502
0004f0 1d c5 d3 ee 7e 22 94 bf 98 a6 e3 9a ab 44 b1 bf
       -0.01966284115491589 -0.06745407611347287
000500 12 fc ac 50 e4 e2 c2 bf 42 76 8f 49 25 08 a0 bf
       -0.1475491899418278 -0.03131214640573578
000510 8a 9e 5d 9b 41 11 b9 bf 60 15 11 94 8d 44 83 3f
       -0.09791955988986892 0.009408098298204493
000520 e4 0d 9c 3c 25 1d a6 bf 92 d8 6d ec 01 bd 4a bf
       -0.043191112183219166 -0.0008159884826983868
000530 ed cf 1f 39 a6 c8 17 bf 54 e4 10 71 73 2a b9 be
       -9.072794480841059e-05 -1.5e-06
000540 00 00 00 00 00 00 00 00 00 00 00 00 00 00 00 00
       0.0 0.0
000550 bd 9e be 1e 62 8f 50 bf c1 27 71 f9 ce d5 9f 3f
       -0.001010747738272074 0.03108905217622016
000560 11 c0 a6 8d 81 00 90 bf a6 5a df e7 bd 66 19 bf
       -0.015626930494988815 -9.689840405200742e-05
000570 42 dc fb e3 81 73 a9 3f 0d 9c 65 29 dd 15 b2 3f
       0.04970937641149266 0.07064611683527762
000580 85 d5 a3 32 c5 61 b2 bf 54 c3 e4 aa d1 45 b9 3f
       -0.07180435644462164 0.09872160360533871
000590 00 8c ec 4a 80 9d ab 3f 38 86 cc 02 cc 37 99 3f
       0.053936013360974755 0.024626910849411682
0005a0 31 b1 c2 c4 4f 0c a6 bf 70 0e 38 59 98 f2 c1 3f
       -0.04306268002378245 0.14021591526408228
0005b0 63 ce d7 ec 94 99 a9 bf 9f 14 d9 d4 3b a2 90 bf
       -0.04999986067914788 -0.016243872514924203
0005c0 ee 0c 30 42 04 1a 74 bf e6 e4 ad e8 73 da 5c 3f
       -0.0049076238965455165 0.001761067573822489
0005d0 c1 4c 06 10 71 c1 a1 bf 4a fe 89 1d 7e 1f 97 3f
       -0.034678967672471035 0.022581072380943014
0005e0 de 40 6e eb a7 ab b7 3f fc be 6d 53 26 0b b0 bf
       0.09246301172084112 -0.06267013108094582
0005f0 12 36 0e 6e 8e 64 80 bf 22 2b 5c 85 0e d4 b2 bf
       -0.008004296048762991 -0.07354822879657921
000600 87 e5 08 fb c1 57 ba bf 37 dc 02 d2 2a 45 8b bf
       -0.10290157679346211 -0.013315519842178698
000610 ad a8 bb 25 b0 e4 28 bf 04 95 f1 ef 33 2e 0c bf
       -0.0001899209045100372 -5.3750000000000005e-05
000620 76 ce b3 e4 34 a7 e8 be 9c 7a 0d 07 42 fc 7e 3f
       -1.1755538386704788e-05 0.007564790649523669
000630 c2 16 42 92 b0 2a ac bf 23 c4 fc 27 7c 12 ae 3f
       -0.05501319680574347 0.05873477924468087
000640 61 dd 77 78 70 2d a3 3f 62 e9 f3 48 3c 57 c4 bf
       0.037456049638360474 -0.15891221582553344
000650 51 3c 23 ba 29 70 76 3f 9f 95 00 ed 19 a7 85 bf
       0.005478060718998882 -0.010572626633868874
000660 b7 e3 ec d3 89 36 88 bf bd 5a 3a 00 27 1f 7a 3f
       -0.0118227737235531 0.0063773654434473
000670 21 d0 15 b8 84 02 af bf 9a 74 61 75 b8 ff ac bf
       -0.0605660891259563 -0.05663849289769836
000680 42 92 82 b7 b5 0c bf 3f 2f 36 15 7e af e3 c8 bf
       0.12128768663621606 -0.19444841057195236
000690 87 5f 1e 0b b2 12 c3 3f f2 37 fd 67 06 df ab bf
       0.14900804083731264 -0.05443592090033168
0006a0 3f e6 df 1c 3e 37 9a bf e0 44 e1 cc b9 d8 af 3f
       -0.02560135890232673 0.06220036149955788
0006b0 f8 22 b3 9a 84 73 9c 3f e7 01 4f 98 fe bd ab bf
       0.02778441614353519 -0.05418391808735006
0006c0 d0 44 48 dc ed b4 b4 3f d3 0e b4 a1 e3 2d c2 bf
       0.08088575962053146 -0.1420254268233437
0006d0 57 02 42 1b 20 e2 9d 3f d9 34 ec 93 41 8d b5 bf
       0.02918291250580504 -0.08418664800065602
0006e0 97 0a 28 a9 6d df be bf d1 07 40 e4 ec 3c ab bf
       -0.1205967462520142 -0.05319919859176959
0006f0 8c 36 b9 79 89 3d 3c bf 68 aa 3a be d0 36 01 bf
       -0.00043091398558634734 -3.2833333333333336e-05
000700 5e ee 02 d8 ea 0b 09 bf 39 72 dd 20 4a 6f 9d bf
       -4.7772507060864165e-05 -0.0287448484954089
000710 a9 ce 92 7f 90 14 aa bf a5 19 f0 03 83 4f a9 3f
       -0.050938144276554916 0.04943475173063242
000720 98 03 34 32 5a 00 c4 3f 9a e7 71 19 92 21 9b bf
       0.15626075221373692 -0.02649524956039038
000730 93 94 04 ff 14 8d b9 3f 9a cc 81 73 fd 96 66 3f
       0.09980899072668796 0.0027575445383774657
000740 38 be f2 e8 e1 da a9 bf ac fb 9b 29 fc 77 b0 bf
       -0.05049806564909115 -0.06433082595684309
000750 e9 53 47 5e 53 51 a5 3f 47 0b 76 10 6c 8a a8 bf
       0.0416360905252658 -0.04793107701245574
000760 4d 03 68 a0 8c 98 9e 3f db a3 4b 7b 75 0f b4 3f
       0.02987880448381768 0.07836088428633962
000770 7b 20 4b 3b d2 2e b5 bf 42 2b 87 81 a2 e0 80 3f
       -0.0827456850776133 0.008240956857567764
000780 90 4e cf 2b 61 a7 aa 3f b9 17 a8 f2 44 1e 9c bf
       0.05205825481212145 -0.02745921832140372
000790 e0 75 fe 46 38 c1 90 3f 66 cc 3e 80 42 c6 a2 3f
       0.016362075169686352 0.0366688520001837
0007a0 c9 9d f9 6e 5b aa 87 bf 03 b0 d7 b2 2d c3 b9 bf
       -0.011555399250211889 -0.10063443771622364
0007b0 fd 61 44 82 40 ec 66 3f 29 b8 c1 a2 60 d6 88 bf
       0.0027982006014435333 -0.012127642600003057
0007c0 58 de cc ca 6c c0 ca bf e5 82 b6 ec ad 79 a1 bf
       -0.2089973440395052 -0.034131465097066806
0007d0 8f fa b8 39 07 92 38 bf 46 d2 6e f4 31 1f 00 bf
       -0.0003749148979500871 -3.075e-05
0007e0 25 26 71 f3 b5 42 e0 be 77 a6 e6 23 6e 08 91 bf
       -7.753652978464865e-06 -0.01663372129556825
0007f0 d0 55 e2 12 0d 4d a0 bf 7b 05 de f7 74 d9 96 3f
       -0.03183785300749842 0.02231390726911318
