Multiclass_weights6k 5I/class6weights.npy (npy, 6400 bytes, 1 tensors)

array f8 [1, 784]
0.0 0.0 0.0 0.0 0.0 0.0 0.0 0.0
0.0 0.0 0.0 0.0 0.0 0.0 0.0 0.0
0.0 0.0 0.0 0.0 0.0 0.0 0.0 0.0
0.0 0.0 0.0 0.0 0.0 0.0 0.0 0.0
0.0 0.0 0.0 0.00040603738523664585 0.006088328457158657 0.012908562419912334 0.00876096291699717 0.0017218282776846343
0.0011717241830146402 0.0013693891866752227 0.0011825060937903375 0.0008628802904272726 -0.00739375986021775 0.00045507896150477693 0.0021503406086286533 0.0013708064029498274
0.0021957616357343316 0.000853507213992891 0.0002796941314536828 0.0 0.0 0.0 0.0 0.0
0.0 0.0 0.0 0.0 0.00011152781250841999 4.594316582912338e-05 0.00015951782742158394 0.0012960199122049633
0.013841055284927439 0.059654079536638434 0.020241755177040622 0.01607751599033088 0.008869778320010499 -0.015987627458881853 -0.011272134021082758 0.011312746099420568
-0.01692449450610221 0.024759770677202222 0.04701833015014615 0.03514196664414093 0.01726940318689045 0.011963989733292497 0.00601224036833384 1.2672777154768566e-05
-1.946203791231009e-06 0.0 0.0 0.0 0.0 0.0 0.0 0.0
3.445402703098032e-05 -0.003646248212704973 -0.020421871257959103 -0.019592900208948542 0.013388943669559217 0.010381699275045404 -0.010771746847688588 -0.029592832598878197
-0.015110457868852081 0.03779121085368457 0.008391322825751063 9.408237628078375e-05 -0.0032268634719364955 -0.0009487581350724466 0.020664790967113194 0.027983548637910725
0.014803427873630015 -0.022843813380275423 -0.0548522054595071 -0.04812969849342781 -0.03573618270434446 0.0 0.0 0.0
0.0 0.0 0.0 -5e-06 -8.525424041687856e-05 -0.010936186844121914 -0.018564662020976626 -0.013761242015079039
0.014402103474672438 -0.010256792206031642 -0.010209545526556535 -0.03700579160996745 -0.06213221195485893 -0.012891378293663531 -0.012573561502744133 -0.026869323205846323
-0.006725045351164585 -0.012462191157432419 -0.05039085795913655 -0.011422548488182988 0.018717817330672754 -0.008310384223003599 -0.02680600430619009 -0.03156501313382654
-0.04245754870683982 -0.007632675780124193 0.0 0.0 0.0 0.0 -6.362663062664358e-06 -7.630556310338678e-05
0.004618311941263197 0.007012361010061533 -0.0077112608476576005 -0.00856617484489487 0.006739407175570234 -0.009611307600459003 -0.03035152599754873 -0.023246930015405197
-0.0004330926867210586 -0.032724698740676544 -0.02501757985570981 -0.031318955577537805 -0.048497291653300516 -0.02417681670989859 -0.00029035374552864346 0.007654146110878623
0.037241338162092165 0.024002513115672093 0.013367528179645339 -0.008700889562551134 -0.00895738821558411 0.01586231993769297 0.008175190719255099 -9.475969322217693e-06
0.0 0.0 0.00017637611606034808 -0.0027702931837389026 -0.006260940670397131 -0.014165890887886282 0.007029131851763512 -0.016842629190189577
-0.0033846815344528752 0.005458013305908478 -0.014741127914806253 0.012424779250784357 -0.025958138047124265 0.002470160943741398 -0.026210970878390874 0.01822350757788304
-0.004396097109037578 0.018791709782625905 0.02621357944518021 -0.019154040267654257 -0.042524049487282695 -0.03932019508037114 -0.0015879479311282413 0.03228427537576846
0.011310645979018279 0.008285359546913042 0.031617098937183445 0.02828619290944985 -3.916666666666667e-06 -3.141666667499275e-05 -8.74988943691479e-05 -0.015501572308974004
-0.014260620858462624 -0.01407730996626415 -0.01346199077940445 -0.035324171787143886 -0.042840070344116944 -0.02074519510062909 -0.006760331699869431 -0.002119503199777997
-0.02608114020325308 -0.0397540502692163 -0.030808886946112772 -0.02642575602334147 -0.036894505297258746 -0.011117333501677637 -0.02409210943832253 -0.057723733452576455
-0.049832567538613357 -0.033838267633730316 -0.001040953933223667 -0.009964996821852846 0.017773818918043305 -0.023851204199603415 0.02191719994694706 0.018887964388958196
-1.5916666666666666e-05 -5.2583333333333335e-05 -0.00019382803116923064 -0.0096120866370226 -0.0031341552363123434 -0.00388534775469661 -0.008065946720507563 -0.030191083032615966
0.004406728019372787 -0.029098840671510057 -0.025790629615970326 -0.032359691193333213 -0.016233319239693803 0.022927310328781383 0.007973379889895639 -0.013000599241355923
-0.023420608715454136 -0.03228202026499771 -0.07598530148944925 -0.04663634869018293 0.000979092530581168 -0.05792553706347198 -0.02530116233364388 -0.049771378692031534
-0.016626121726239933 -0.02413179871622745 0.003928039308144912 -0.0008712147448611055 -2.5833333333333333e-06 -0.0001205649164545043 -0.0004145499904223206 -0.007205536136177409
00000000: 0000 0000 0000 0000 0000 0000 0000 0000
00000010: 0000 0000 0000 0000 0000 0000 0000 0000
00000020: 0000 0000 0000 0000 0000 0000 0000 0000
00000030: 0000 0000 0000 0000 0000 0000 0000 0000
00000040: 0000 0000 0000 0000 0000 0000 0000 0000
00000050: 0000 0000 0000 0000 0000 0000 0000 0000
00000060: 0000 0000 0000 0000 0000 0000 0000 0000
00000070: 0000 0000 0000 0000 0000 0000 0000 0000
00000080: 0000 0000 0000 0000 0000 0000 0000 0000
00000090: 0000 0000 0000 0000 0000 0000 0000 0000
000000a0: 0000 0000 0000 0000 0000 0000 0000 0000
000000b0: 0000 0000 0000 0000 0000 0000 0000 0000
000000c0: 0000 0000 0000 0000 0000 0000 0000 0000
000000d0: 0000 0000 0000 0000 0000 0000 0000 0000
000000e0: 0000 0000 0000 0000 0000 0000 0000 0000
000000f0: 0000 0000 0000 0000 0000 0000 0000 0000
00000100: 0000 0000 0000 0000 0000 0000 0000 0000
00000110: 0000 0000 0000 0000 fb23 614a 2d9c 3a3f
00000120: ead8 c539 13f0 783f fd86 74eb cd6f 8a3f
00000130: 9805 ae89 44f1 813f 0242 1609 df35 5c3f
00000140: ee56 f142 9132 533f e1ce 6c71 a26f 563f
00000150: 0576 0240 ca5f 533f e20c 5a50 5d46 4c3f
00000160: 97af b44c eb48 7ebf 0d11 bb41 f5d2 3d3f
00000170: 4cb7 db52 979d 613f bb47 de2a 9475 563f
00000180: 220f 4a8d d8fc 613f 5083 16c9 bcf7 4b3f
00000190: 5308 c125 7d54 323f 0000 0000 0000 0000
000001a0: 0000 0000 0000 0000 0000 0000 0000 0000
000001b0: 0000 0000 0000 0000 0000 0000 0000 0000
000001c0: 0000 0000 0000 0000 0000 0000 0000 0000
000001d0: 0000 0000 0000 0000 0000 0000 0000 0000
000001e0: 7a97 b13a 813c 1d3f 6721 5e28 6316 083f
000001f0: 7dd9 2cb4 87e8 243f 101c d3c8 e63b 553f
00000200: d3be 53fe b258 8c3f d99d 5dc1 fa8a ae3f
00000210: 3d01 ff31 41ba 943f 567e 84d5 9f76 903f
00000220: 182d 757e 512a 823f a85d 4e84 0f5f 90bf
00000230: 4d3d d037 d815 87bf c01f 3314 232b 873f
00000240: fbc2 9e99 a754 91bf b79a 4215 a05a 993f
00000250: a564 9d5c c912 a83f 704c e8ba 20fe a13f
00000260: acf3 a207 12af 913f 44c8 1285 9380 883f
00000270: 237a 1f7c 4aa0 783f 1bee cf3a a593 ea3e
00000280: d7cc 67d9 7053 c0be 0000 0000 0000 0000
00000290: 0000 0000 0000 0000 0000 0000 0000 0000
000002a0: 0000 0000 0000 0000 0000 0000 0000 0000
000002b0: 0000 0000 0000 0000 0000 0000 0000 0000
000002c0: 6711 c15a 5710 023f e80c 749a bcde 6dbf
000002d0: 3748 b494 78e9 94bf fe5f 8646 2910 94bf
000002e0: ba8b 8299 a96b 8b3f 84e3 e716 0043 853f
000002f0: d2f1 7363 7f0f 86bf 542e d560 954d 9ebf
00000300: e893 fe52 3bf2 8ebf b6b8 629d 5e59 a33f
00000310: 03af da48 782f 813f 2f11 c2ea c2a9 183f
00000320: 5579 9422 396f 6abf fac7 ba94 c216 4fbf
00000330: 0b9b 87a5 2629 953f b945 e728 b8a7 9c3f
00000340: 13ff af74 4251 8e3f 636e 895d 5e64 97bf
00000350: c2c5 1f99 9615 acbf fac0 fdb1 74a4 a8bf
00000360: 3682 ff4f 034c a2bf 0000 0000 0000 0000
00000370: 0000 0000 0000 0000 0000 0000 0000 0000
00000380: 0000 0000 0000 0000 0000 0000 0000 0000
00000390: 0000 0000 0000 0000 f168 e388 b5f8 d4be
000003a0: 604d 9fb2 5059 16bf c924 b526 b665 86bf
000003b0: 622e f760 9d02 93bf 96c0 41a3 da2e 8cbf
000003c0: 0faf 569b d97e 8d3f 5bb6 b158 8301 85bf
000003d0: 100f 2601 bee8 84bf f46d 7451 6cf2 a2bf
000003e0: eb9e bf14 cbcf afbf 9789 5f81 cb66 8abf
000003f0: 3f97 96db 2ac0 89bf bb32 bdc1 a183 9bbf
00000400: 83d2 8e9d b88b 7bbf 4450 a9fb c685 89bf
00000410: df5b e79d d4cc a9bf 2abd 8c81 b464 87bf
00000420: b5a5 2675 c32a 933f 54d4 a3e3 0805 81bf
00000430: 667a 537f 0873 9bbf c116 3716 4a29 a0bf
00000440: 9012 54ee febc a5bf 20a7 b4cd 7043 7fbf
00000450: 0000 0000 0000 0000 0000 0000 0000 0000
00000460: 0000 0000 0000 0000 0000 0000 0000 0000
00000470: 9a65 5881 dbaf dabe 59ad 9597 c700 14bf
00000480: a5d9 01ac a6ea 723f 849c 4b53 feb8 7c3f
00000490: 7703 6dd2 d795 7fbf 8731 7c86 248b 81bf
000004a0: 27b4 9dd6 c79a 7b3f 31b1 86de 17af 83bf
000004b0: 9833 2c6e 7814 9fbf b621 9810 0bce 97bf
000004c0: 8b5d f4ec 1662 3cbf 54ae b9ad 4ac1 a0bf
000004d0: 95ab 385d 359e 99bf 0c9b e6c3 0909 a0bf
000004e0: 4fe5 3013 a3d4 a8bf 0592 5cb4 cec1 98bf
000004f0: d386 60d7 5307 33bf 4cb8 9933 f459 7f3f
00000500: 1d51 eef2 4b11 a33f 121c 6a63 1d94 983f
00000510: ad25 e142 6f60 8b3f 9028 f0a0 c5d1 81bf
00000520: bc4e 8c4b 4058 82bf 6afc 7b45 363e 903f
00000530: 00dc 3886 27be 803f 1807 894e 5fdf e3be
00000540: 0000 0000 0000 0000 0000 0000 0000 0000
00000550: 0cce f04c 331e 273f 18d3 fbd3 b9b1 66bf
00000560: 4dad be76 12a5 79bf e24b a8b0 0103 8dbf
00000570: 3df4 c236 94ca 7c3f 4ebb 33b6 313f 91bf
00000580: 8963 ee0f 31ba 6bbf a170 664a 245b 763f
00000590: 21e7 66b2 9830 8ebf 8d4c 56a4 2972 893f
000005a0: 2fe9 e827 c594 9abf d3e5 038f 4d3c 643f
000005b0: 045b e07a 0cd7 9abf 5efc 42e4 2ea9 923f
000005c0: 2782 0355 a401 72bf 2228 cf4b 223e 933f
000005d0: 1f6c b689 bbd7 9a3f ccb3 24e2 1d9d 93bf
000005e0: 5cc7 ae53 b6c5 a5bf d693 e2cf c621 a4bf
000005f0: 9703 a51b 5604 5abf aaf5 d385 9087 a03f
00000600: 29b5 9c34 092a 873f 1416 5122 eaf7 803f
00000610: 6ff4 dbcb 1d30 a03f 14d2 e545 0ef7 9c3f
00000620: 4523 b222 7d6d d0be 375c 8572 ac78 00bf
00000630: 640e 1b8f f3ef 16bf 1038 d4d0 49bf 8fbf
00000640: 197a a921 ac34 8dbf 19b7 5d8f 90d4 8cbf
00000650: 78bf 17d1 f591 8bbf 130b 2b85 0216 a2bf
00000660: 5d32 2c3a 22ef a5bf 5a7e 067a 3a3e 95bf
00000670: ec10 fab8 b8b0 7bbf 8675 a89d eb5c 61bf
00000680: 0f88 dcb0 03b5 9abf d063 9493 a45a a4bf
00000690: 4e59 7067 5d8c 9fbf 12be 9177 5a0f 9bbf
000006a0: 29c2 4e2b d6e3 a2bf 78aa 773e afc4 86bf
000006b0: a459 8418 9aab 98bf 2580 c316 f78d adbf
000006c0: c646 b57f a783 a9bf 5f2a aed9 3f53 a1bf
000006d0: d6bf 63c6 130e 51bf 5406 a33b 8768 84bf
000006e0: a07e e9cb 4c33 923f e3b1 0738 736c 98bf
000006f0: dcd6 f763 7671 963f d5b6 5ad5 5d57 933f
00000700: fbfa 3401 99b0 f0be 05f3 6a93 9d91 0bbf
00000710: 8776 1e1c ca67 29bf f4c5 046e 80af 83bf
00000720: 1e93 b2c7 ccac 69bf e4c0 4731 2ad4 6fbf
00000730: 11c2 010b e184 80bf 3e0c 0649 69ea 9ebf
00000740: 68f2 9b0b ca0c 723f 8881 2424 16cc 9dbf
00000750: 9cb1 f9da db68 9abf f99e c40e 7391 a0bf
00000760: d4c5 f59c 779f 90bf e47e 30c0 417a 973f
00000770: b4ec ecee 5854 803f d869 8fe4 0ea0 8abf
00000780: 5cef f071 92fb 97bf 50ee 92da 4487 a0bf
00000790: e7b6 dfd0 c573 b3bf 8cbe db30 b8e0 a7bf
000007a0: 56ba 8299 9c0a 503f 08ea 947e 6aa8 adbf
000007b0: c05b 1843 8ce8 99bf a2a9 8457 a27b a9bf
000007c0: ab47 4b24 7006 91bf 7091 1e99 01b6 98bf
000007d0: 16aa da05 d916 703f 40e1 216b 478c 4cbf
000007e0: 81fd ea84 aaab c5be 7a9d 2c7e f99a 1fbf
000007f0: 7e86 c3a6 fe2a 3bbf 3965 e160 8d83 7dbf
