Multiclass_weights6k 5I/class8weights.npy (npy, 6400 bytes, 1 tensors)

array f8 [1, 784]
0.0 0.0 0.0 0.0 0.0 0.0 0.0 0.0
0.0 0.0 0.0 0.0 0.0 0.0 0.0 0.0
0.0 0.0 0.0 0.0 0.0 0.0 0.0 0.0
0.0 0.0 0.0 0.0 0.0 0.0 0.0 0.0
0.0 0.0 0.0 -8.5e-06 -2.8916666666666667e-05 -3.9250000000000005e-05 -3.483333333333334e-05 -6.875e-05
-4.641666666666667e-05 -5.2000000000000004e-05 -4.4750000000000004e-05 -8.33651244522649e-05 -0.00015148784365103663 -8.773426962440434e-05 -5.566666666666667e-05 -3.2250000000000005e-05
-3.854270175038413e-05 -2.627105578389987e-05 -1.4260468873691496e-05 0.0 0.0 0.0 0.0 0.0
0.0 0.0 0.0 0.0 -4.833333333333333e-06 -1.4166666666666678e-06 -4.250000000000004e-06 -1.733333333333334e-05
-8.116666666666667e-05 -0.0003000922170095554 -0.00048608278579072875 -0.0006035898232683569 -0.0008401795779211549 -0.0035041067101753394 -0.05846421469103501 -0.04798122424450124
-0.010198149664920286 -0.010135734766296802 -0.04253103297726673 -0.08368382310319078 -0.006457061475190484 -0.0006274517742245004 -7.291217222224618e-05 -0.04360254257138845
-0.019684337180286858 0.0 0.0 0.0 0.0 0.0 0.0 0.0
-1.4166666666666667e-06 -4.709762579772436e-05 -0.005376831823770632 -0.022421307747497263 -0.03206699793459315 -0.03580912960196236 -0.07498086047704969 -0.05014126233308736
-0.02241093718058708 0.004244126418800925 -0.1338065305512759 -0.0335844767073377 -0.12707218660602393 -0.1743890352847562 -0.17218078595258005 -0.11304723279668333
-0.10333860682911786 -0.0611698536500041 -0.018372630462685013 -0.05206418221652987 -0.00723579262505114 0.0 0.0 0.0
0.0 0.0 0.0 -5e-06 -0.013904108507122167 -0.036816973075655034 -0.05184998672416619 0.14848539047304846
0.23993656052259452 0.21328386464784235 -0.034196278903259 -0.009982239132784941 0.008097869287798405 -0.08171821298667613 -0.06477716633345137 -0.12565875380498417
0.07975581313271549 -0.05136088742223891 -0.07715629875661144 0.040623756832118475 -0.162882454290858 -0.007378486509431415 -0.13646248982371026 -0.062188139153738935
0.019968556477918124 -0.002204875387657962 0.0 0.0 0.0 0.0 -2.022017257363047e-05 -0.00010419992121708838
-0.0013445577537341033 -0.12287798162432507 -0.19903510748155862 -0.09868686159696015 -0.2629638123261916 -0.14662064518269377 -0.16559963553656487 0.08412133397341862
-0.0010121444131693537 -0.13578873988516316 0.2048046235725953 -0.061331621505689396 0.04955074208169772 -0.0473461680411274 0.08866600201060881 -0.029318538837274297
-0.0011950066589832018 0.04909146993067045 -0.15163628723552902 -0.04347634272077441 -0.05838379941501715 -0.0057587949977558 0.03646835131118428 -2.528786472659441e-05
0.0 0.0 -1.1971709811200247e-05 -0.0002715399682977113 0.0033599088561520325 -0.12604884562628088 -0.03757386429559285 -0.0554944034809626
-0.09038147956146779 0.036370414453641295 -0.08182412074363764 0.03704483861205744 -0.11662136194166796 0.1345550550870233 -0.11291076213799467 0.04111354455649193
-0.05473096275366303 0.15003654248755982 -0.07975540928614093 -0.04137977832896253 -0.04963844855997544 0.04033405869767556 0.0824251874904191 -0.014185974229059057
-0.006883538072057055 0.03665930790255317 -0.09129258061475402 -0.004092321536971694 -3.916666666666667e-06 -3.141666666666667e-05 -5.983255168368918e-05 -0.0008667594308126892
-0.03594001668973569 -0.06578647921813799 -0.022331268674760464 -0.09185394115615082 0.0907974729323085 -0.03258414610000764 0.01167284540467555 0.04688314816001364
-0.0025114269275761233 0.027564671774340594 0.013626790909745575 0.027409998208424054 -0.017318481943754536 -0.08292010049743659 -0.11355099278225717 0.06823683506187532
-0.07167243803327969 0.029839919546011066 -0.10451398749148762 0.20485154723517102 -0.20726986761137267 -0.058154540492174514 -0.03764624982085942 -0.009531300114140159
-1.5916666666666666e-05 -5.2583333333333335e-05 -0.00018123759127468603 -0.005863087653766328 -0.11903365797376582 -0.2709325427537706 0.045687986491796485 0.11466499847529373
0.012666072680817209 0.053568415001186705 -0.004989529031284185 -0.012923750978009308 -0.0999668208503634 -0.05618529441308401 -0.1387458659450791 0.006136213952933039
0.02873361445503263 -0.05191761561075499 0.06057532910010957 0.05844411116530966 -0.06992565389596789 -0.0256131391124134 0.08898241249215984 -0.03740514810514025
0.005504753404325191 -0.14041093746335198 -0.008725675290095462 0.003232930349336195 -2.5833333333333333e-06 -0.039156144303195604 -0.00028311912006932224 -0.02154885121943873
00000000: 0000 0000 0000 0000 0000 0000 0000 0000
00000010: 0000 0000 0000 0000 0000 0000 0000 0000
00000020: 0000 0000 0000 0000 0000 0000 0000 0000
00000030: 0000 0000 0000 0000 0000 0000 0000 0000
00000040: 0000 0000 0000 0000 0000 0000 0000 0000
00000050: 0000 0000 0000 0000 0000 0000 0000 0000
00000060: 0000 0000 0000 0000 0000 0000 0000 0000
00000070: 0000 0000 0000 0000 0000 0000 0000 0000
00000080: 0000 0000 0000 0000 0000 0000 0000 0000
00000090: 0000 0000 0000 0000 0000 0000 0000 0000
000000a0: 0000 0000 0000 0000 0000 0000 0000 0000
000000b0: 0000 0000 0000 0000 0000 0000 0000 0000
000000c0: 0000 0000 0000 0000 0000 0000 0000 0000
000000d0: 0000 0000 0000 0000 0000 0000 0000 0000
000000e0: 0000 0000 0000 0000 0000 0000 0000 0000
000000f0: 0000 0000 0000 0000 0000 0000 0000 0000
00000100: 0000 0000 0000 0000 0000 0000 0000 0000
00000110: 0000 0000 0000 0000 664c c11a 67d3 e1be
00000120: fecb c833 4252 febe 6025 1fbb 0b94 04bf
00000130: 4109 4638 4043 02bf 2f6e a301 bc05 12bf
00000140: e9e3 c785 f055 08bf 06a2 2765 5243 0bbf
00000150: 346a be4a 3e76 07bf 93ba beee 89da 15bf
00000160: fe3e 1fab 16db 23bf c305 6d46 bfff 16bf
00000170: 937a 3c1a 742f 0dbf 6959 f78f 85e8 00bf
00000180: ea70 ec25 1d35 04bf 3f00 ef34 158c fbbe
00000190: 045f 03eb 07e8 edbe 0000 0000 0000 0000
000001a0: 0000 0000 0000 0000 0000 0000 0000 0000
000001b0: 0000 0000 0000 0000 0000 0000 0000 0000
000001c0: 0000 0000 0000 0000 0000 0000 0000 0000
000001d0: 0000 0000 0000 0000 0000 0000 0000 0000
000001e0: 60d4 db8c c045 d4be 38bb 0179 89c4 b7be
000001f0: 6b4c c11a 67d3 d1be b016 c598 e12c f2be
00000200: f0b9 26b7 0047 15bf 51d0 0142 b6aa 33bf
00000210: 6be5 09ab 1ddb 3fbf f79f 8b46 47c7 43bf
00000220: 1c10 ace7 ef87 4bbf 3ac8 19f7 a4b4 6cbf
00000230: be2b 2b84 05ef adbf 8083 e7b9 fe90 a8bf
00000240: c609 537a c4e2 84bf 3bc6 bc4a 0bc2 84bf
00000250: 97a8 67a7 a0c6 a5bf 48b5 6e93 4d6c b5bf
00000260: 40c8 d33d b872 7abf 5573 d06c 728f 44bf
00000270: 68b8 a894 0d1d 13bf e7ad bb8c 1253 a6bf
00000280: c627 bb81 2128 94bf 0000 0000 0000 0000
00000290: 0000 0000 0000 0000 0000 0000 0000 0000
000002a0: 0000 0000 0000 0000 0000 0000 0000 0000
000002b0: 0000 0000 0000 0000 0000 0000 0000 0000
000002c0: 33bb 0179 89c4 b7be 4f55 a419 56b1 08bf
000002d0: 3e4f 6d4d 0406 76bf f944 097e 9cf5 96bf
000002e0: 86e8 d1e6 156b a0bf 6fca 1301 9355 a2bf
000002f0: 822a 9317 f231 b3bf 5131 cd93 1dac a9bf
00000300: e4a6 0d89 e4f2 96bf 2091 b302 4a62 713f
00000310: 08bf 5a88 9220 c1bf e5fa 380a fc31 a1bf
00000320: 5c1f dac2 e643 c0bf 421d aa41 6152 c6bf
00000330: 753c 551e 050a c6bf 8cda c3d7 a9f0 bcbf
00000340: 96c9 be20 6674 babf 4812 dbb1 a751 afbf
00000350: 0337 ea5b 46d0 92bf 3172 d30f 28a8 aabf
00000360: 7fb6 f64a 47a3 7dbf 0000 0000 0000 0000
00000370: 0000 0000 0000 0000 0000 0000 0000 0000
00000380: 0000 0000 0000 0000 0000 0000 0000 0000
00000390: 0000 0000 0000 0000 f168 e388 b5f8 d4be
000003a0: 2b85 8bda c179 8cbf b365 989e acd9 a2bf
000003b0: 0181 8eda 148c aabf fdfc 01bc 9101 c33f
000003c0: 1996 47c0 3db6 ce3f 11a7 b6bb e24c cb3f
000003d0: d99b 11b7 2c82 a1bf b9e6 ed74 9171 84bf
000003e0: f127 119e 9d95 803f 17ed 431c 7ceb b4bf
000003f0: 8402 ee82 3c95 b0bf fd35 0607 9615 c0bf
00000400: 8626 1281 e06a b43f a54a 8b67 f94b aabf
00000410: 9f0d d7e3 83c0 b3bf cdb7 1116 a3cc a43f
00000420: dfbe 220f 55d9 c4bf 8d21 0864 e738 7ebf
00000430: 7d37 7655 9a77 c1bf 6793 baaf 1fd7 afbf
00000440: b17d 1524 a372 943f 8ddd d075 f50f 62bf
00000450: 0000 0000 0000 0000 0000 0000 0000 0000
00000460: 0000 0000 0000 0000 0000 0000 0000 0000
00000470: 25f8 c3ad cf33 f5be 1d54 f703 bd50 1bbf
00000480: 139c 1ce5 7b07 56bf 5197 7970 ee74 bfbf
00000490: 50cf b17e fb79 c9bf 1794 1acb 8a43 b9bf
000004a0: 063d 7e2b 66d4 d0bf 0b32 fd1d 77c4 c2bf
000004b0: dcf5 6d6d 5e32 c5bf 52cd 4fca f988 b53f
000004c0: 862a d1c9 3d95 50bf d064 7c82 8661 c1bf
000004d0: 772d 28b4 0937 ca3f 62b9 27b9 db66 afbf
000004e0: 2d83 7701 b75e a93f 48b6 a7c6 c13d a8bf
000004f0: 1813 e7aa d0b2 b63f fcf0 e3d5 ad05 9ebf
00000500: 0998 34a1 3894 53bf abc6 ba63 8422 a93f
00000510: 701f 485f d168 c3bf f354 45fc 8742 a6bf
00000520: 211b 353a 7be4 adbf 192c e0c2 8896 77bf
00000530: 3cef 70d0 faab a23f a4af efd4 2884 fabe
00000540: 0000 0000 0000 0000 0000 0000 0000 0000
00000550: 156b 8944 431b e9be 4d9c 8c48 afcb 31bf
00000560: 3f6a f354 3d86 6b3f 3eeb d45a 5e22 c0bf
00000570: b1f6 aaac e13c a3bf 649f 1f30 c369 acbf
00000580: c76e e19a 3d23 b7bf 2e9f 3d99 249f a23f
00000590: 4f2d 9ef2 6cf2 b4bf c215 a684 8af7 a23f
000005a0: f9ef 8dc7 e5da bdbf 761c 8e9c 1939 c13f
000005b0: 78c6 bf3e b8e7 bcbf 2be6 95a2 d50c a53f
000005c0: 2a0e 365e b205 acbf a030 98bd 6534 c33f
000005d0: 5b25 90ba d96a b4bf acf9 46f5 ba2f a5bf
000005e0: 5ee8 60f2 356a a9bf ecfc 0a6e aaa6 a43f
000005f0: 2c55 a32c d119 b53f ea72 013b 890d 8dbf
00000600: c672 67ae e931 7cbf d827 1241 02c5 a23f
00000610: 9399 1b58 f35e b7bf faf9 a732 1cc3 70bf
00000620: 4523 b222 7d6d d0be 8e9c 7272 ac78 00bf
00000630: efa4 5dd2 965e 0fbf 1fdf 54b4 e766 4cbf
00000640: e2a7 99d8 ba66 a2bf 72c9 c2f8 61d7 b0bf
00000650: 6a8e 8b12 02de 96bf 853d 4669 bd83 b7bf
00000660: f4bf cdd0 803e b73f 8738 bc83 deae a0bf
00000670: 1b61 1dca eee7 873f 265c 2968 1101 a83f
00000680: 1ec0 a510 d892 64bf 95dd 2ecf e939 9c3f
00000690: eb4c 74ea 5ce8 8b3f 22ed 8dd7 5d11 9c3f
000006a0: e658 42a6 efbb 91bf 3849 d16f 403a b5bf
000006b0: b499 6d88 ad11 bdbf 3b2a f91e f877 b13f
000006c0: 56a5 60f9 1f59 b2bf 41f5 421a 5b8e 9e3f
000006d0: 4520 40be 6dc1 babf ce7c f453 9338 ca3f
000006e0: f025 6bab d187 cabf 723b 0e93 6ec6 adbf
000006f0: e363 9887 5e46 a3bf fe8e 3a72 2585 83bf
00000700: fbfa 3401 99b0 f0be 05f3 6a93 9d91 0bbf
00000710: 7946 fe0d 53c1 27bf 97c6 9f9b e403 78bf
00000720: eddd 1e64 fd78 bebf 192c a372 f556 d1bf
00000730: 5dce 9a6f 6a64 a73f b580 7272 af5a bd3f
00000740: 0084 767f abf0 893f 91ab 0ebd 516d ab3f
00000750: ba5d 3080 e66f 74bf e76b 567e c477 8abf
00000760: 5cc6 3cf2 6c97 b9bf 5868 0aa4 51c4 acbf
00000770: 783b 58ae 6cc2 c1bf df56 fc63 4922 793f
00000780: 1d5d 8539 586c 9d3f 1adc 441a f294 aabf
00000790: 54db dbc2 ba03 af3f 0e95 32f4 62ec ad3f
000007a0: f474 a2cc a5e6 b1bf 6bc5 57ab 543a 9abf
000007b0: adb0 9227 8dc7 b63f fb91 a07f c426 a3bf
000007c0: 6685 81fd 268c 763f 30f1 3350 fcf8 c1bf
000007d0: ef42 0d50 c4de 81bf 8352 dc43 f27b 6a3f
000007e0: 81fd ea84 aaab c5be 237a 702e 460c a4bf
000007f0: 99da 8f5c f38d 32bf a1f3 03ed e610 96bf
