Multiclass_weights60k 5I/multiClass_weights.npy (npy, 62848 bytes, 1 tensors)

array f8 [10, 784]
0	0x3fa5215506049444	0.0412699289175085
1	0x3fa5215506049444	0.0412699289175085
2	0x3fa5215506049444	0.0412699289175085
3	0x3fa5215506049444	0.0412699289175085
4	0x3fa5215506049444	0.0412699289175085
5	0x3fa5215506049444	0.0412699289175085
6	0x3fa5215506049444	0.0412699289175085
7	0x3fa5215506049444	0.0412699289175085
8	0x3fa5215506049444	0.0412699289175085
9	0x3fa5215506049444	0.0412699289175085
10	0x3fa5215506049444	0.0412699289175085
11	0x3fa5215506049444	0.0412699289175085
12	0x3fa520ef63fc65f7	0.04126690001994498
13	0x3fa51cf3b52559a6	0.04123651109937336
14	0x3fa51d6cdbedc201	0.041240121695299344
15	0x3fa5212b5998f647	0.04126868694991664
16	0x3fa5215506049444	0.0412699289175085
17	0x3fa5215506049444	0.0412699289175085
18	0x3fa5215506049444	0.0412699289175085
19	0x3fa5215506049444	0.0412699289175085
20	0x3fa5215506049444	0.0412699289175085
21	0x3fa5215506049444	0.0412699289175085
22	0x3fa5215506049444	0.0412699289175085
23	0x3fa5215506049444	0.0412699289175085
24	0x3fa5215506049444	0.0412699289175085
25	0x3fa5215506049444	0.0412699289175085
26	0x3fa5215506049444	0.0412699289175085
27	0x3fa5215506049444	0.0412699289175085
28	0x3fa5215506049444	0.0412699289175085
29	0x3fa5215506049444	0.0412699289175085
30	0x3fa5215506049444	0.0412699289175085
31	0x3fa5215506049444	0.0412699289175085
32	0x3fa5214badb1a51d	0.041269650414344584
33	0x3fa5212e35a3b6f2	0.041268772170821935
34	0x3fa51ed58efad1b0	0.041250871375641096
35	0x3fa51a868a0a93c3	0.041217998839136814
36	0x3fa5116673c3801f	0.04114837802058013
37	0x3fa4f6c9de0d5f01	0.04094534717176935
38	0x3fa4ad4ed3c76533	0.040384734489359884
39	0x3fa533ad9f693a19	0.041409898480754666
40	0x3fa5d4ae276c54ef	0.042638246834181597
41	0x3fa54b32a5bf01a4	0.041589339001350895
42	0x3fa4a714248f26d2	0.04033720918921592
43	0x3fa51c4f5d178e9c	0.04123161326768107
44	0x3fa58ef542ceea3b	0.04210630836992776
45	0x3fa544611e4ab0d7	0.041537318179821696
46	0x3fa4ed87b49a4d81	0.040874710842355284
47	0x3fa4f7feff2828df	0.040954559943274786
48	0x3fa4f96d40f5cdfb	0.0409654752537811
49	0x3fa507c5f2509268	0.041074930028376866
50	0x3fa518eaae777633	0.04120572452277962
51	0x3fa52103e9fb53e3	0.041267511665559
52	0x3fa5215506049444	0.0412699289175085
53	0x3fa5215506049444	0.0412699289175085
54	0x3fa5215506049444	0.0412699289175085
55	0x3fa5215506049444	0.0412699289175085
56	0x3fa5215506049444	0.0412699289175085
57	0x3fa5215506049444	0.0412699289175085
58	0x3fa5211ed6621bb5	0.04126831404669621
59	0x3fa52714e03acc5f	0.041313793536936975
60	0x3fa52210bee44cd9	0.041275523473950755
61	0x3fa504455fa7b2ec	0.04104821007408596
62	0x3fa3baa4cf3fa661	0.03853335409060033
63	0x3fa3688912b8c7dd	0.03790691712892145
64	0x3fa33a813f0136b0	0.03755573171711768
65	0x3fa0fccf3e8a2780	0.03317878378318451
66	0x3f9f2cfd4e8728c0	0.030445058744398734
67	0x3f9f3be3227cbda7	0.03050188920968613
68	0x3f9a806fead9be7a	0.025880573948994436
69	0x3f96ad2b879d0eaf	0.022144966270629392
70	0x3f9241f6cda38bf5	0.017829757977676015
71	0x3f8788b1ca1492cc	0.011491192798140835
72	0x3f7e7b3dd1fac84b	0.007441750989231786
73	0x3f7e5e01caa5b0bf	0.007413870809937772
74	0x3f8828c0db9e97fe	0.011796480848555998
75	0x3f9149ebd0f33c91	0.016883549335770246
76	0x3f983ad8ee69ce72	0.023661984969705015
77	0x3fa0d1b4864b8377	0.03284992350905374
78	0x3fa31100b3b03512	0.03723909562550366
79	0x3fa4443a5e2b279e	0.03958303832548825
80	0x3fa4ce77b1e0f06b	0.040637722457604074
81	0x3fa519e27bbf5fdd	0.041213109594252485
82	0x3fa5215506049444	0.0412699289175085
83	0x3fa5215506049444	0.0412699289175085
84	0x3fa5215506049444	0.0412699289175085
85	0x3fa5215506049444	0.0412699289175085
86	0x3fa520d244b9f66a	0.04126603211350928
87	0x3fa50d15e1294808	0.0411154591898964
88	0x3fa4e2db00275a7c	0.040793269890561284
89	0x3fa313609c57d8fe	0.03725721271978165
90	0x3fa0f0e19f1266eb	0.03308777872844167
91	0x3f9e731d421c4af5	0.029736001167360155
92	0x3f9a58e67a98fa60	0.025729752762567393
93	0x3f870fe54fa7efd3	0.011260787480743694
94	0xbf318bda8342c60a	-0.0002677353361476292
95	0xbf71d6b3691d2119	-0.0043551452852812695
96	0xbf871d60abce1f4f	-0.011286502116277268
97	0xbf8b208f3e8f0135	-0.013245696159970602
98	0xbf9abe92087ff038	-0.026117593544754153
99	0xbfa27a9a2199c0bb	-0.03609162960208453
100	0xbfa655600115507a	-0.04362010968421344
101	0xbfa9212518048472	-0.04908100050148158
102	0xbfaa87f5859fe1fa	-0.05181853538664778
103	0xbfa3a89124a42f21	-0.038395438883610085
104	0xbf941df61c73c5e7	-0.019645543562495062
105	0x3f28305804f5f3c1	0.00018454622702881836
106	0x3f91a28f213afce8	0.01722167625734708
107	0x3fa04f35bbac9d8e	0.0318543235392169
108	0x3fa3813f98147fc1	0.038095462145292476
109	0x3fa43b559ca0d853	0.039515185708680754
110	0x3fa4f29fa96ed849	0.04091357177041794
111	0x3fa5215506049444	0.0412699289175085
112	0x3fa5215506049444	0.0412699289175085
113	0x3fa52145efb38cbb	0.04126947928468768
114	0x3fa51fbb26a8b12d	0.04125771376524976
115	0x3fa50cd70ef48195	0.0411135869746914
116	0x3fa485018d835631	0.040077255749264025
117	0x3fa024783689979c	0.0315282408308086
118	0x3f967e834d98234c	0.021966983424167183
119	0x3f860cf06a9e9783	0.010766866925972845
120	0x3f239f06bb3ed7d5	0.0001496978489947109
121	0xbf914d8762d39f88	-0.0168973115986826
122	0xbf9def34f57ba4da	-0.02923281429585676
123	0xbf9ed39bef10c35f	-0.030104099718474383
124	0xbfa080afc4de977d	-0.032231800825043934
125	0xbf8ffb2b0dd6366b	-0.01561578403450455
126	0xbf8eb349a2e3d1ee	-0.014990401538377687
127	0xbf7815d266a67e4e	-0.005880185965366614
128	0xbfa0961510920206	-0.0323950369574995
129	0xbf9b860aa445c338	-0.02687851550712425
130	0xbf98fb70b0e3f6c9	-0.02439666824010692
131	0xbf9961587714ac21	-0.024785406368362687
132	0xbf93b41e0d0f55b3	-0.01924178080283463
133	0xbf88c88ce43256e9	-0.012101269449242351
134	0x3f4be7ac7268ec12	0.0008515922571129561
135	0x3f8d42877b6b2425	0.014287050680097899
136	0x3f99001180ad5b95	0.02441432330973788
137	0x3fa249d1632c6515	0.03571943603146558
138	0x3fa4b2158ee6b4d5	0.040421174711221454
139	0x3fa51fc6d83a0a4d	0.04125806226240467
140	0x3fa5215506049444	0.0412699289175085
141	0x3fa5215506049444	0.0412699289175085
142	0x3fa50d0607abfbe0	0.041114986835957046
143	0x3fa4e805c52763f0	0.04083269149459301
144	0x3fa270d09d435ad7	0.036016959378391604
145	0x3f936150182479ae	0.01892590663293852
146	0x3f74eaf13c70a9ce	0.005106870964520073
147	0xbf93395176b06466	-0.018773339146808253
148	0xbfa3c71656cbc165	-0.038628290267186206
149	0xbfaa69b9e1679ca5	-0.05158787609598762
150	0xbfa4d4322e038f7e	-0.040681427113468324
151	0xbf9b2300bf5e6bb8	-0.02650071304342891
152	0xbf840de84299eb1e	-0.009792151005276358
153	0x3fa0d36dbe29bea1	0.03286307283712842
154	0x3fa9070301e73c97	0.0488816203902555
155	0x3fab6cf3a2607d8e	0.05356561047687612
156	0x3fa4136f164c2279	0.0392107691496379
157	0x3fa195520858c9e0	0.034342349547290985
158	0x3f9e523eb1bfe40c	0.02961061439416217
159	0x3f72d7ee55788af6	0.004600459090883238
160	0xbf8a9fd5bff4741e	-0.013000173492907104
161	0xbf91075931d7705c	-0.016629594485366148
162	0xbf8120b1edb19f3e	-0.008363142076816762
163	0xbf80ab338366cac1	-0.008139040420109269
164	0x3f57f0cf2d20910b	0.0014612220006791656
165	0x3f9a266e4d01ab93	0.025537227106194726
166	0x3fa322cb7843c11b	0.03737483828615692
167	0x3fa4bf6d208cae04	0.04052296659787305
168	0x3fa5215506049444	0.0412699289175085
169	0x3fa521474bf2fd16	0.04126951982606834
170	0x3fa505aec8e4a703	0.04105898096379514
171	0x3fa47166ae0ee16a	0.03992768168194767
172	0x3f9f0bc78eb3c0f7	0.030318372807358576
173	0x3f8a01f6342eec2f	0.01269905421019332
174	0xbf838dbe5576973e	-0.009547698004847779
175	0xbfa22fc4e9388a06	-0.035520699948637754
176	0xbfae9dafb6e96fcf	-0.059796801641567414
177	0xbfb28ba1edec64fe	-0.07244312342335843
178	0xbfa011ed8a104a69	-0.03138677893015968
179	0xbf85f3e04221fa8f	-0.010719062822542895
180	0x3f6470c6d7b4ee8f	0.002495182384931578
181	0x3f9fe052104b7c52	0.031129152531203914
182	0x3fa38eaf3ac77c44	0.038197971272659476
183	0x3fa3d11667f0c4c5	0.038704586208390825
184	0x3fa84212041ddadb	0.047379076960103204
185	0x3fae0259ec23fe99	0.05861168868613937
186	0x3faab08a91251f5f	0.052128153055092545
187	0x3f9f9cec4a5901e7	0.030872051275084102
188	0x3f79a66d8d542125	0.006262233674768224
189	0x3f8df75f2522ebb5	0.01463198024827315
190	0x3f7459a5dae0475c	0.004968307372125693
191	0xbf94a18636de55b3	-0.020147416209132362
192	0xbf99e09163c62cea	-0.025270721163491418
193	0x3f76151882e24fbc	0.005391212222224991
194	0x3f9d60add05aa864	0.028689113466193197
195	0x3fa3b69d0b2fcdd4	0.03850260507160966
196	0x3fa5213fac185146	0.041269292600335336
197	0x3fa516c8f839a843	0.041189461041384344
198	0x3fa482aa487dc14b	0.040059396122958356
199	0x3fa311fd3c629db5	0.03724662172436003
200	0x3f95b5dc31053ec6	0.02120155381390878
201	0x3f66a09751d53054	0.0027621226751417902
202	0xbf95282c792746f8	-0.020661063093775106
203	0xbfa8ccf4a5bdcb1c	-0.04843868754587374
204	0xbfaf558714fb3f9d	-0.06119939929123961
205	0xbf9c5dd4763f41fb	-0.027701682774763352
206	0xbf74fa994c2f5222	-0.005121802157152662
207	0x3f6f5805f25eaf9a	0.0038261524341205
208	0x3f5b2fbb13d03809	0.0016593291213697922
209	0x3f8e4a0b5d1fd8e7	0.01478966596549154
210	0x3f9303750ea3e602	0.018567875879830005
211	0x3f9a6cc881fac11f	0.025805600102729472
212	0x3fa7ce3866194486	0.04649521108934444
213	0x3fb4688b0547ab3c	0.07972020033745947
214	0x3fb14bf2b813968f	0.06756512636237687
215	0x3fa449ede8058056	0.039626535962043505
216	0x3f822e2318a9622e	0.008877062025178874
217	0xbf7fe9f257dbbca8	-0.007791468289482108
218	0xbf7e29570a45fe51	-0.00736364364672644
219	0xbf97fe7bd279f76e	-0.02343171569963636
220	0xbfa570722c161481	-0.04187351978456722
221	0xbf8317ef62ade760	-0.009322996329263311
222	0x3f997147e11f032f	0.024846194377235505
223	0x3fa4a294d8a7882e	0.040302897879670105
224	0x3fa56827f0614fa7	0.04181027230575234
225	0x3fa50097abb7f4a8	0.041020145141353936
226	0x3fa3ba66d0a655d7	0.03853150650972353
227	0x3f9fd682537dcd4b	0.031091724725638852
228	0x3f823107b8af0da5	0.008882580112078051
229	0xbf91a6419fb2649e	-0.017235780117151316
230	0xbfa2119515efb59a	-0.03529039280679598
231	0xbfaafbaca5dd7d59	-0.05270137333604436
232	0xbfa4e41e9c520715	-0.0408029142208887
233	0xbf922f843d37ec3b	-0.017759386288144646
234	0xbf71b88d676280bf	-0.004326393469597344
235	0xbf8bcf704eef8808	-0.013579251679349383
236	0xbf701f196336d012	-0.003935908479821408
237	0xbf7cd15f2ef607e4	-0.007035610018080594
238	0x3f9025bf6c4f93bb	0.01576899622513726
239	0x3fa4747ed2e25eb8	0.03995128940840459
240	0x3fb6321bebb3c284	0.0867021036572258
241	0x3fb61e44828a9575	0.08639934718174465
242	0x3fad7f81f6aef30a	0.057613431322783695
243	0x3f9d56e7e7e1da66	0.028651832130402254
244	0x3f8e575be11a7956	0.014815061385260602
245	0xbf7b1eda1e3d793a	-0.006621219657829075
246	0xbf634a187c74138d	-0.002354667496208446
247	0xbf634ec36b310722	-0.002356893231564864
248	0xbfa3a36d66a4eaca	-0.03835622671109247
249	0xbf87a0aca1bf44e1	-0.011536930738574149
250	0x3f9b5a88d4b91d9f	0.026712549193943166
251	0x3fa49bfd7167c3c2	0.040252609342025916
252	0x3fa51eea42a8d8da	0.04125148833957022
253	0x3fa4dbc691ed55f2	0.04073925525032597
254	0x3fa30ca2389d142d	0.037205762301291
255	0x3f9aec77aa48ac4f	0.02629267670469587
