Multiclass_weights6k 10I/class9weights.npy (npy, 6400 bytes, 1 tensors)

array f8 [1, 784]
0.0 0.0 0.0 0.0 0.0 0.0 0.0 0.0
0.0 0.0 0.0 0.0 0.0 0.0 0.0 0.0
0.0 0.0 0.0 0.0 0.0 0.0 0.0 0.0
0.0 0.0 0.0 0.0 0.0 0.0 0.0 0.0
0.0 0.0 0.0 -8.5e-05 -0.0002891666666666667 -0.0003925 -0.0013929503237081016 -0.005211508711289128
-0.007491293796794854 -0.016153860902573397 -0.008588237725868699 -0.01357828194203447 -0.0036491650856153974 -0.0007885186879913368 -0.0005568805374259015 -0.0013391655870203972
-0.0040147713401189585 -0.001127443359479008 -0.00011833333333333333 0.0 0.0 0.0 0.0 0.0
0.0 0.0 0.0 0.0 -4.8333333333333334e-05 -1.4166666666666666e-05 -4.25e-05 -0.00017333333333333334
-0.0008116666666666667 -0.0018323352596418471 -0.006005280667023874 -0.014935106386752724 -0.17287279236330783 -0.5379313362242979 -0.37019514122606795 -0.12757743329802898
-0.5936436374145416 -0.4328297814538198 -0.10546028810119847 -0.055770072346379616 -0.01436565915540773 -0.003104962239652672 -0.0007041666666666666 -0.00021166666666666667
-9.25e-05 0.0 0.0 0.0 0.0 0.0 0.0 0.0
-1.4166666666666666e-05 -0.0004525 -0.0013733333333333334 -0.0022233333333333332 -0.004659166666666718 -0.008596670980147015 -0.017576868580369828 -0.09341851108475142
-1.9471274678444266 -1.653006529244881 -1.5291289532925814 -0.8985532596707132 -1.3877110341221734 -0.9802192608205766 -0.656768596762602 -0.395069068702483
-0.12818304924097346 -0.04296243378039037 -0.005750088575080999 -0.0011808333333333334 -0.0004275 0.0 0.0 0.0
0.0 0.0 0.0 -5e-05 -0.009657968124974704 -0.0198227708379163 -0.17194623476020193 -0.40675843000336837
-0.34152187855337474 -0.5065258241374894 -0.9059996686385967 1.319109185095522 -0.5317168328340777 -2.124376815057712 0.20286239488497407 0.48122962203164166
-0.45639983250566757 -3.472426071240231 -3.3413015392858543 -2.0427666759728638 -0.7659905280177632 -0.388554644672294 -0.34588017029615686 -0.10163176569968156
-0.07099431713520522 -0.0003025 0.0 0.0 0.0 0.0 -6.333333333333333e-05 -0.0015783317102224033
-0.05182719647714111 -0.12528856075148453 -0.3577183441321668 -0.9270196752392277 -1.1948747071437145 -1.0482968746649501 -2.7208380883463605 0.6888460757357391
1.457769696554308 0.7162115905246893 -1.442475594828207 0.06518423949590411 -1.9635431829650871 -0.17447099452301543 -2.0470627086682383 1.215596890713842
-1.8585650782093688 -3.3654650303113702 -1.722103115394419 -0.7727303193674534 -0.41460636468693957 -0.152962590033305 -0.002722991467922792 -4.5e-05
0.0 0.0 -0.0038015322651133014 -0.033267013394125564 -0.19035368075223555 -1.2696972005926352 -1.445191362508819 -0.7095873384280429
-2.5452517570584385 0.7776622334854046 1.0206784995687885 -0.9122205038359555 -0.235142659597769 0.5126370418387913 0.05596894072139891 0.08353247873943372
0.7524455473623595 0.8031753244739848 0.8310757213751632 -0.7036779562979883 0.03941699258553296 -1.0418841746130547 -2.8083328807390444 -2.147047106377901
-1.1141770457112619 -0.6974361081768209 -0.039319180728338586 -0.05332880976498256 -0.00035250000000000006 -0.002517499998232965 -0.0025383333333333334 -0.06660225624992047
-1.288260574164448 -1.9470503958710028 -1.370508074455365 -0.9562348351596994 0.9587724237711983 -1.99339439133079 0.5702318396936858 0.9360330880899469
-0.8694170111335807 1.2292640388200262 0.9553441562739421 1.6232846987025944 1.7160587147256292 0.4924266877363144 -1.0925552660821767 0.406455609003293
-0.5032251835463716 0.819740310046018 0.31309032187447894 -1.4010374068017866 -1.53078724733107 -1.4490868638520253 -0.37783527490037033 -0.036142427189791326
-0.0014324999999999997 -0.004100833333333334 -0.007356137852494251 -0.1840691009938972 -1.1430332511298342 0.8474568274320793 -2.2857877081698526 -0.8361608669812568
-0.26172513743202686 -0.6256505411572247 -1.0547750396254822 -0.06659393679454158 -0.7109325433608612 0.24671764712891636 0.13157265433424237 -0.18385607728914288
0.10737225244537023 -0.15649923456659598 -0.3241018475140831 0.03974890608026012 0.19546483400956263 -0.12314895390060644 -1.6002952646266266 -0.43881973376087446
-2.0537807527570884 -1.7716771380641372 -0.29618029477520424 -0.003739046234779607 -0.00023249999999999999 -0.01437066774850516 -0.435285327395346 -0.21315709215513762
00000000: 0000 0000 0000 0000 0000 0000 0000 0000
00000010: 0000 0000 0000 0000 0000 0000 0000 0000
00000020: 0000 0000 0000 0000 0000 0000 0000 0000
00000030: 0000 0000 0000 0000 0000 0000 0000 0000
00000040: 0000 0000 0000 0000 0000 0000 0000 0000
00000050: 0000 0000 0000 0000 0000 0000 0000 0000
00000060: 0000 0000 0000 0000 0000 0000 0000 0000
00000070: 0000 0000 0000 0000 0000 0000 0000 0000
00000080: 0000 0000 0000 0000 0000 0000 0000 0000
00000090: 0000 0000 0000 0000 0000 0000 0000 0000
000000a0: 0000 0000 0000 0000 0000 0000 0000 0000
000000b0: 0000 0000 0000 0000 0000 0000 0000 0000
000000c0: 0000 0000 0000 0000 0000 0000 0000 0000
000000d0: 0000 0000 0000 0000 0000 0000 0000 0000
000000e0: 0000 0000 0000 0000 0000 0000 0000 0000
000000f0: 0000 0000 0000 0000 0000 0000 0000 0000
00000100: 0000 0000 0000 0000 0000 0000 0000 0000
00000110: 0000 0000 0000 0000 809f 71e1 4048 16bf
00000120: 7f7f 5d60 69f3 32bf b7ee e6a9 0eb9 39bf
00000130: ac35 7505 75d2 56bf d017 a5b7 a958 75bf
00000140: 3698 cadd 30af 7ebf 186c 1f41 a38a 90bf
00000150: c193 4dc1 b596 81bf fde6 0327 eece 8bbf
00000160: dbdd 6996 dae4 6dbf a823 15fd 92d6 49bf
00000170: 5f49 17d9 733f 42bf cf91 9c19 def0 55bf
00000180: 7d29 b5f9 ca71 70bf 01fc d916 d778 52bf
00000190: 8e60 d02f 3705 1fbf 0000 0000 0000 0000
000001a0: 0000 0000 0000 0000 0000 0000 0000 0000
000001b0: 0000 0000 0000 0000 0000 0000 0000 0000
000001c0: 0000 0000 0000 0000 0000 0000 0000 0000
000001d0: 0000 0000 0000 0000 0000 0000 0000 0000
000001e0: 78c9 12b0 3057 09bf ff29 42d7 abb5 edbe
000001f0: 809f 71e1 4048 06bf 5a5c f6fe 19b8 26bf
00000200: 6c68 f0e4 c098 4abf 6073 fd00 5f05 5ebf
00000210: f637 1741 fe98 78bf 2473 f20b 4c96 8ebf
00000220: 12c8 c816 b220 c6bf 4a76 12c7 bb36 e1bf
00000230: 5f0f 2df6 46b1 d7bf fd7f dc13 7554 c0bf
00000240: e790 05f1 20ff e2bf 100e 05af 7bb3 dbbf
00000250: e9df 6b08 72ff babf 9b81 a519 e58d acbf
00000260: e74c 1022 be6b 8dbf 78b6 c9e8 936f 69bf
00000270: cb35 f266 fa12 47bf 29d8 6cd2 5abe 2bbf
00000280: 56f1 46e6 913f 18bf 0000 0000 0000 0000
00000290: 0000 0000 0000 0000 0000 0000 0000 0000
000002a0: 0000 0000 0000 0000 0000 0000 0000 0000
000002b0: 0000 0000 0000 0000 0000 0000 0000 0000
000002c0: ff29 42d7 abb5 edbe 6492 91b3 b0a7 3dbf
000002d0: edfd 3370 2d80 56bf ce80 8dfe aa36 62bf
000002e0: 44f1 5b87 7d15 73bf 6db0 b6a5 219b 81bf
000002f0: 6f07 e0ae abff 91bf 9134 f389 46ea b7bf
00000300: c98f b821 6f27 ffbf 53e6 72f9 b672 fabf
00000310: 3222 dceb 4f77 f8bf 41ff ffc3 f2c0 ecbf
00000320: 32a6 3d7c 1034 f6bf 0847 84c8 f45d efbf
00000330: 7453 8493 3f04 e5bf fd40 6fc6 cf48 d9bf
00000340: f01d 325a 4d68 c0bf f630 1610 2cff a5bf
00000350: 22b2 10a6 678d 77bf a5ca 1d23 c658 53bf
00000360: 31ce df84 4204 3cbf 0000 0000 0000 0000
00000370: 0000 0000 0000 0000 0000 0000 0000 0000
00000380: 0000 0000 0000 0000 0000 0000 0000 0000
00000390: 0000 0000 0000 0000 2d43 1ceb e236 0abf
000003a0: 1acc f089 8ec7 83bf a51c dca1 6b4c 94bf
000003b0: 6a92 7b8f 5502 c6bf 4727 8f82 5408 dabf
000003c0: a955 d094 7edb d5bf b5ff 27a5 7535 e0bf
000003d0: e2aa 5f04 f3fd ecbf 686a 9d3b 121b f53f
000003e0: 7929 f804 d303 e1bf 986d 8845 b9fe 00c0
000003f0: fd41 cf1b 65f7 c93f 8882 1f54 77cc de3f
00000400: 05c0 a0a4 a735 ddbf 5609 ee51 87c7 0bc0
00000410: 2775 2a4d fcba 0ac0 f04b 150e 9657 00c0
00000420: e039 5c91 fe82 e8bf cbe3 e44c 14de d8bf
00000430: 1f71 f094 e622 d6bf b734 ea15 8a04 babf
00000440: d12c 4cfe ae2c b2bf 33f9 669b 1bd3 33bf
00000450: 0000 0000 0000 0000 0000 0000 0000 0000
00000460: 0000 0000 0000 0000 0000 0000 0000 0000
00000470: 6908 b461 3a9a 10bf 9d22 f8c4 00dc 59bf
00000480: c64b d323 1889 aabf dcc9 7e9f 7409 c0bf
00000490: 0586 4e7b dbe4 d6bf 30d5 7c2a 25aa edbf
000004a0: 4fff dff0 341e f3bf a5f5 92f1 d2c5 f0bf
000004b0: 2d45 79c2 46c4 05c0 fe69 e8ec 060b e63f
000004c0: 3fcf 3c51 0653 f73f da3a ca91 34eb e63f
000004d0: 740b 114a 6114 f7bf 6f7b d910 eaaf b03f
000004e0: 94e6 b141 ac6a ffbf 61d9 c9c7 1055 c6bf
000004f0: e6ba d469 6260 00c0 88c3 abb9 1573 f33f
00000500: ca59 46bc aebc fdbf e126 08ee 78ec 0ac0
00000510: 0457 0fff bb8d fbbf 77f2 49ef 34ba e8bf
00000520: 84ce 4222 e988 dabf 132d da34 4794 c3bf
00000530: 401c aae9 864e 66bf 0fd6 ff39 cc97 07bf
00000540: 0000 0000 0000 0000 0000 0000 0000 0000
00000550: 5d72 1b18 6424 6fbf 2671 20bd 5f08 a1bf
00000560: 9385 c068 825d c8bf d2e3 0503 ae50 f4bf
00000570: 31fe 66fa 801f f7bf 3888 8681 f0b4 e6bf
00000580: 6238 05f4 ac5c 04c0 a0ee 84e8 9be2 e83f
00000590: 810d 76fa b254 f03f 0fea d60d e930 edbf
000005a0: dff5 6e98 2719 cebf 2c4e 2dcc 8567 e03f
000005b0: b0f7 fa03 f6a7 ac3f 79f5 5670 6262 b53f
000005c0: 1e26 3eaf 0814 e83f 0e3d f2bc 9cb3 e93f
000005d0: 36ca 791c 2c98 ea3f 49e9 26a2 8784 e6bf
000005e0: fb81 1fcc 762e a43f aaed 82bd 8eab f0bf
000005f0: 0072 b83a 7777 06c0 88ea 8608 272d 01c0
00000600: 4f8a 544f abd3 f1bf 2768 7587 6551 e6bf
00000610: 5bde aac6 a421 a4bf f11a c0eb e94d abbf
00000620: 9a81 caf8 f719 37bf 6976 1f85 949f 64bf
00000630: 387c e554 45cb 64bf 82e7 6e70 d80c b1bf
00000640: 2533 ac1e b79c f4bf 81e0 de50 1e27 ffbf
00000650: 1e09 ebdf 99ed f5bf ccd1 09cc 7999 eebf
00000660: 28ed 8c81 43ae ee3f a7ba 6c84 f1e4 ffbf
00000670: d8e9 d3d7 563f e23f 273f aaa9 fbf3 ed3f
00000680: 19f4 ac9f 43d2 ebbf 1d18 cec4 10ab f33f
00000690: a5e1 73e8 2d92 ee3f d065 5060 f9f8 f93f
000006a0: ac32 9cfb f974 fb3f 2453 e039 eb83 df3f
000006b0: 1454 0e3b 1b7b f1bf 5979 fc62 5e03 da3f
000006c0: 515e 3bb3 6b1a e0bf 9b89 db07 503b ea3f
000006d0: b047 49fd ab09 d43f 2cfb 2a33 a66a f6bf
000006e0: a2bb c6c4 1a7e f8bf 26ec 14b5 752f f7bf
000006f0: 8339 3e01 742e d8bf 3072 8e9d 4281 a2bf
00000700: f080 b229 5778 57bf 8324 d910 09cc 70bf
00000710: 1c73 0538 7821 7ebf 4d88 7c88 938f c7bf
00000720: b87d fd3b dd49 f2bf 5ef7 d2c7 5d1e eb3f
00000730: a881 e110 4b49 02c0 e624 3c6f d4c1 eabf
00000740: 40f2 73ca 1ac0 d0bf e5d6 9f48 5405 e4bf
00000750: be41 bdca 5be0 f0bf 7dfa a4dc 4c0c b1bf
00000760: 3bb4 ec9a f5bf e6bf cae3 e1a0 7194 cf3f
00000770: 08ed b46b 5fd7 c03f 0859 908f 9888 c7bf
00000780: 432f c078 bf7c bb3f 0c02 28bb 2a08 c4bf
00000790: c85a e9ac 15be d4bf 8a3e 55f7 f759 a43f
000007a0: f168 cbde fd04 c93f d92a 8a99 b086 bfbf
000007b0: 8d3d 1835 cf9a f9bf 9ae9 555d 9f15 dcbf
000007c0: b8f7 719a 246e 00c0 cbe6 7020 ca58 fcbf
000007d0: 76dd f131 9ef4 d2bf fdd4 7d29 59a1 6ebf
000007e0: 7d74 eaca 6779 2ebf 8618 0360 5e6e 8dbf
000007f0: d2dd 65fd b6db dbbf 42bf db49 bb48 cbbf
