Multiclass_weights6k 10I/class7weights.npy (npy, 6400 bytes, 1 tensors)

array f8 [1, 784]
0	0x0000000000000000	0.0
1	0x0000000000000000	0.0
2	0x0000000000000000	0.0
3	0x0000000000000000	0.0
4	0x0000000000000000	0.0
5	0x0000000000000000	0.0
6	0x0000000000000000	0.0
7	0x0000000000000000	0.0
8	0x0000000000000000	0.0
9	0x0000000000000000	0.0
10	0x0000000000000000	0.0
11	0x0000000000000000	0.0
12	0x0000000000000000	0.0
13	0x0000000000000000	0.0
14	0x0000000000000000	0.0
15	0x0000000000000000	0.0
16	0x0000000000000000	0.0
17	0x0000000000000000	0.0
18	0x0000000000000000	0.0
19	0x0000000000000000	0.0
20	0x0000000000000000	0.0
21	0x0000000000000000	0.0
22	0x0000000000000000	0.0
23	0x0000000000000000	0.0
24	0x0000000000000000	0.0
25	0x0000000000000000	0.0
26	0x0000000000000000	0.0
27	0x0000000000000000	0.0
28	0x0000000000000000	0.0
29	0x0000000000000000	0.0
30	0x0000000000000000	0.0
31	0x0000000000000000	0.0
32	0x0000000000000000	0.0
33	0x0000000000000000	0.0
34	0x0000000000000000	0.0
35	0xbf164840e1719f80	-8.5e-05
36	0xbf32f369605d7f7f	-0.0002891666666666667
37	0xbf39b90ea9e6eeb7	-0.0003925
38	0xbf36d41046578b90	-0.0003483333333333333
39	0xbf46872b020c49ba	-0.0006875
40	0xbf3e6b6ca739dce2	-0.00046416666666666666
41	0xbf410a137f38c543	-0.00052
42	0xbf42177791db2879	-0.000552113898913533
43	0xbf53d23c0c1d058a	-0.001209791793783973
44	0xbf547b487a09b9c5	-0.001250096109426489
45	0xbf49d504f1481dee	-0.0007883333333333334
46	0xbf423da89065cc9c	-0.0005566666666666667
47	0xbf3522a6f3f52fc2	-0.0003225
48	0xbf39034dd9ef3bd4	-0.00038166666666666666
49	0xbf2dd1a21ea35936	-0.0002275
50	0xbf1f05372fd0608e	-0.00011833333333333333
51	0x0000000000000000	0.0
52	0x0000000000000000	0.0
53	0x0000000000000000	0.0
54	0x0000000000000000	0.0
55	0x0000000000000000	0.0
56	0x0000000000000000	0.0
57	0x0000000000000000	0.0
58	0x0000000000000000	0.0
59	0x0000000000000000	0.0
60	0xbf095730b012c978	-4.8333333333333334e-05
61	0xbeedb5abd74229ff	-1.4166666666666666e-05
62	0xbf064840e1719f80	-4.25e-05
63	0xbf26b819ff028020	-0.00017333333335489785
64	0xbf4e2584f4cbce35	-0.0009200000000348431
65	0xbf6f22ecdb489eb8	-0.0038008333306328267
66	0xbf6f7a4e7a9809a5	-0.003842499999110421
67	0xbf7b1088c3684898	-0.006607565147094395
68	0xbf92c3719d04de92	-0.01832368393772172
69	0xbf994a38341bb25c	-0.024697187595778977
70	0xbf8ad4b2e4156f79	-0.013101003251612774
71	0xbf983cc5129b55cc	-0.023669318447749707
72	0xbfa49289cce7b87c	-0.040180498373829615
73	0xbf9e2fdfb9c81eba	-0.029479499544349898
74	0xbf98d02fb380e73d	-0.024231667834306626
75	0xbf8eeb703998d023	-0.01509750057002896
76	0xbf771758e219652c	-0.0056375
77	0xbf63c89f40a2877f	-0.002415
78	0xbf4712fa66f235cb	-0.0007041666666666666
79	0xbf2bbe5ad26cd829	-0.00021166666666666667
80	0xbf183f91e646f156	-9.25e-05
81	0x0000000000000000	0.0
82	0x0000000000000000	0.0
83	0x0000000000000000	0.0
84	0x0000000000000000	0.0
85	0x0000000000000000	0.0
86	0x0000000000000000	0.0
87	0x0000000000000000	0.0
88	0xbeedb5abd74229ff	-1.4166666666666666e-05
89	0xbf692e4089f34fcd	-0.0030738125347884227
90	0xbf75bb0332add59a	-0.005305302135515966
91	0xbf80762932033a29	-0.00803787406803476
92	0xbf80492d2f2f94e8	-0.007952073099611615
93	0xbf92038747923d5f	-0.017591584914553034
94	0xbfa154c218f39c7d	-0.03384977869591752
95	0xbfb531be0c315d6a	-0.08279025838543466
96	0xbfba492405f4aa27	-0.10267853875544884
97	0xbfbda09ccbd38659	-0.1157320020315863
98	0xbfc5c477a40b37ce	-0.17005820760681306
99	0xbfc2cc5926850027	-0.1468612135013256
100	0xbfbb86e51ab5f92b	-0.10752708341712906
101	0xbfb79277bbc28e4e	-0.09207866987213117
102	0xbfb2a5ff23fff6aa	-0.07284540776160023
103	0xbfa858ff21120e7f	-0.047553990160875685
104	0xbf95eb6be88baa6b	-0.02140587431760325
105	0xbf84d37a0dd9028f	-0.010168984935377238
106	0xbf70c0ad03d9a954	-0.00409
107	0xbf5358c6231dcaa5	-0.0011808333333333334
108	0xbf3c044284dfce31	-0.0004275
109	0x0000000000000000	0.0
110	0x0000000000000000	0.0
111	0x0000000000000000	0.0
112	0x0000000000000000	0.0
113	0x0000000000000000	0.0
114	0x0000000000000000	0.0
115	0xbf0a36e2eb1c432d	-5e-05
116	0xbf3bbe5ad26cd829	-0.00042333333333333334
117	0xbf989c1fa097380b	-0.024033064057043457
118	0xbf993149861545bb	-0.02460207825544612
119	0xbf9c3936390abb10	-0.027561995727121646
120	0xbfa1bf1b365dbdcc	-0.03466115034722925
121	0xbfb998109d23e9d2	-0.09997657619889047
122	0xbfc6af9d7f8f45d8	-0.17723435142992972
123	0xbfa519da0933aae0	-0.041212857840795314
124	0xbf66b902d8d14385	-0.0027737670521123547
125	0xbf9d27d7b82a0b64	-0.02847230016278547
126	0xbf5ffadefbbb0035	-0.0019519021579270772
127	0xbfd6c128031c486c	-0.35553932479627437
128	0xbfd9d22b9af3662b	-0.4034527791205586
129	0xbfd02018a1a1acfc	-0.2519589975770058
130	0xbfc9b8ae63b326f9	-0.2009485232177253
131	0xbfc9ff849c2a10be	-0.20311029076777304
132	0xbfc3697c1f63cfa4	-0.15165664227208453
133	0xbfb8092fb3a868dd	-0.09389017234971982
134	0xbfb7945a55c8699d	-0.09210743517215865
135	0xbf9e15821b986b50	-0.02937892239979628
136	0xbf81769b99097249	-0.008527007682624392
137	0xbf33d31b9b66f933	-0.0003025
138	0x0000000000000000	0.0
139	0x0000000000000000	0.0
140	0x0000000000000000	0.0
141	0x0000000000000000	0.0
142	0xbf109c511d7f38ab	-6.336445892360608e-05
143	0xbf40ee49316415cf	-0.0005166871440286882
144	0xbf97cefe020b12cf	-0.023250550150595125
145	0xbfc6c34186d2ca9d	-0.17783373912023573
146	0xbfc5582aa1f860ca	-0.1667531290884255
147	0x3fb0951a478f58cb	0.06477512595242556
148	0xbfbb40a544f5c897	-0.10645516332241055
149	0x3fb2d0584f4ff2e1	0.07349159180007404
150	0xbfb3794072766ff5	-0.07606890482423963
151	0x3fcf2cf247fac8c6	0.24355915560369662
152	0xbfc7fc1080b51b2b	-0.1873798969702077
153	0xbfce27a9c3d98322	-0.23558542311641256
154	0x3fd86ba029dec93d	0.3815689476861229
155	0x3fd7ec9343db4e26	0.37381440760256834
156	0xbfdd8605a3e9c883	-0.4613050556864737
157	0xbff63d8e45dba0d6	-1.3900282601189722
158	0xbfed881d9b4d9f4c	-0.9228656800523622
159	0xbfe5fd0dd848de95	-0.687140390807104
160	0xbfe5425fdae97069	-0.6643523479101648
161	0xbfe3eb565878ceba	-0.622477696224869
162	0xbfd89a513970495d	-0.38441877946129016
163	0xbfcbb555994c8d8a	-0.21647138581566266
164	0xbfa23f68f102001b	-0.03564002935399931
165	0xbf7636ef23797986	-0.00542348302368934
166	0xbf42de70aad49c16	-0.0005758333333333334
167	0xbeef75104d551d69	-1.5e-05
168	0x0000000000000000	0.0
169	0x0000000000000000	0.0
170	0xbf7b16eb6e7ce444	-0.00661365476099102
171	0xbf9ce1e6871e227d	-0.028205492016726275
172	0xbfc1fc319e075012	-0.14050884453047324
173	0xbfc8b563839b40fa	-0.1930355446443242
174	0xbfbeaf5bba3cd0cb	-0.11986325547042324
175	0x3fd949c82316d9cc	0.39512828280149104
176	0x3fd6f06a5cb75323	0.3584237962179932
177	0x3fe1c1e67c29a12c	0.5549194741297803
178	0x3fdf381f1f374574	0.4878003887980278
179	0xbfb53924e668ce0a	-0.0829032003901419
180	0xbfccc027599960a3	-0.22461406588513907
181	0x3fcb11b2163b147f	0.21147752843367937
182	0xbf9c7f8dcc3322e1	-0.02783032950245257
183	0x3fb0341ed795ac8f	0.06329529536530941
184	0x3fddcd79704584ba	0.46566616024035634
185	0x3fc17d20a82fc34e	0.13663109028086712
186	0xbf965cf2098e73e2	-0.021838933785705346
187	0x3fc0e8594896444e	0.13209072155271645
188	0xbfc70407c7daad5b	-0.17981049784189448
189	0xbfbcc297e6ca09c2	-0.11234425911428672
190	0x3fd9c52b3bce625e	0.4026592334790048
191	0xbfd0444de8e49be8	-0.25416896575410286
192	0xbfbda56d4b92a8e8	-0.1158054646972776
193	0xbfab3f16f17d11b9	-0.05321571061952874
194	0xbf9162d5500338fc	-0.016978581436711146
195	0xbf7f7f5dd1d6fb66	-0.007689825518751947
196	0x3f5b97f50051aab4	0.0016841785993856719
197	0x3f66a63666ad18dd	0.00276480317316717
198	0xbfb9a26622fdcfd5	-0.1001342616489745
199	0x3fb8ef3b04d98155	0.09740036838912165
200	0xbf94ecfe13ec75f6	-0.020435304609341252
201	0x3fd86c56ada9439e	0.38161246260738746
202	0x3fe2afcdc8d056cc	0.5839604303498276
203	0x3ff0711c429c0df9	1.027614841645912
204	0xbfeddca378d17b98	-0.9331834182483929
205	0xbfca2d85548e8a86	-0.20451418522596415
206	0x3fd0235c850d026d	0.25215828889125796
207	0xbfc9dd11ca09bef5	-0.20205900540485514
208	0x3fd7e025d8a94478	0.3730558982688943
209	0xbfd544421e2b9d6b	-0.3322911543495681
210	0xbfe373a899bb650c	-0.607868480928262
211	0xbf8753fde7c55067	-0.011390670428831308
212	0x3fbabf637918a895	0.10448285776570494
213	0x3fc95d231a2f8b86	0.19815481928443662
214	0xbfa1eb96eab5d850	-0.03500053038708073
215	0xbfd1a9e77bbe9bbd	-0.2759951313441283
216	0x3fa2b3691be6e301	0.03652504411315328
217	0x3fc3dd079a6ea832	0.15518279114377403
218	0xbfc0a6b9f1e4a947	-0.1300880843276195
219	0xbfde9e01ccb102c5	-0.47839398373984593
220	0xbfdb840a30f46e02	-0.42993407040350473
221	0xbfd5c5c17bd36cad	-0.3401950558888512
222	0xbfb6e7715a637e35	-0.0894690366435434
223	0xbf5f8b470e13dc8a	-0.0019252962013618668
224	0x3f7c08ae0468c1de	0.006844215159205606
225	0x3f982a28c00be387	0.023598324510178095
226	0xbf8f9c6f138c6fab	-0.015435092720103535
227	0x3fd54d8370c8b558	0.3328560449034135
228	0xbfd5d2c472ad3cd9	-0.34098921965501244
229	0xbfc631be19e9640c	-0.17339302315920724
230	0x3fec85518b8c92b4	0.8912742353027938
231	0x3fd596fcd35729f2	0.3373405517455971
232	0x3fc3123dacc2a550	0.14899416862071257
233	0x3fea04a00dde7059	0.8130646010281551
234	0x3fd37f0f13069d65	0.30463005884163
235	0xbfc6fbd8320b8da4	-0.17956068461999763
236	0x3fd5200e4502f9d4	0.3300815271321913
237	0x3fd7024fc065d9ad	0.35951608456471257
238	0x3faef961576f0640	0.060496370242173914
239	0x3fe7a8dd8dd571fe	0.7393634576979478
240	0xbfd275c53de92190	-0.2884381394001361
241	0xbfcf069064f293bf	-0.24238781861381928
242	0x3fd0b9e9d1e5c2ba	0.26134725091746314
243	0xbfb08ec42621ae57	-0.06467843943544814
244	0x3fd653ae756575ad	0.34885751213536303
245	0xbf75ea3533b5530e	-0.005350311107879658
246	0x3fcf8c79c8f0711a	0.2464744788311542
247	0xbfd505bea7412465	-0.3284756310791351
248	0xbfce0bf94f3db77e	-0.23474041337197699
249	0xbfdde270377bfdb2	-0.4669456998671776
250	0xbfc8d4b145a180df	-0.1939908590311523
251	0xbf7751659a9d2cd0	-0.005692860498878363
252	0x3f523334a90fbcda	0.0011108412038501243
253	0x3fa2192f62f3bad5	0.0353483970919705
254	0x3fd3ce6513d30a2f	0.3094723409268764
255	0x3fdc497a566d085b	0.44198473396330024
