Multiclass_weights6k 10I/class0weights.npy (npy, 6400 bytes, 1 tensors)

array f8 [1, 784]
000000 00 00 00 00 00 00 00 00 00 00 00 00 00 00 00 00
       0.0 0.0
000010 00 00 00 00 00 00 00 00 00 00 00 00 00 00 00 00
       0.0 0.0
000020 00 00 00 00 00 00 00 00 00 00 00 00 00 00 00 00
       0.0 0.0
000030 00 00 00 00 00 00 00 00 00 00 00 00 00 00 00 00
       0.0 0.0
000040 00 00 00 00 00 00 00 00 00 00 00 00 00 00 00 00
       0.0 0.0
000050 00 00 00 00 00 00 00 00 00 00 00 00 00 00 00 00
       0.0 0.0
000060 00 00 00 00 00 00 00 00 00 00 00 00 00 00 00 00
       0.0 0.0
000070 00 00 00 00 00 00 00 00 00 00 00 00 00 00 00 00
       0.0 0.0
000080 00 00 00 00 00 00 00 00 00 00 00 00 00 00 00 00
       0.0 0.0
000090 00 00 00 00 00 00 00 00 00 00 00 00 00 00 00 00
       0.0 0.0
0000a0 00 00 00 00 00 00 00 00 00 00 00 00 00 00 00 00
       0.0 0.0
0000b0 00 00 00 00 00 00 00 00 00 00 00 00 00 00 00 00
       0.0 0.0
0000c0 00 00 00 00 00 00 00 00 00 00 00 00 00 00 00 00
       0.0 0.0
0000d0 00 00 00 00 00 00 00 00 00 00 00 00 00 00 00 00
       0.0 0.0
0000e0 00 00 00 00 00 00 00 00 00 00 00 00 00 00 00 00
       0.0 0.0
0000f0 00 00 00 00 00 00 00 00 00 00 00 00 00 00 00 00
       0.0 0.0
000100 00 00 00 00 00 00 00 00 00 00 00 00 00 00 00 00
       0.0 0.0
000110 00 00 00 00 00 00 00 00 80 9f 71 e1 40 48 16 bf
       0.0 -8.5e-05
000120 7f 7f 5d 60 69 f3 32 bf b7 ee e6 a9 0e b9 39 bf
       -0.0002891666666666667 -0.0003925
000130 3b 17 10 81 38 86 48 bf 10 90 22 06 91 15 59 bf
       -0.0007484222315958586 -0.001531020760503491
000140 05 5f 78 e8 70 76 4a bf b2 20 e9 9d 01 31 68 bf
       -0.0008075763043420009 -0.002953055532348336
000150 19 e0 81 db 38 5d 7a bf 43 0d 71 fc e4 51 73 bf
       -0.006436559771934491 -0.004716772534325844
000160 15 e4 d4 f4 8c dc 82 bf 66 9d 04 49 b2 21 62 bf
       -0.00920972940603985 -0.0022133333333333336
000170 d7 6b 8d 1b 91 02 5e bf a1 a0 aa 2d fd a0 71 bf
       -0.001831666666666667 -0.004303921678605744
000180 fa 7f 4b e4 e7 b0 89 bf be 38 ee 36 12 b9 6c bf
       -0.01254445233774958 -0.003506217551552642
000190 6a 48 dc 63 e9 43 37 bf 00 00 00 00 00 00 00 00
       -0.00035499999999999996 0.0
0001a0 00 00 00 00 00 00 00 00 00 00 00 00 00 00 00 00
       0.0 0.0
0001b0 00 00 00 00 00 00 00 00 00 00 00 00 00 00 00 00
       0.0 0.0
0001c0 00 00 00 00 00 00 00 00 00 00 00 00 00 00 00 00
       0.0 0.0
0001d0 00 00 00 00 00 00 00 00 00 00 00 00 00 00 00 00
       0.0 0.0
0001e0 1a 17 0e 84 64 01 23 bf 78 c9 12 b0 30 57 f9 be
       -0.000145 -2.4166666666666667e-05
0001f0 80 9f 71 e1 40 48 06 bf 5a 5c f6 fe 19 b8 26 bf
       -4.25e-05 -0.00017333333333333334
000200 8d c3 73 c1 0c b0 67 bf ce b1 28 f8 a7 37 98 bf
       -0.0028915642866355674 -0.023649811288281523
000210 03 c5 64 f3 05 28 99 bf 26 18 43 e8 81 e8 80 bf
       -0.02456673906380492 -0.008255972767425911
000220 4a 30 c1 c5 76 95 a1 bf 0a 12 ab 9f 49 83 ab bf
       -0.034343444480868415 -0.05373601984095806
000230 b7 e3 b6 d1 1c 70 b3 bf 6c 1a ea 7d c9 fc c9 bf
       -0.07592945213299528 -0.20302694938819188
000240 a2 6e f7 85 52 df db bf c8 85 bd 9b 74 aa cf bf
       -0.4355055149332917 -0.247389389081077
000250 00 b8 da 00 b9 1f c2 bf bb 4f 3b 26 db df b1 bf
       -0.14159309903828898 -0.06982202227965122
000260 2d 81 2d d0 39 6d a2 bf 5f 64 e2 cb 4a 42 88 bf
       -0.03598957697136238 -0.011845192286545179
000270 6e bd 14 17 24 9c 65 bf 50 46 6f cb 5a 1d 33 bf
       -0.00263793038234155 -0.00029166666666666664
000280 58 1c ce fc 6a 0e 20 bf 00 00 00 00 00 00 00 00
       -0.0001225 0.0
000290 00 00 00 00 00 00 00 00 00 00 00 00 00 00 00 00
       0.0 0.0
0002a0 00 00 00 00 00 00 00 00 00 00 00 00 00 00 00 00
       0.0 0.0
0002b0 00 00 00 00 00 00 00 00 00 00 00 00 00 00 00 00
       0.0 0.0
0002c0 83 0a 21 fa c8 c0 14 bf d0 c0 b5 00 5a e0 48 bf
       -7.916666666666666e-05 -0.0007591666666666667
0002d0 e8 a8 82 9b 90 f2 63 bf 84 62 e6 3e cf 6e 6a bf
       -0.0024349998821736503 -0.0032266662376055372
0002e0 bf 9c 4f 82 54 f6 9e bf 7a e1 2e be 5d 97 b7 bf
       -0.03023654980998169 -0.09215341466086172
0002f0 72 a2 b3 a7 cb 29 c5 bf c5 1a 33 db 81 2c d9 bf
       -0.16533799828109214 -0.3933415070172653
000300 3a 15 ef 0b aa 38 df bf 6f 55 b6 3b fb 66 ca bf
       -0.48783351102277417 -0.2062677423061063
000310 8f bb 77 dd 8c 8c 99 3f 3c 56 5f 46 32 42 c8 bf
       0.024950219170871753 -0.18952015339043438
000320 af 88 f7 78 05 b7 db bf 5b 5a e9 5e 36 2f c3 bf
       -0.4330457383458776 -0.1498783076701383
000330 74 83 25 22 91 c4 dc bf 1c 77 1b 80 b2 06 da bf
       -0.44949749312041054 -0.4066587687537877
000340 c5 f2 32 ee 6e 18 c8 bf e4 4c d8 c1 da 05 c2 bf
       -0.18824564581691142 -0.14080366578182357
000350 07 be 94 7b 88 2b ab bf cc 12 46 a6 5a 35 8f bf
       -0.053066506467413226 -0.015238483618995068
000360 f6 7c d2 14 ac 50 74 bf 00 00 00 00 00 00 00 00
       -0.004959747498247005 0.0
000370 00 00 00 00 00 00 00 00 00 00 00 00 00 00 00 00
       0.0 0.0
000380 00 00 00 00 00 00 00 00 00 00 00 00 00 00 00 00
       0.0 0.0
000390 00 00 00 00 00 00 00 00 62 32 55 30 2a a9 23 bf
       0.0 -0.00015000000000000001
0003a0 95 c5 2e d7 dd cd 81 bf 43 d3 84 93 bc d8 97 bf
       -0.00869344056067937 -0.02328772211440656
0003b0 d9 0f 44 c6 60 46 95 bf 60 5b ac 86 2a 44 a0 bf
       -0.020776283360660706 -0.03177006620369727
0003c0 70 e9 01 c7 de d4 b9 bf 13 cd 7f db 56 3e ce bf
       -0.10090439184742706 -0.23627744405494208
0003d0 ee 17 69 d6 53 5e d9 bf fe e8 23 66 6b 81 c8 bf
       -0.39638229311492423 -0.19144957053487838
0003e0 a2 68 a0 7b 77 aa c4 bf 12 10 fa d8 bb 46 d1 3f
       -0.16145223175482665 0.2699422472871912
0003f0 0b 5a f7 e6 60 c0 82 bf f8 4b 69 34 37 ca ab bf
       -0.009155995415238946 -0.05427715792452398
000400 0b d1 b2 02 c7 06 d4 bf c9 18 d9 08 4d 95 b2 bf
       -0.31291365874791727 -0.07259065118805376
000410 5f 22 2b 94 b1 be c1 3f 8e b1 87 d4 14 86 b5 bf
       0.13863200888433178 -0.08407716931077955
000420 66 96 e4 19 62 a7 aa bf f8 5e 7b 16 a9 af de bf
       -0.05205828252864535 -0.4794714660215358
000430 a2 15 68 f5 76 e1 db bf 63 10 ea c5 36 ed 6d 3f
       -0.435636272101272 0.0036531514918483484
000440 43 d9 9e 6f bc af a5 3f d1 32 2f 7f c1 a7 5a bf
       0.042356384873914375 -0.0016269101731609013
000450 00 00 00 00 00 00 00 00 00 00 00 00 00 00 00 00
       0.0 0.0
000460 00 00 00 00 00 00 00 00 00 00 00 00 00 00 00 00
       0.0 0.0
000470 69 08 b4 61 3a 9a 10 bf 02 f9 d9 6f c0 b9 4b bf
       -6.333333333333333e-05 -0.0008461179383656705
000480 fc 44 19 9f 5d 55 94 bf 24 12 9f 8f 2e 01 aa bf
       -0.01985689433633285 -0.05079026702108916
000490 9d 25 e1 f1 15 42 b4 bf 72 93 f6 60 b5 eb c1 bf
       -0.07913338809262034 -0.14000575289278633
0004a0 a9 1e fc fa 08 60 ca bf 9c cd e3 6a df ba d5 bf
       -0.20605575804824142 -0.33953080595457563
0004b0 0b f7 1c dd 59 2c db bf 3e b2 8a 10 74 74 d5 bf
       -0.4245819720562031 -0.335232750085911
0004c0 2e 3b 52 0d 68 9f d2 bf 86 7a 49 6b 13 22 b3 bf
       -0.2909793977823253 -0.07473870629608301
0004d0 83 e0 33 f9 16 73 ae bf c6 a3 c4 76 80 3d ab bf
       -0.05947181503319234 -0.05320359659010125
0004e0 94 73 c0 e3 0f e7 d8 3f 57 d7 97 18 36 1a 98 bf
       0.38910290948279536 -0.023537488223119265
0004f0 de 27 f4 d5 00 4a a3 3f 11 70 f8 55 84 fb c8 3f
       0.03767397510280522 0.19517568776871078
000500 f9 70 a2 1c 00 28 c8 bf 11 21 82 b6 5f ae d3 bf
       -0.18872071645899505 -0.3075179369266304
000510 a9 e9 40 21 26 f6 c7 bf 6a dc c8 4a b2 8b 9b bf
       -0.187199369656651 -0.02690008717965179
000520 b7 98 d9 4e 23 45 9f bf ec 63 a4 34 a5 45 a6 bf
       -0.030537177741643187 -0.04350010173420302
000530 ee e8 80 e5 41 8d 65 bf bc 79 aa 43 6e 86 1b bf
       -0.0026308333435994735 -0.000105
000540 00 00 00 00 00 00 00 00 00 00 00 00 00 00 00 00
       0.0 0.0
000550 69 08 b4 61 3a 9a 30 bf 7e 7e 22 88 dc 18 62 bf
       -0.00025333333333333333 -0.002209120489240323
000560 d5 eb ed ce 55 3d 98 bf c1 73 22 62 4f a4 af bf
       -0.023671475176779772 -0.0618004615109622
000570 32 ad 62 95 0f a3 bd bf ac 5b e4 aa cc 43 c6 bf
       -0.11576936146837083 -0.17394407600724315
000580 d0 e7 7d 00 75 12 d0 bf aa 11 aa 42 cd 3a d1 bf
       -0.2511265282442965 -0.26921397695721316
000590 a5 d1 b5 45 3b 31 ca 3f 2d 8e 5c e0 f8 9f b8 3f
       0.20462742713756402 0.0961909816510846
0005a0 e3 94 57 19 3c ea d1 3f 88 a5 49 10 c7 49 c8 3f
       0.2799215552789304 0.1897515134362886
0005b0 d6 9f 73 69 f4 1c ca 3f 07 56 fa 4f a3 ec b5 bf
       0.20400862835890504 -0.08564205839714854
0005c0 ef 19 c2 c2 8d 0d a9 3f be dd 7f ce 2b ca b8 3f
       0.0489315319292024 0.09683488646975655
0005d0 cf e2 f1 1a dc 3e d2 bf df 72 a7 7c f8 51 e0 3f
       -0.2850866568692653 0.5100061831140826
0005e0 33 8d 10 bb e4 b9 98 bf a2 5f ae 8b 1f b3 dc 3f
       -0.024146627347488802 0.44843281403290736
0005f0 a2 dc 84 73 64 dd bb 3f f9 01 6a 48 82 66 c9 bf
       0.1088469297436512 -0.19844082389683118
000600 cd a0 87 9a e9 2e d6 bf 8d 1f d1 aa 9f 8b db bf
       -0.3466133126335194 -0.43039695435845077
000610 d5 cc c8 7f 0c 28 c0 bf e7 18 17 b2 63 13 b7 bf
       -0.1262221931407114 -0.09013960931688168
000620 16 ac 5e 6b dc 88 04 bf 7e 6f d3 9f fd 48 41 bf
       -3.9166666666666665e-05 -0.0005275
000630 aa 8d c4 de 9e fa 5a bf 24 0b 96 d9 66 e6 76 bf
       -0.0016466666666666665 -0.005590821988678472
000640 c0 38 65 ef bb d7 a0 bf 80 24 41 cf d5 c0 b2 bf
       -0.032895920727797456 -0.07325493154452722
000650 a9 69 50 1f 27 e4 bf bf b0 00 d1 35 46 c6 c1 bf
       -0.12457508577828115 -0.13886335017924045
000660 89 1d af d5 69 5d d0 bf 2f 55 58 ab 55 cd 89 3f
       -0.25570150249083007 0.01259867600587458
000670 2b d0 4f e7 1d eb d5 3f 04 9d 5b f8 ed 92 b6 bf
       0.34247539128341725 -0.08817946732925824
000680 49 e7 39 a1 8e f9 c7 3f 08 54 e1 66 dc 70 c8 3f
       0.18730337974903424 0.19094424270102217
000690 5d e4 f7 11 d7 8e d4 3f 1f 54 68 91 52 8e cf 3f
       0.3212182689163166 0.24653083896615244
0006a0 2b 7c 0f 32 b4 77 bc 3f c0 cb c6 34 c7 c8 d1 3f
       0.1112015363901128 0.27787952569923036
0006b0 85 d5 62 1e c9 1c ca bf 13 84 d8 55 78 7e be 3f
       -0.20400346740431644 0.11911727996677283
0006c0 09 2b a7 23 6e be bb bf 9a 47 31 29 05 df c1 bf
       -0.10837448473391133 -0.13961853515007477
0006d0 28 58 a1 6c ac 95 cb bf 9f 8a 86 be 3b 71 c1 bf
       -0.21550517372333045 -0.13626810839658263
0006e0 69 df 75 7a 88 f8 d7 bf e9 84 d3 50 eb 37 d5 bf
       -0.3745442577269303 -0.33153803723514713
0006f0 f9 c1 96 7c ae f7 a6 bf f6 13 bb a3 ec 1a 4a bf
       -0.04485841055737078 -0.0007966666666666667
000700 ba 39 82 41 bf dc 24 bf e3 d7 22 7c 02 3b 41 bf
       -0.00015916666666666667 -0.0005258333333333333
000710 f3 d0 64 ec 71 cc 5f bf b4 c2 17 b4 c3 87 8b bf
       -0.0019408333333333333 -0.013442543920036833
000720 4e 4c e7 86 21 2d b4 bf 02 22 82 ae 5b 2b c2 bf
       -0.0788136438707607 -0.14194818516649838
000730 b7 b1 49 7b 69 57 c7 bf 9e 1d 9c a1 80 07 d8 bf
       -0.18235510368266514 -0.3754579141827551
000740 13 99 f6 9f 8d d2 d7 bf 77 d3 f4 2a af e3 c9 bf
       -0.3722261488095608 -0.20226087186315642
000750 c8 72 65 ef 0e 04 96 bf ba 0f 22 57 da 73 dd bf
       -0.02149985634001686 -0.4601960993679729
000760 c2 ea e3 4a 60 9b c8 bf 75 55 9d a0 db cf 7d bf
       -0.19224170357468578 -0.0072783068843212855
000770 9e 1e 01 dd 61 fe d1 3f 4c c0 72 b2 30 ca b7 3f
       0.2811512621160349 0.09292892796179436
000780 a3 41 15 42 2e ea aa 3f 39 fb 0f e5 22 00 c6 3f
       0.05256790692021986 0.1718791597813494
000790 26 78 14 cf 40 83 d1 3f 58 cc d5 67 0a 11 c4 3f
       0.27363605711605243 0.1567700392730298
0007a0 52 83 bc 8c 1e 1c a8 3f 49 ea 1e aa 34 a6 cc bf
       0.04708953350041746 -0.22382219607045986
0007b0 3b 16 67 86 11 20 c1 bf 20 7d a8 bf 13 f4 bb bf
       -0.13379115164404873 -0.10919307164339331
0007c0 5f 34 c2 33 c3 78 c8 bf 04 9f 3b e7 f8 0b cd bf
       -0.19118537928844412 -0.2269278649393912
0007d0 ee aa d8 35 2c 66 b0 bf 77 6d 1a 1e 90 20 a9 bf
       -0.06405903162582735 -0.04907656066390136
0007e0 e1 bc 25 26 95 16 fb be 8b f0 09 ec 44 5c 43 bf
       -2.5833333333333332e-05 -0.0005908333333333333
0007f0 1c 2b 6d b8 3c 01 6a bf ec aa 81 69 3b 06 97 bf
       -0.0031744180627461104 -0.022484710993391596
