Multiclass_weights6k 10I/class3weights.npy (npy, 6400 bytes, 1 tensors)

array f8 [1, 784]
00000000: 0000 0000 0000 0000 0000 0000 0000 0000
00000010: 0000 0000 0000 0000 0000 0000 0000 0000
00000020: 0000 0000 0000 0000 0000 0000 0000 0000
00000030: 0000 0000 0000 0000 0000 0000 0000 0000
00000040: 0000 0000 0000 0000 0000 0000 0000 0000
00000050: 0000 0000 0000 0000 0000 0000 0000 0000
00000060: 0000 0000 0000 0000 0000 0000 0000 0000
00000070: 0000 0000 0000 0000 0000 0000 0000 0000
00000080: 0000 0000 0000 0000 0000 0000 0000 0000
00000090: 0000 0000 0000 0000 0000 0000 0000 0000
000000a0: 0000 0000 0000 0000 0000 0000 0000 0000
000000b0: 0000 0000 0000 0000 0000 0000 0000 0000
000000c0: 0000 0000 0000 0000 0000 0000 0000 0000
000000d0: 0000 0000 0000 0000 0000 0000 0000 0000
000000e0: 0000 0000 0000 0000 0000 0000 0000 0000
000000f0: 0000 0000 0000 0000 0000 0000 0000 0000
00000100: 0000 0000 0000 0000 0000 0000 0000 0000
00000110: 0000 0000 0000 0000 809f 71e1 4048 16bf
00000120: 7f7f 5d60 69f3 32bf b7ee e6a9 0eb9 39bf
00000130: 908b 5746 10d4 36bf ba49 0c02 2b87 46bf
00000140: e2dc 39a7 6c6b 3ebf 43c5 387f 130a 41bf
00000150: c004 6edd cd53 3dbf d9c6 b273 add0 4abf
00000160: 6e9b bcdb cf3c 53bf ee1d 48f1 04d5 49bf
00000170: 9ccc 6590 a83d 42bf ad1a bf93 d2c6 3bbf
00000180: 134a 0856 a95f 48bf 0146 c1b1 e2c9 34bf
00000190: 8e60 d02f 3705 1fbf 0000 0000 0000 0000
000001a0: 0000 0000 0000 0000 0000 0000 0000 0000
000001b0: 0000 0000 0000 0000 0000 0000 0000 0000
000001c0: 0000 0000 0000 0000 0000 0000 0000 0000
000001d0: 0000 0000 0000 0000 0000 0000 0000 0000
000001e0: 78c9 12b0 3057 09bf ff29 42d7 abb5 edbe
000001f0: 809f 71e1 4048 06bf 5a5c f6fe 19b8 26bf
00000200: 6c68 f0e4 c098 4abf 3abc 0d57 f474 5bbf
00000210: 008c cb5e 00ce 70bf 9a04 97b0 bc0c 9ebf
00000220: 307f 1d86 bc33 acbf 79e8 e8d8 354d adbf
00000230: bc1c 1c1c 7754 afbf 9bef f770 2a75 b9bf
00000240: 4f58 a493 13b9 c7bf 36b9 08d0 c1d1 b8bf
00000250: fef1 7dfc 527c 94bf d7fb 866f 1351 8cbf
00000260: 6d29 b7a0 fc56 79bf 9d29 8163 0b46 64bf
00000270: cb35 f266 fa12 47bf 29d8 6cd2 5abe 2bbf
00000280: 56f1 46e6 913f 18bf 0000 0000 0000 0000
00000290: 0000 0000 0000 0000 0000 0000 0000 0000
000002a0: 0000 0000 0000 0000 0000 0000 0000 0000
000002b0: 0000 0000 0000 0000 0000 0000 0000 0000
000002c0: ff29 42d7 abb5 edbe faf8 3b96 ce10 b6bf
000002d0: ae88 ef4c 7fbc bebf fbf5 6b79 7eae d2bf
000002e0: 6105 7098 a296 dabf eeb0 a37f 8c66 e2bf
000002f0: 15f8 3f00 0af1 d3bf a2ac 16dc 212b ebbf
00000300: c628 ef2c 45a2 d33f 5db5 03c7 4f80 f43f
00000310: aa75 3f3b 222e e2bf 9ea8 b443 4ef1 c23f
00000320: 22f7 292a 2b0f e63f 0a1a 6ca4 068a d03f
00000330: 9db9 205b 03b3 d1bf 28b9 91c8 a34d d3bf
00000340: 7138 6d32 667d c0bf 4892 5fc5 64af da3f
00000350: 29b0 8700 6096 acbf a770 8fa6 6a6a 78bf
00000360: 31ce df84 4204 3cbf 0000 0000 0000 0000
00000370: 0000 0000 0000 0000 0000 0000 0000 0000
00000380: 0000 0000 0000 0000 0000 0000 0000 0000
00000390: 0000 0000 0000 0000 42fc d733 53d1 783f
000003a0: 623a 5317 8aad ad3f 928a 4c14 aaf8 d1bf
000003b0: ca90 3b54 818b 993f c69c 3a56 9e6c c1bf
000003c0: 9e2c 0064 02b8 ea3f a35a 760d 8238 e6bf
000003d0: dd72 e118 2656 f23f dc8c 0055 f2be f3bf
000003e0: 541a 0bad 92be dabf 5200 a0e9 f06f df3f
000003f0: af49 a5dc 944f dabf bff0 3c9f 234e b33f
00000400: 6072 5c3a 0210 c4bf e644 0d93 e13c ddbf
00000410: 7c0f 55b6 86ed e2bf adc2 214c 46fe e33f
00000420: f46c 4b89 abff efbf 9c81 beda 11eb c2bf
00000430: eec4 4f97 3936 e6bf c7a4 96aa e16a d7bf
00000440: be10 c431 fa25 95bf 461f da44 8d1e 51bf
00000450: 0000 0000 0000 0000 0000 0000 0000 0000
00000460: 0000 0000 0000 0000 0000 0000 0000 0000
00000470: 9847 85db ae7c 43bf 3d38 bd78 d373 d03f
00000480: a1c3 ceae 72a0 d4bf 5bb3 8ee9 5c9a e33f
00000490: 5169 3daa 0de3 cbbf d685 dfab 6ff5 ca3f
000004a0: db23 f6fb ceb1 cfbf b398 3475 9dca e2bf
000004b0: 9b73 b682 a46c e1bf 7e67 f14c a850 e43f
000004c0: 8bbc 2536 61b7 c53f 7351 6faa 0616 d6bf
000004d0: dcc3 4cbf 3ff2 eabf 39c5 5554 49ef d23f
000004e0: e826 241d 706b dd3f e4c4 98a0 7352 62bf
000004f0: 08ff dc14 d001 c2bf ac43 5978 5dc3 e7bf
00000500: 5a1e dcbd eea1 fdbf 325a ba9e b3aa d1bf
00000510: 5d95 d292 2309 f2bf 1f9c 357e b527 dd3f
00000520: f24f 5b98 b9fa e3bf 3bf3 bee1 7007 81bf
00000530: c890 00a5 a3ab 50bf 691d 554d 1075 efbe
00000540: 0000 0000 0000 0000 0000 0000 0000 0000
00000550: ae7a 7ba5 fb5c 95bf 8914 556e e3d6 d63f
00000560: d91f ddab a2a1 cdbf 1821 bbce 99d9 c43f
00000570: 52de 3284 e7ee db3f 9e04 f9e0 ee15 e23f
00000580: baea 87b0 6f0f e6bf f5d0 9006 79f5 f23f
00000590: 36f7 5c38 030b d13f 7ce8 1ab0 1c27 d53f
000005a0: 3306 7a17 7dfb e3bf b26a 37e6 5388 ff3f
000005b0: 7654 62cb 4fdd e7bf 808e 21dc c5c5 c1bf
000005c0: 07d4 3c76 042c c5bf 1018 4326 2345 b43f
000005d0: 3190 aa0c 7fd6 e2bf a123 911b 32f4 e03f
000005e0: 5e90 00d7 131e f23f a3d4 8f0e db7a efbf
000005f0: 33d3 c4c2 e31b c23f 29b2 b71d 4520 ecbf
00000600: e946 ebc9 4ab2 f4bf a001 91d3 2a25 c1bf
00000610: edeb c87e 0380 60bf 22fd f675 e09c 41bf
00000620: 2102 0ea1 4acd 1ebf ee5b 7c77 f9a1 cc3f
00000630: 60f5 7fb1 2278 edbf 67e8 9058 e417 ea3f
00000640: fa97 06ef f240 de3f da5a e5f5 45ee 01c0
00000650: 5948 f4cc 8564 ba3f 6676 4e05 871c d2bf
00000660: fe89 cb9f c928 9fbf b4a2 3663 8c4f 903f
00000670: 946a 1c42 b15e e1bf 5f99 d125 c523 eabf
00000680: 92a5 2d37 7d6d f83f f332 72a8 af3e 04c0
00000690: ed00 4832 38f2 fe3f 2b28 d1ee 62f5 e5bf
000006a0: 99de 87fa b8a6 d0bf 269a a7ee ecef e33f
000006b0: 7695 5756 06b1 e13f f278 2edc a6b5 eebf
000006c0: 6e84 c3ce b459 ed3f 35c5 feb7 4dd5 f6bf
000006d0: 4277 0cdb e571 db3f 6900 210d b831 f6bf
000006e0: 93bf a64d 4cd8 f7bf 4652 6a78 b174 e1bf
000006f0: a1a6 d039 1c19 73bf 0155 c9ed 8484 35bf
00000700: 9756 43e2 1e4b 3fbf 492e 1840 07e2 d3bf
00000710: 8aa1 8bbf b056 e8bf 0ca0 8734 1cd8 dd3f
00000720: 979f 6d0e 4276 0240 9aac a05b f039 e5bf
00000730: 65db 2d51 2ce6 f83f 6bb0 8914 3216 b5bf
00000740: 014d 9358 5243 dfbf 3222 9418 8d52 ecbf
00000750: 80b9 53f4 7d4e e23f c44b 64de 51fd e4bf
00000760: 3445 6d99 d7c8 cd3f f7db 53d8 e954 f33f
00000770: c50d a432 a661 f3bf 65b1 5091 73d8 aa3f
00000780: 6477 7ec9 a6a0 e13f d62c a106 8981 c1bf
00000790: 30c4 721a 638d b6bf 1d3b ab20 9a55 df3f
000007a0: 74c5 111e c860 c0bf 50eb 7801 0fd5 f5bf
000007b0: e9af a448 a6b8 c73f ef1a 8d25 bb2b cc3f
000007c0: 47aa de3c f22e 08c0 9319 305f e275 d6bf
000007d0: 93a5 8b9a 27a2 70bf d786 8a71 fe26 34bf
000007e0: a94d 9cdc ef50 14bf 5b19 ea65 5291 c7bf
000007f0: 6815 72a8 9e42 d6bf e52e 5975 e9ef c93f
0.0 0.0 0.0 0.0 0.0 0.0 0.0 0.0
0.0 0.0 0.0 0.0 0.0 0.0 0.0 0.0
0.0 0.0 0.0 0.0 0.0 0.0 0.0 0.0
0.0 0.0 0.0 0.0 0.0 0.0 0.0 0.0
0.0 0.0 0.0 -8.5e-05 -0.0002891666666666667 -0.0003925 -0.0003483333333333333 -0.0006875
-0.00046416666666666666 -0.00052 -0.0004475 -0.0008183333333333333 -0.0011741666666666667 -0.0007883333333333334 -0.0005566666666666667 -0.00042383805316285433
-0.0007438256107568673 -0.00031720909624252674 -0.00011833333333333333 0.0 0.0 0.0 0.0 0.0
0.0 0.0 0.0 0.0 -4.8333333333333334e-05 -1.4166666666666666e-05 -4.25e-05 -0.00017333333333333334
-0.0008116666666666667 -0.0016758333333333334 -0.004102708288630019 -0.029345463064377776 -0.055082217570769365 -0.05722969315361665 -0.061191293889402115 -0.0994440580179216
-0.18533558568077743 -0.09695063904721199 -0.020005509053122587 -0.01382651504616021 -0.0061864727280841305 -0.0024748060641616846 -0.0007041666666666666 -0.00021166666666666667
-9.25e-05 0.0 0.0 0.0 0.0 0.0 0.0 0.0
-1.4166666666666666e-05 -0.08619395416096501 -0.12006374004662021 -0.29190027101125765 -0.41544403921587586 -0.5750181668240921 -0.31158685707475914 -0.8490151690106311
0.30677918804270765 1.2813260816577305 -0.5681315571961723 0.1479890661806324 0.6893516372217372 0.2584244352041486 -0.27655109309389464 -0.30161375605429663
-0.12882688009489443 0.4169551780198941 -0.055834770264340534 -0.00596086178208225 -0.0004275 0.0 0.0 0.0
0.0 0.0 0.0 0.006059002885648703 0.05796462568979589 -0.28080226881335435 0.024946232572703043 -0.13612727365873506
0.8349620774400994 -0.6943979514060924 1.1460324260617007 -1.2341178245922526 -0.41788164995924615 0.4912073403829754 -0.41110726878573706 0.07541105878493946
-0.15673854684509347 -0.45684089050798915 -0.5914948998620129 0.6247893797827452 -0.9999597245727316 -0.1477987592779869 -0.6941192584328328 -0.365898529615674
-0.020652684485882082 -0.001044881780588329 0.0 0.0 0.0 0.0 -0.0005946973606489768 0.25706946173602657
-0.32229296752034925 0.612593132178158 -0.21786661922926467 0.21061511890643086 -0.24761378577048174 -0.5872332848710101 -0.5445120385153247 0.6348458769600567
0.16965880531231323 -0.3450943626787854 -0.8420714126897297 0.2958548854431516 0.45968249173948417 -0.002236581644659995 -0.14068032282556708 -0.7425982809601144
-1.8520343223953177 -0.2760438013150718 -1.1272311911828503 0.4555486423982433 -0.6243560767857146 -0.008314973725526911 -0.0010174844828805697 -1.5e-05
0.0 0.0 -0.02086251447223713 0.3568657472099593 -0.2314952220133353 0.16289064974103762 0.4364565649989106 0.5651773828505104
-0.6893843124265324 1.1849298721763806 0.2662971544667586 0.3305122108246292 -0.6244492968109568 1.9707831375914506 -0.7457655880304077 -0.13884804962718889
-0.16540580533333601 0.07917995151646573 -0.5886836287868445 0.5298090494553557 1.1323431395076322 -0.983747032586184 0.14147612581441535 -0.8789392071171892
-1.293528355356495 -0.13394675569908276 -0.002014166666666642 -0.0005375 -0.0001175 0.22369306883112422 -0.9209149805825909 0.8154165010266866
0.4727141699062255 -2.241344376623016 0.10309635404363017 -0.2829911758252365 -0.030429029825322466 0.015928453021532632 -0.5428091326933377 -0.8168664683005707
1.526730742969765 -2.5306084785319114 1.9341356243240242 -0.6862044014353662 -0.2601759382809888 0.6230377827858475 0.5528594671601883 -0.9596742916508261
0.9172004736284529 -1.4270760714828843 0.4288267745158586 -1.3871384156082291 -1.4903071435219075 -0.5454947807180097 -0.004662618882358111 -0.0003283333333333333
-0.0004775 -0.31067067393516773 -0.7605823269960166 0.46631531839239027 2.3077431800083548 -0.6633226194002362 1.5561946078357434 -0.08236992837345418
-0.48848398828450007 -0.8850770454456038 0.5720815441143685 -0.6559228271092867 0.23269171706719194 1.2082308244987396 -1.2113401392133352 0.052432643402741154
0.5508607802801007 -0.13676560233793705 -0.08809489627562139 0.48959973516768845 -0.12795354336007458 -1.3645162637246422 0.1853225569442423 0.2200845654826575
-3.022922969384385 -0.35094508453075796 -0.004060892774512398 -0.0003075 -7.75e-05 -0.18412237144748186 -0.34781614732522437 0.2026340315809342
