Multiclass_weights6k 10I/class5weights.npy (npy, 6400 bytes, 1 tensors)

array f8 [1, 784]
00000000: 0000 0000 0000 0000 0000 0000 0000 0000
00000010: 0000 0000 0000 0000 0000 0000 0000 0000
00000020: 0000 0000 0000 0000 0000 0000 0000 0000
00000030: 0000 0000 0000 0000 0000 0000 0000 0000
00000040: 0000 0000 0000 0000 0000 0000 0000 0000
00000050: 0000 0000 0000 0000 0000 0000 0000 0000
00000060: 0000 0000 0000 0000 0000 0000 0000 0000
00000070: 0000 0000 0000 0000 0000 0000 0000 0000
00000080: 0000 0000 0000 0000 0000 0000 0000 0000
00000090: 0000 0000 0000 0000 0000 0000 0000 0000
000000a0: 0000 0000 0000 0000 0000 0000 0000 0000
000000b0: 0000 0000 0000 0000 0000 0000 0000 0000
000000c0: 0000 0000 0000 0000 0000 0000 0000 0000
000000d0: 0000 0000 0000 0000 0000 0000 0000 0000
000000e0: 0000 0000 0000 0000 0000 0000 0000 0000
000000f0: 0000 0000 0000 0000 0000 0000 0000 0000
00000100: 0000 0000 0000 0000 0000 0000 0000 0000
00000110: 0000 0000 0000 0000 809f 71e1 4048 16bf
00000120: 7f7f 5d60 69f3 32bf b7ee e6a9 0eb9 39bf
00000130: 908b 5746 10d4 36bf ba49 0c02 2b87 46bf
00000140: a4b3 a29d ba4e a3bf bd25 9811 b655 b7bf
00000150: 89e7 dec8 f741 85bf d9c6 b273 add0 4abf
00000160: 6e9b bcdb cf3c 53bf ee1d 48f1 04d5 49bf
00000170: 9ccc 6590 a83d 42bf c22f f5f3 a622 35bf
00000180: d43b efd9 4d03 39bf 3659 a31e a2d1 2dbf
00000190: 8e60 d02f 3705 1fbf 0000 0000 0000 0000
000001a0: 0000 0000 0000 0000 0000 0000 0000 0000
000001b0: 0000 0000 0000 0000 0000 0000 0000 0000
000001c0: 0000 0000 0000 0000 0000 0000 0000 0000
000001d0: 0000 0000 0000 0000 0000 0000 0000 0000
000001e0: 78c9 12b0 3057 09bf ff29 42d7 abb5 edbe
000001f0: 809f 71e1 4048 06bf 5a5c f6fe 19b8 26bf
00000200: 5264 7702 6d0d 75bf 6b17 983d 9f03 b3bf
00000210: 1926 1365 d574 c6bf ef6a c773 5591 cbbf
00000220: 9d71 bf02 7e09 debf 1f14 0838 afae e1bf
00000230: f2a1 9908 bcca f1bf 1205 4b3b 081c f1bf
00000240: d9c8 fc87 121d e5bf 5c76 ddbd cdcc e8bf
00000250: ce3f 8cc5 fd12 dfbf b81f e2a9 5ad4 adbf
00000260: 3a6a f9e0 a806 d6bf d6f2 2b7c e6db e2bf
00000270: 7b51 21dd dc9c d4bf 29d8 6cd2 5abe 2bbf
00000280: 56f1 46e6 913f 18bf 0000 0000 0000 0000
00000290: 0000 0000 0000 0000 0000 0000 0000 0000
000002a0: 0000 0000 0000 0000 0000 0000 0000 0000
000002b0: 0000 0000 0000 0000 0000 0000 0000 0000
000002c0: ff29 42d7 abb5 edbe ca15 dee5 22be 43bf
000002d0: 22fd f675 e09c 61bf ab6f 5985 48ae 69bf
000002e0: 8b53 cd88 9560 abbf e213 4aed 2759 d5bf
000002f0: d77a 5a27 2480 e7bf be92 0a36 c668 e1bf
00000300: 0bd1 17bd 0880 f23f 258f 6c1f 86ce e03f
00000310: 2d07 6d03 6672 893f c971 9c82 fdcd e6bf
00000320: d678 15a4 d1ba df3f 60fb 9c25 94f5 f0bf
00000330: 301a 5de2 9931 e7bf 6407 3c2f 27b6 e23f
00000340: 0e53 dbee e3ea edbf 71c9 6ba1 b069 96bf
00000350: d327 98df a109 d83f e93a 306f ce17 d03f
00000360: c3df 3654 7c8d cf3f 0000 0000 0000 0000
00000370: 0000 0000 0000 0000 0000 0000 0000 0000
00000380: 0000 0000 0000 0000 0000 0000 0000 0000
00000390: 0000 0000 0000 0000 c269 a820 daeb 20bf
000003a0: 01a0 69e9 8999 74bf e380 56c7 f2c6 b1bf
000003b0: 7f1b 44f3 e112 d8bf e04a cfbc 1a95 e6bf
000003c0: a839 255c b32a e63f 07b7 07e5 be0a b8bf
000003d0: e77e 444d 6935 cebf d7be 908b 92d5 c23f
000003e0: 40d4 cc97 4490 b13f a73a 6208 b139 cfbf
000003f0: 40ea 33a8 19d6 e13f 6306 fea4 fedb c53f
00000400: b8c5 e704 d0ea e5bf e8ea 04fa 80f7 e23f
00000410: 377a b374 dfce dfbf b54c 3c52 9ba4 d13f
00000420: 0a42 d71b eb33 de3f 101c 878b f61f d7bf
00000430: 07a0 27be 7505 e63f 81a6 a3b4 e1be f0bf
00000440: 24d4 e9db eb30 f03f 7e85 f919 e153 f53f
00000450: 0000 0000 0000 0000 0000 0000 0000 0000
00000460: 0000 0000 0000 0000 0000 0000 0000 0000
00000470: 6908 b461 3a9a 10bf 1298 a6e8 b234 bbbf
00000480: ba2a e043 0c3c e0bf cfb3 3ae9 66f7 ebbf
00000490: cf3e 74c2 ed61 f3bf d142 60b0 8419 f4bf
000004a0: 0048 38a1 9cdd f23f 8b93 fa50 883f dabf
000004b0: 3063 11cf 4bdb e9bf d929 09ab 3349 e5bf
000004c0: c84d d99d d859 e4bf 6edc 9273 b294 c53f
000004d0: b2d4 eddf 6cdc e73f add2 4e91 49fe f0bf
000004e0: c26a 663c 1f5e bf3f 6d3c c4e4 b66d b1bf
000004f0: 0970 98c6 7d5e e43f e8d2 f2ce c52d cbbf
00000500: eeaf 0550 4f34 e03f a305 b227 2462 dabf
00000510: 3aba c11e 16e2 f23f 3f71 a2fb 44e5 aa3f
00000520: 20f2 2763 c74f df3f 9403 09d0 d2c9 f73f
00000530: 4869 6a90 e25f d13f d7d6 67ac ff0c 603f
00000540: 0000 0000 0000 0000 0000 0000 0000 0000
00000550: 809f 71e1 4048 16bf ad9d 7a98 7a6b ccbf
00000560: 7b4f d16e 5c37 ecbf 4bfd b642 284e eebf
00000570: 2256 9f74 8361 cebf 3778 f27a ccc3 e0bf
00000580: 1941 ac94 0eda e53f e6cc 78e8 e3bc d63f
00000590: 294f 3ded ae4d c03f ad4a 2e6a 542f c5bf
000005a0: 189c 2273 b18c f73f 6490 6c9e 9476 f7bf
000005b0: 794d 21fd 088b e23f 22d1 9235 0731 cc3f
000005c0: a0ec cc6e 33d2 aa3f 2bed 3bdc f300 ebbf
000005d0: 1c02 79bb 10c3 ca3f d238 a052 6125 e23f
000005e0: cd80 5791 340d c0bf 8348 4003 3432 d43f
000005f0: 8b67 8f12 a42b debf 1d5a a664 8e6d d3bf
00000600: 490c 2037 cf3b f03f 3ea6 7234 aa1d e93f
00000610: dea8 50ba 040c e63f b824 5b06 0612 b1bf
00000620: 16ac 5e6b dc88 04bf 81f6 f9e3 ab86 b0bf
00000630: 1121 9bd1 7cbb 42bf 0a8f 4c4d 87a2 c6bf
00000640: 400d 7f9d f643 f4bf da35 c123 8ae0 d7bf
00000650: c732 9865 63f5 dc3f 1dfc baae d00c fabf
00000660: 9a5e 0464 ef65 e53f fb87 5706 8985 dcbf
00000670: 0ed3 d04f c0a8 d63f a2fd 83d8 5f06 dbbf
00000680: 3156 5413 869d d03f 1b78 b2ca 8977 d9bf
00000690: af68 23e2 ea58 e33f fede 75b2 7dcb dbbf
000006a0: 0e22 38b0 0043 be3f bc13 d41c d968 b3bf
000006b0: db9a 026f fd9f e4bf ebae afdb 4f05 973f
000006c0: f455 bb8b 1429 da3f 660d f6f1 65c9 b1bf
000006d0: b46f c90c 41b7 c3bf cfca bcfb 00e3 f73f
000006e0: b77a 0265 589a d83f 9bf4 03c9 3a5d f93f
000006f0: 7cac cfab 1897 e5bf ba6b 3fce b18c a5bf
00000700: ba39 8241 bfdc 24bf e3d7 227c 023b 41bf
00000710: 44ed 91e0 2034 55bf 3687 87f3 8e6f d7bf
00000720: 6f0c 3d32 a4ce f7bf 7b2e da72 5548 cbbf
00000730: 7aaa f639 ab44 e03f 33e9 ec79 2823 f1bf
00000740: 6d05 d25a d9a3 c7bf 152b 1bfd 3f1b ea3f
00000750: 36a3 a06c eac1 e0bf 0c8c 3294 a3f7 f03f
00000760: 450b e39b b780 d53f 0ae9 debc a0ea d23f
00000770: e7a7 5058 2c35 edbf 4b75 0437 9134 ce3f
00000780: 9d81 9f97 3883 dcbf c53d 275b d1f4 dd3f
00000790: a48e f6dc a362 d73f 97db 95ca 47af d2bf
000007a0: 9e49 8052 d3ec d63f 275d 5925 d59d f43f
000007b0: e914 c064 d1ed b93f 63df 6677 85c0 e83f
000007c0: f58e ff84 b0ef c23f e0d6 8e0e 1ba6 fd3f
000007d0: 0c49 e638 41de e3bf 68e6 f35b 48a9 b6bf
000007e0: e1bc 2526 9516 fbbe 8bf0 09ec 445c 43bf
000007f0: 002d 708c 775a 61bf 82b3 e6bd 2d21 cbbf
0.0 0.0 0.0 0.0 0.0 0.0 0.0 0.0
0.0 0.0 0.0 0.0 0.0 0.0 0.0 0.0
0.0 0.0 0.0 0.0 0.0 0.0 0.0 0.0
0.0 0.0 0.0 0.0 0.0 0.0 0.0 0.0
0.0 0.0 0.0 -8.5e-05 -0.0002891666666666667 -0.0003925 -0.0003483333333333333 -0.0006875
-0.037710029356595315 -0.09115159921215983 -0.010379730050647644 -0.0008183333333333333 -0.0011741666666666667 -0.0007883333333333334 -0.0005566666666666667 -0.0003225
-0.00038166666666666666 -0.0002275 -0.00011833333333333333 0.0 0.0 0.0 0.0 0.0
0.0 0.0 0.0 0.0 -4.8333333333333334e-05 -1.4166666666666666e-05 -4.25e-05 -0.00017333333333333334
-0.0051397569836462865 -0.07427401784670244 -0.17544047770779583 -0.21537273553152356 -0.46932935970633044 -0.5525737852445934 -1.1119957290594553 -1.0693437877783407
-0.6597988754276926 -0.7750004490187155 -0.48553413669378365 -0.058260758626658526 -0.34415647478241207 -0.5893433022716532 -0.32207414240590254 -0.00021166666666666667
-9.25e-05 0.0 0.0 0.0 0.0 0.0 0.0 0.0
-1.4166666666666666e-05 -0.0006025 -0.00215 -0.003134862558722381 -0.053471253346891144 -0.33356664822377813 -0.7343922394391836 -0.5440398269170925
1.1562583338209744 0.5252104390860707 0.012425229053068055 -0.7126452971456781 0.4957775213605492 -1.059955737043957 -0.7248048230329172 0.5847354815052594
-0.9349231400652529 -0.02188755021320205 0.3755879100359582 0.25145302637331085 0.24650529968289278 0.0 0.0 0.0
0.0 0.0 0.0 -0.0001290992516523437 -0.005029238431781381 -0.06944196097038317 -0.3761525035519568 -0.7057012260141526
0.6927124786105212 -0.09391396609836643 -0.23600498459653993 0.14714271368710882 0.0686076040845629 -0.2439481059013435 0.5573852811060718 0.1707762055994407
-0.6849136443908526 0.5927128680408176 -0.4970015182169933 0.27567179709258066 0.4719188472636523 -0.3613258707595728 0.6881664957008987 -1.046601968404872
1.0119436827055859 1.332978345359464 0.0 0.0 0.0 0.0 -6.333333333333333e-05 -0.10627287082624573
-0.5073300672241523 -0.8739504390010725 -1.2114083858358986 -1.25623005768664 1.1791044519090974 -0.4101277151879052 -0.8080195469184215 -0.6651857700865619
-0.6359675486550538 0.16860037463422678 0.7456573842634013 -1.0620818782892159 0.1225299379788494 -0.06808035931702401 0.6365345839326447 -0.2123343716135857
0.50638547543849 -0.4122400653505684 1.1801968766627753 0.05253043719969463 0.4892443149872481 1.486773312222998 0.2714773569401996 0.001959323274827489
0.0 0.0 -8.5e-05 -0.22202999539625293 -0.8817579426199552 -0.9470406821273313 -0.2373508758015968 -0.5239012147246801
0.6828682807700118 0.3552789468987626 0.12737070640525275 -0.16550688919649784 1.4718489167660262 -1.4664503277245098 0.5794720596262969 0.2202462207402585
0.05238495566887846 -0.8438662816473984 0.20907792238178124 0.5670630086695161 -0.12540299507873556 0.3155641586064421 -0.4714136296512314 -0.30356178120692495
1.0146019128158221 0.7848711990711263 0.6889670981375067 -0.06668126731087198 -3.9166666666666665e-05 -0.06455492320852764 -0.0005716666666666666 -0.17683497690551803
-1.2665926124762592 -0.3730798100631013 0.45247731133785546 -1.6281287026793116 0.668693251939618 -0.4456503450329589 0.35404975695136975 -0.42226406234837033
0.2596144856227936 -0.397921035715514 0.6046041886104571 -0.4342951052453684 0.11820987989643347 -0.07581860498255727 -0.6445300262610901 0.02248120096548593
0.4087573399131934 -0.06947934300665323 -0.15402997135504182 1.4929208596701533 0.3844204889700608 1.5852611400762615 -0.6746943813026429 -0.04208903925583436
-0.00015916666666666667 -0.0005258333333333333 -0.0012941666666666666 -0.36618398458641666 -1.4879495584907791 -0.21314495189686852 0.508382428369557 -1.0710835230552902
-0.1846877759417497 0.8158264106253649 -0.5236713525419876 1.060458735367095 0.335981275780956 0.29557054943474326 -0.9127408718970828 0.23597922502896504
-0.445509098119169 0.4680674925011455 0.3653955133288298 -0.2919482687352057 0.358204680030349 1.2885333498905511 0.10128506383633219 0.7735011417453105
0.14793974393898393 1.8530531471891933 -0.6208807097739579 -0.08852054829540068 -2.5833333333333332e-05 -0.0005908333333333333 -0.002118333333333333 -0.21195003292578113
