Multiclass_weights6k 10I/class6weights.npy (npy, 6400 bytes, 1 tensors)

array f8 [1, 784]
00000000: 0000 0000 0000 0000 0000 0000 0000 0000
00000010: 0000 0000 0000 0000 0000 0000 0000 0000
00000020: 0000 0000 0000 0000 0000 0000 0000 0000
00000030: 0000 0000 0000 0000 0000 0000 0000 0000
00000040: 0000 0000 0000 0000 0000 0000 0000 0000
00000050: 0000 0000 0000 0000 0000 0000 0000 0000
00000060: 0000 0000 0000 0000 0000 0000 0000 0000
00000070: 0000 0000 0000 0000 0000 0000 0000 0000
00000080: 0000 0000 0000 0000 0000 0000 0000 0000
00000090: 0000 0000 0000 0000 0000 0000 0000 0000
000000a0: 0000 0000 0000 0000 0000 0000 0000 0000
000000b0: 0000 0000 0000 0000 0000 0000 0000 0000
000000c0: 0000 0000 0000 0000 0000 0000 0000 0000
000000d0: 0000 0000 0000 0000 0000 0000 0000 0000
000000e0: 0000 0000 0000 0000 0000 0000 0000 0000
000000f0: 0000 0000 0000 0000 0000 0000 0000 0000
00000100: 0000 0000 0000 0000 0000 0000 0000 0000
00000110: 0000 0000 0000 0000 dedf c3bd da5f 703f
00000120: 527d db77 cab1 ae3f 114b 287c 1a45 c03f
00000130: e165 cdce 883c b63f af98 78cf de0f 933f
00000140: 2467 b4b3 d5d2 893f 3475 6ec3 153d 8d3f
00000150: 52a1 4498 93c9 883f d09e aa4f c9d7 823f
00000160: 621d 2461 7789 b1bf 459f 8ed0 bfb1 773f
00000170: a36b 1a5a 02fb 943f 8363 49b8 4ec8 893f
00000180: a652 c38c 5cd2 933f b110 fbdc c0e2 7f3f
00000190: 67c5 5daa bf4b 663f 0000 0000 0000 0000
000001a0: 0000 0000 0000 0000 0000 0000 0000 0000
000001b0: 0000 0000 0000 0000 0000 0000 0000 0000
000001c0: 0000 0000 0000 0000 0000 0000 0000 0000
000001d0: 0000 0000 0000 0000 0000 0000 0000 0000
000001e0: ce80 8dfe aa36 523f 40ba c5e9 1190 3c3f
000001f0: 7446 94f6 065f 583f a311 7a6c 0a94 8d3f
00000200: f800 aeb4 5715 c23f 53d5 ab9a 7418 e23f
00000210: fd9e b363 d92d c93f ff20 ea12 e425 c33f
00000220: 1615 a0f7 51e1 b13f 458a c615 dc86 c3bf
00000230: 3403 fc61 963f bbbf 3eea 7c39 c5c4 b93f
00000240: 2432 c127 c671 c4bf 39a7 24c7 240b cf3f
00000250: 2c8b b7e6 081b de3f d14f 81b9 86c9 d63f
00000260: a749 ed5f 7391 c53f 3a15 667c 978f bb3f
00000270: 0089 cf68 e94d aa3f 3938 2077 5a30 27bf
00000280: 5f0a 6713 00e3 29bf 0000 0000 0000 0000
00000290: 0000 0000 0000 0000 0000 0000 0000 0000
000002a0: 0000 0000 0000 0000 0000 0000 0000 0000
000002b0: 0000 0000 0000 0000 0000 0000 0000 0000
000002c0: 5e9d e493 288e 363f 99c7 bc7e 69fb a1bf
000002d0: ee04 3fc1 f499 c9bf a6cb 93c0 b7e8 c7bf
000002e0: 6441 de1e e6be c23f f7b0 4b58 716e bc3f
000002f0: 0521 9daa 7135 b9bf 2974 6d57 30e4 d2bf
00000300: b9be 8b2a f1d8 c2bf 51f0 4dff fbf4 d63f
00000310: 8d60 18bf 4b80 b63f c6e4 f7d1 05b1 5fbf
00000320: 6fa1 1a3d 6727 83bf dbaf 99ee ddea 8b3f
00000330: 4de1 96bb 7a29 ca3f 2246 360d 5f90 d23f
00000340: 2202 31e2 8d7d c23f af5e 4222 5c5d cdbf
00000350: 7465 daff b050 e1bf 6359 1e1a aff2 ddbf
00000360: 78c3 20ef 2c2d d6bf 0000 0000 0000 0000
00000370: 0000 0000 0000 0000 0000 0000 0000 0000
00000380: 0000 0000 0000 0000 0000 0000 0000 0000
00000390: 0000 0000 0000 0000 2d43 1ceb e236 0abf
000003a0: 7ae8 9664 0c03 50bf ce68 05bf d76d bbbf
000003b0: 9641 4eeb 6029 c7bf 8c96 50bf 0438 c1bf
000003c0: 1e55 fec8 fb87 c13f f3d2 8b99 1240 b2bf
000003d0: 0d58 5890 413f b5bf 5a65 3635 9e8e d7bf
000003e0: c17b 1098 e8dc e2bf bca6 41e8 9f46 c4bf
000003f0: 695b 9a7c a108 bbbf 21f6 e194 0422 d0bf
00000400: 516d d3d5 700d b0bf 1db1 0287 86d1 c1bf
00000410: 487d 143f 8b4f e0bf 860a a39e 90f8 bdbf
00000420: 1f42 7eda 348a ca3f 31fa 3486 a505 b6bf
00000430: 338c a8a1 15f3 d0bf fde5 9293 453a d3bf
00000440: c52b c35d 6750 dabf 8697 cdf3 4440 b1bf
00000450: 0000 0000 0000 0000 0000 0000 0000 0000
00000460: 0000 0000 0000 0000 0000 0000 0000 0000
00000470: 6908 b461 3a9a 10bf c4c2 e59e 9b23 48bf
00000480: f02a df01 0c86 a83f 914e c316 26a9 b33f
00000490: 9e29 28e9 4801 b1bf f7a7 82bd aa9b b7bf
000004a0: 0801 7c73 db85 b23f e412 c311 10c3 b4bf
000004b0: aa8f 31a6 c501 d3bf 5d41 0e68 ffc4 cabf
000004c0: ff60 dcb8 3ee6 87bf c463 5e2d 1ca6 d3bf
000004d0: 3af4 f2d3 f5e6 cbbf 1eca 811e 2640 d4bf
000004e0: 54b9 c536 d01d debf 4ae2 2928 8272 cbbf
000004f0: 8ff4 6528 6e0a 613f 5de6 c6fe abf5 bb3f
00000500: b5e1 c27d a90c d63f 4d83 6009 97ed c93f
00000510: 3a29 9942 a0e8 bc3f 69a4 9d4d fb44 b5bf
00000520: 5127 d5ec b03c babf ed46 02e0 6e9d c23f
00000530: f40a 2384 458f b33f bc79 aa43 6e86 1bbf
00000540: 0000 0000 0000 0000 0000 0000 0000 0000
00000550: 26a7 c6a8 3ef0 5e3f 39c3 72b5 2634 9cbf
00000560: f2c5 1486 5108 afbf 7574 936c 8ee4 c0bf
00000570: 73de acb4 924e ae3f d334 dc4f 6005 c4bf
00000580: 9a09 aa34 769b a6bf f4d0 5dc2 e1e5 a43f
00000590: a29e bb83 2b51 c1bf 526e 758a 5c44 c03f
000005a0: d894 d7c5 f63c cfbf 382a 63f7 d1f7 b13f
000005b0: 70c8 3626 43c2 cfbf 373c aa1f 5934 c43f
000005c0: 7477 09d1 64c7 90bf be65 2a52 526a c93f
000005d0: 6306 8fd8 d219 ce3f 772b b801 52c0 c7bf
000005e0: 4d88 d198 2df4 dbbf 4088 68d5 251a dabf
000005f0: e7b0 583d acef a4bf ca63 9aa4 6c1e d33f
00000600: 314c 306c c20f bb3f 69ce 0248 900b b73f
00000610: dd5f 3d4c 6055 d33f 2bab 7aa0 d7eb d03f
00000620: 16ac 5e6b dc88 04bf b143 0f8f d796 34bf
00000630: 1121 9bd1 7cbb 42bf e328 2e89 21dc c3bf
00000640: 0518 9a7f a4a9 c1bf d81f 6be3 aa97 c0bf
00000650: 8c6b 0847 9e77 bebf 7cc0 3aef c42d d5bf
00000660: 5bed a363 c3d3 dbbf d113 a7ae 4c3e c9bf
00000670: 986d 7445 2ca0 b5bf 6c25 9e2e 1f26 a4bf
00000680: ae8e 93d9 8e04 d1bf 472e 6f8f 9bbf d8bf
00000690: ea6b 7699 ce50 d5bf 45b7 88fe befd d0bf
000006a0: c16e 4a7e e739 d6bf 356e d34b ee87 b9bf
000006b0: 0a64 013a a0a2 d0bf a1cc 5a63 27fa e1bf
000006c0: 52a6 4e75 b585 e0bf 2705 adcc bdef d3bf
000006d0: 5e2a 35ae a63a 78bf a310 5b87 6f8a b8bf
000006e0: c89e f112 6ae5 c63f 7aa4 7f4f 4288 cabf
000006f0: 8ae9 48c3 82f2 ca3f dc7b 2d65 4082 c63f
00000700: ba39 8241 bfdc 24bf e3d7 227c 023b 41bf
00000710: 44ed 91e0 2034 55bf 1f78 6455 7c26 b8bf
00000720: cb8e e89d a5cd 96bf 72c9 c51d 8125 9ebf
00000730: 33a4 82f4 3fc0 b2bf 1301 f80c dc2f d4bf
00000740: 4457 4a42 e93b 943f fe21 9fbe 128e d0bf
00000750: b1ae f018 1956 d0bf 892a 8b64 29b6 d4bf
00000760: d60c 8eab 4c03 c3bf c3a9 452b 2579 c93f
00000770: 56e1 ab8d a507 b63f 3618 0ac0 25a6 c1bf
00000780: e1a5 7ee9 e43b cebf a890 c548 fe2e d4bf
00000790: 89f2 c21b 9b33 e9bf 2204 4276 f1c8 dfbf
000007a0: e8bc ffa9 d4b1 adbf e06b 82dd a855 e2bf
000007b0: 29a0 89d1 815e d0bf 79f9 8fb3 9b22 debf
000007c0: bf11 17cf 5c9d c4bf 99cd 4564 f36d cdbf
000007d0: 0d58 c553 bfc2 9d3f 5343 8ea4 0f35 87bf
000007e0: e1bc 2526 9516 fbbe 6ef5 b534 2c33 52bf
000007f0: a458 607f d1f8 68bf de56 9b9c 666d b1bf
0.0 0.0 0.0 0.0 0.0 0.0 0.0 0.0
0.0 0.0 0.0 0.0 0.0 0.0 0.0 0.0
0.0 0.0 0.0 0.0 0.0 0.0 0.0 0.0
0.0 0.0 0.0 0.0 0.0 0.0 0.0 0.0
0.0 0.0 0.0 0.003997663934789812 0.059950186854389145 0.1271088701474459 0.0868611817253604 0.01861522809317567
0.012609166666652856 0.014276666666598638 0.012103226742127635 0.009200642341354565 -0.0685038196717094 0.00578474929435641 0.02048877406069106 0.012589087485297195
0.019357153026094885 0.007784608241937872 0.002721666666666667 0.0 0.0 0.0 0.0 0.0
0.0 0.0 0.0 0.0 0.0011116666666666666 0.0004358333333333332 0.0014875 0.014442521510553535
0.14127632448435867 0.5654852887079563 0.19671170585865375 0.14959383891642372 0.06984436317005235 -0.15255309165248057 -0.10643901722143029 0.10065872815622698
-0.15972210827966749 0.2425275776270668 0.47040007143930285 0.35605018726095944 0.16850130256586945 0.10765978610114227 0.051375669521592116 -0.0001769171172444921
-0.00019749999928649322 0.0 0.0 0.0 0.0 0.0 0.0 0.0
0.0003441666666667754 -0.03512124702537207 -0.2000108665070352 -0.1867894831007934 0.14645077235446557 0.11106022267967207 -0.09847174086928952 -0.2951775411400513
-0.1472455461257505 0.3587026589591505 0.08789513984118198 -0.001934295352724201 -0.009352499534842377 0.013631566852573876 0.2043908515895602 0.2900617245696556
0.14445661110404823 -0.2294116179734735 -0.541100024903399 -0.46793725538863934 -0.3465072951540189 0.0 0.0 0.0
0.0 0.0 0.0 -5e-05 -0.000977289297550614 -0.10714481748201196 -0.18095027436767158 -0.13452205030005293
0.1369623881734378 -0.07129017113386364 -0.08299646162080894 -0.36807971188098565 -0.5894663782126984 -0.15840529289862626 -0.10560044567169559 -0.2520762876446004
-0.0627050897632462 -0.13920671074209504 -0.5097099525482145 -0.11707404969187438 0.20734272640812976 -0.08602365995918927 -0.26483670031501844 -0.3004316273832897
-0.41115745693667477 -0.06738692238067587 0.0 0.0 0.0 0.0 -6.333333333333333e-05 -0.0007366666666666845
0.047897696712956406 0.07679975562796872 -0.06642585460955394 -0.09221903921812201 0.07235499925082334 -0.08110142167704343 -0.29698315839618294 -0.20913689213603961
-0.011669626251702868 -0.30701355391061846 -0.21798584794115233 -0.3164153383178546 -0.47056966160643765 -0.21443201981652954 0.0020801688689844953 0.10921740503445095
0.34452283173916537 0.20256317098485468 0.1129245913117857 -0.08308382649342295 -0.10248857290312442 0.14542947709974588 0.07640490032194319 -0.000105
0.0 0.0 0.0018883335024874686 -0.027542691063618483 -0.0606103397534631 -0.13197498609125416 0.059193214945875726 -0.15641406917021658
-0.04415482895730634 0.040816359497428595 -0.1352896111704825 0.12708622704200195 -0.2440479723001434 0.0701876858685545 -0.24811591497342844 0.15784753843442598
-0.01638562703953235 0.1985571767043392 0.2351630742469296 -0.18555665096240734 -0.43677844928436543 -0.4078459343019212 -0.040891058434086074 0.29873195719261203
0.10570922032665987 0.0900201965148938 0.3020859474686384 0.26439467117113463 -3.9166666666666665e-05 -0.00031416666666666664 -0.0005716666666666666 -0.15515536497361557
-0.13798958044588985 -0.12962852577606898 -0.11901272997094575 -0.3309185348725874 -0.43480000238897326 -0.19721373107873189 -0.08447529502557527 -0.03935334629120288
-0.2659031986970416 -0.3866948033071122 -0.3330570696504639 -0.2654874311145828 -0.3472841962154512 -0.09973039008348723 -0.2599258963069252 -0.5617863598366918
-0.516321877589869 -0.31150765407444897 -0.0059153090435964655 -0.09586236052115508 0.1788761703967252 -0.20728329545753238 0.21052584205046926 0.17584996166530587
-0.00015916666666666667 -0.0005258333333333333 -0.0012941666666666666 -0.09433724484230809 -0.02226885582253039 -0.02943994278161583 -0.07324599952211557 -0.31542111650925725
0.01975979296783882 -0.2586714612521347 -0.25525500712931676 -0.32361826723778414 -0.1485381925268487 0.19900955784699023 0.08605417927527034 -0.13788291813779247
-0.23620282555684383 -0.3153682432805547 -0.7875495474068696 -0.4966396002637926 -0.05799736571486297 -0.5729564977985966 -0.2557682558313013 -0.4708623174227778
-0.161052323454113 -0.2299179305660857 0.02906321476742595 -0.01133167477544964 -2.5833333333333332e-05 -0.0011108333299881495 -0.0030483333348555065 -0.06807557414444029
