Multiclass_weights6k 10I/class1weights.npy (npy, 6400 bytes, 1 tensors)

array f8 [1, 784]
0.0 0.0 0.0 0.0 0.0 0.0 0.0 0.0
0.0 0.0 0.0 0.0 0.0 0.0 0.0 0.0
0.0 0.0 0.0 0.0 0.0 0.0 0.0 0.0
0.0 0.0 0.0 0.0 0.0 0.0 0.0 0.0
0.0 0.0 0.0 -8.5e-05 -0.0002891666666666667 -0.0003925 -0.0003483333333333333 -0.0006875
-0.00046416666666666666 -0.00052 -0.0004475 -0.001505 -0.003214166666666667 -0.0010983333333333333 -0.0005566666666666667 -0.0003225
-0.00038166666666666666 -0.0002275 -0.00011833333333333333 0.0 0.0 0.0 0.0 0.0
0.0 0.0 0.0 0.0 -4.8333333333333334e-05 -1.4166666666666666e-05 -4.25e-05 -0.00017333333333333334
-0.0008116666666666667 -0.0017708333333333322 -0.00391113133952412 -0.009256964125809584 -0.029100143153004243 -0.030692123434858814 -0.03256866016920534 -0.02457669908946283
-0.138616902814958 -0.3809329868623939 -0.047082741824176724 -0.025773594428558394 -0.010867695349907294 -0.004464974682204498 -0.0013224916600205168 -0.0009750000000000513
-0.00040249999999999997 0.0 0.0 0.0 0.0 0.0 0.0 0.0
-1.4166666666666666e-05 -0.0007625000008299647 -0.0030300000019987915 -0.007213786239288788 -0.033255426814223596 -0.10162286235407583 -0.17133230916931266 -0.18118947789437725
-0.16285480485766055 -0.25476975495743515 -0.15118490867213918 0.05314816932155304 -0.2272748088958726 -0.3221034600420739 -0.12395636680573743 -0.11988305540661752
0.0027480884277522174 0.0502404604206749 -0.010869206602372172 -0.0030208333333294314 -0.0005408333333333333 0.0 0.0 0.0
0.0 0.0 0.0 -0.00025 -0.0007134194645080621 -0.017709968983647042 -0.040615503471526024 -0.002923859240808578
0.11565952962504844 -0.3305942805782946 -0.1922317669673935 -0.1265224244503174 -0.12380849719407629 -0.1973255309186095 -0.43554886397040793 0.2995024005513905
-0.16603304640340005 -0.5415728350029282 0.2415216057106933 0.035125993497668255 -0.19015877954268226 0.045118717949252686 -0.030761864853237664 0.05001354031705712
0.0006638740060033925 -0.0016025451733833102 0.0 0.0 0.0 0.0 0.0012033333333333332 -0.0003433333333333334
-0.006164166666666667 -0.07762512330237434 -0.06110424598607559 0.121457523168935 -0.1894507460809769 0.10417635178722746 -0.3091301333298859 -0.3343859695072689
-0.30756155854380934 -0.19470736699260846 -0.10111138773875966 0.04250830034902006 0.2866890183061807 -0.0972736227836244 -0.02337370738207899 0.10465003121023207
0.05821315288275302 -0.06169615906268072 0.010069099612515021 0.16650565479347762 -0.044596636791115744 -0.02123541705659178 -0.0031253963285343533 -1.5e-05
0.0 0.0 0.00023166666666666664 -0.001944166666666666 -0.010494166666666666 -0.19082247948950176 0.008837192726266298 -0.04211790852244086
-0.23842599972782597 0.02806235246964184 -0.038143825328802464 -0.20790864118316307 -0.3832688571370146 0.0049993138904102915 -0.32243270296996257 -0.13812875450287843
-0.3780147324280331 -0.07251896956725531 -0.03542560290460716 0.13470264353802952 -0.001681104664710798 -0.0011909106714076822 -0.009662585624725325 -0.15910872019413794
-0.18522762134452522 -0.07559333105593391 -0.0036460734909754926 -0.0010675 -3.9166666666666665e-05 -0.0007408333333333334 -0.0005716666666666666 -0.004036001457167886
-0.01677279165168253 -0.19274759851595863 -0.2540915168949708 0.07167845598090493 -0.1751832968710813 -0.17730383757090348 -0.31803484134888804 -0.31627823888803436
-0.009416292164038288 -0.17114997413361727 0.09954195696039068 -0.14997263731634444 -0.20514701741953034 -0.3066558435189107 0.06810190790556109 0.20426549725392767
0.03604526242824383 0.21929118588102997 -0.11798212835984873 -0.3362734812228718 -0.2100807454985064 -0.04566568320973377 -0.010017669677546448 -0.0006716666666666667
-0.00015916666666666667 -0.0005258333333333333 -0.0013574999999999998 -0.006042887877173893 -0.02818689222269357 -0.3560773165688211 -0.20405203438232636 -0.1254501467359015
0.032506481076933276 -0.2716670983509382 -0.07926906642316742 -0.06010844946589061 -0.1326995570404496 -0.11622400433828928 0.1888158002848258 -0.0725322448730396
-0.0720669003117465 -0.23114632778199126 0.14596467444543582 -0.2288604936804758 -0.0937822000576945 0.020688300617143482 -0.14279733296153632 -0.3113743562298699
-0.16426562816965812 -0.041593760509980156 -0.007473965873943316 -0.0003075 -2.5833333333333332e-05 -0.0036962611485405325 -0.002408333333333333 -0.008145843516547508
00000000: 0000 0000 0000 0000 0000 0000 0000 0000
00000010: 0000 0000 0000 0000 0000 0000 0000 0000
00000020: 0000 0000 0000 0000 0000 0000 0000 0000
00000030: 0000 0000 0000 0000 0000 0000 0000 0000
00000040: 0000 0000 0000 0000 0000 0000 0000 0000
00000050: 0000 0000 0000 0000 0000 0000 0000 0000
00000060: 0000 0000 0000 0000 0000 0000 0000 0000
00000070: 0000 0000 0000 0000 0000 0000 0000 0000
00000080: 0000 0000 0000 0000 0000 0000 0000 0000
00000090: 0000 0000 0000 0000 0000 0000 0000 0000
000000a0: 0000 0000 0000 0000 0000 0000 0000 0000
000000b0: 0000 0000 0000 0000 0000 0000 0000 0000
000000c0: 0000 0000 0000 0000 0000 0000 0000 0000
000000d0: 0000 0000 0000 0000 0000 0000 0000 0000
000000e0: 0000 0000 0000 0000 0000 0000 0000 0000
000000f0: 0000 0000 0000 0000 0000 0000 0000 0000
00000100: 0000 0000 0000 0000 0000 0000 0000 0000
00000110: 0000 0000 0000 0000 809f 71e1 4048 16bf
00000120: 7f7f 5d60 69f3 32bf b7ee e6a9 0eb9 39bf
00000130: 908b 5746 10d4 36bf ba49 0c02 2b87 46bf
00000140: e2dc 39a7 6c6b 3ebf 43c5 387f 130a 41bf
00000150: c004 6edd cd53 3dbf 6362 f371 6da8 58bf
00000160: 5785 f396 9854 6abf 6122 cb6f befe 51bf
00000170: 9ccc 6590 a83d 42bf c22f f5f3 a622 35bf
00000180: d43b efd9 4d03 39bf 3659 a31e a2d1 2dbf
00000190: 8e60 d02f 3705 1fbf 0000 0000 0000 0000
000001a0: 0000 0000 0000 0000 0000 0000 0000 0000
000001b0: 0000 0000 0000 0000 0000 0000 0000 0000
000001c0: 0000 0000 0000 0000 0000 0000 0000 0000
000001d0: 0000 0000 0000 0000 0000 0000 0000 0000
000001e0: 78c9 12b0 3057 09bf ff29 42d7 abb5 edbe
000001f0: 809f 71e1 4048 06bf 5a5c f6fe 19b8 26bf
00000200: 6c68 f0e4 c098 4abf fe9c 36d0 6903 5dbf
00000210: e50d 1953 1e05 70bf 0cdd 71b1 50f5 82bf
00000220: 80b2 9a8c 6dcc 9dbf db0d 9789 c16d 9fbf
00000230: b040 9ae4 d6ac a0bf 67dd 545b a22a 99bf
00000240: c9ab 21dc 32be c1bf 3da9 22c0 3461 d8bf
00000250: f283 aea8 3a1b a8bf 7821 afa4 6464 9abf
00000260: 48cd e260 cd41 86bf e0f2 cc83 dd49 72bf
00000270: f413 759b eeaa 55bf b873 8a8e e4f2 4fbf
00000280: fe09 2e56 d460 3abf 0000 0000 0000 0000
00000290: 0000 0000 0000 0000 0000 0000 0000 0000
000002a0: 0000 0000 0000 0000 0000 0000 0000 0000
000002b0: 0000 0000 0000 0000 0000 0000 0000 0000
000002c0: ff29 42d7 abb5 edbe a8be 8b48 50fc 48bf
000002d0: b87c 4bdd 5ed2 68bf 6637 a6ff 338c 7dbf
000002e0: 06c9 29f5 da06 a1bf b22f 56b6 f403 babf
000002f0: 99af 5094 37ee c5bf e1c3 f780 3731 c7bf
00000300: 3718 6e1e 6dd8 c4bf e655 63cd 254e d0bf
00000310: 84a2 32ef 065a c3bf 4a1c 28a2 3c36 ab3f
00000320: 44ca b447 5717 cdbf 1ec9 b3d4 579d d4bf
00000330: 7ac6 8fbd 9abb bfbf f3e3 50ea a7b0 bebf
00000340: 1e0c 8fbd 2883 663f 34b4 e21c 1eb9 a93f
00000350: 2010 2037 9842 86bf 9a35 f28b 25bf 68bf
00000360: 582c 58bd d6b8 41bf 0000 0000 0000 0000
00000370: 0000 0000 0000 0000 0000 0000 0000 0000
00000380: 0000 0000 0000 0000 0000 0000 0000 0000
00000390: 0000 0000 0000 0000 fca9 f1d2 4d62 30bf
000003a0: f0aa 5aa2 9860 47bf f749 64e6 8f22 92bf
000003b0: b6d6 3d26 8ecb a4bf 96fa 27fa c6f3 67bf
000003c0: f0d7 35e9 dc9b bd3f e304 d5e9 7428 d5bf
000003d0: ab49 30f0 0c9b c8bf 69c4 9c05 e331 c0bf
000003e0: f15b 6ae6 e9b1 bfbf b80a fb86 f641 c9bf
000003f0: d005 a457 08e0 dbbf 0d45 dc1d 0c2b d33f
00000400: 26ce 2d24 9240 c5bf a5aa d78d 9054 e1bf
00000410: d204 e712 2eea ce3f a7bd 9fc2 08fc a13f
00000420: a16f 9775 1f57 c8bf 1d19 0ff4 cc19 a73f
00000430: add5 08ce 0980 9fbf 37b2 09f0 5f9b a93f
00000440: b24e 7d92 fac0 453f daf5 0ac7 8f41 5abf
00000450: 0000 0000 0000 0000 0000 0000 0000 0000
00000460: 0000 0000 0000 0000 0000 0000 0000 0000
00000470: fcc9 0554 25b7 533f eefd 3370 2d80 36bf
00000480: a2c9 d8e3 983f 79bf 9e81 ee75 3ddf b3bf
00000490: a559 5044 0e49 afbf f11d dd19 d717 bf3f
000004a0: b06f 4f0b ec3f c8bf f556 f127 4dab ba3f
000004b0: e809 37c1 c9c8 d3bf 2999 d168 9466 d5bf
000004c0: f3f4 dcac 16af d3bf cf02 c3c6 2bec c8bf
000004d0: 7c55 9797 6fe2 b9bf fc7b 9ddf a5c3 a53f
000004e0: 43d5 6fe5 1c59 d23f d17d 9e94 ece6 b8bf
000004f0: 7d51 2bf3 46ef 97bf 7fc5 922d 58ca ba3f
00000500: 872d a847 1dce ad3f f811 ed92 a396 afbf
00000510: 878f 49ac 1b9f 843f 52f1 f7aa 0e50 c53f
00000520: c711 0fd1 5ed5 a6bf f494 19b7 bcbe 95bf
00000530: dc38 9460 6e9a 69bf 691d 554d 1075 efbe
00000540: 0000 0000 0000 0000 0000 0000 0000 0000
00000550: 4645 8983 715d 2e3f 8c68 1510 6dda 5fbf
00000560: f08d 0e35 f77d 85bf 92e0 5ffa de6c c8bf
00000570: 146b fbed 3b19 823f 290f 5c7f 7a90 a5bf
00000580: 586e ac3f be84 cebf a17a 6c98 60bc 9c3f
00000590: 02c0 a964 9687 a3bf 7bff 3717 c09c cabf
000005a0: 3ba4 be19 7a87 d8bf ef87 961a 297a 743f
000005b0: 05ae 9ac6 bca2 d4bf d010 9df9 33ae c1bf
000005c0: 5ed0 4bb4 6431 d8bf f687 a16a 9a90 b2bf
000005d0: 7f2e d5fb 4d23 a2bf 541d 57ac ef3d c13f
000005e0: 69e9 9663 108b 5bbf bdbc b698 0a83 53bf
000005f0: 3e22 064a fac9 83bf a101 dfae ac5d c4bf
00000600: 39cc fee7 89b5 c7bf e851 aea4 155a b3bf
00000610: 58b5 e1cc 5ede 6dbf 05a8 a965 6b7d 51bf
00000620: 16ac 5e6b dc88 04bf 243d 1f78 8f46 48bf
00000630: 1121 9bd1 7cbb 42bf 1208 3ee4 0d88 70bf
00000640: 1a28 6dfe e22c 91bf 2a19 010c f4ab c8bf
00000650: ca50 d010 0943 d0bf ff08 44f0 8459 b23f
00000660: c6f1 6e01 686c c6bf ff41 e963 e4b1 c6bf
00000670: dc3f a5ce ae5a d4bf 317a 1d15 e73d d4bf
00000680: 472b 2757 d948 83bf a6bc ce0a 3ee8 c5bf
00000690: 1787 b9e9 947b b93f dbc6 48aa 4d32 c3bf
000006a0: 6c2b 58e9 4142 cabf fd9f c2d4 3fa0 d3bf
000006b0: 0ce5 3f6b 206f b13f ee11 342f 5f25 ca3f
000006c0: d52e 9c4e 8674 a23f 867d d4cb bb11 cc3f
000006d0: 0c6a d1a6 1334 bebf c450 1735 8185 d5bf
000006e0: abba b705 ede3 cabf 04e0 de0f 7e61 a7bf
000006f0: 7373 2ddd 2484 84bf 77a9 fe2e 5902 46bf
00000700: ba39 8241 bfdc 24bf e3d7 227c 023b 41bf
00000710: ca2d ad86 c43d 56bf 08ca e45c 6dc0 78bf
00000720: c6e1 1651 06dd 9cbf 73ac 6083 f8c9 d6bf
00000730: a55b 2d87 601e cabf 202a c11a c00e c0bf
00000740: 5956 4482 b0a4 a03f 7541 b465 fe62 d1bf
00000750: 7e38 df3f fa4a b4bf 68aa 56e1 88c6 aebf
00000760: 7659 d790 4cfc c0bf 28a3 a439 dbc0 bdbf
00000770: 9c7f 98bb 1d2b c83f 6b9a a223 7991 b2bf
00000780: 048a f6f3 f972 b2bf d302 35ef 3396 cdbf
00000790: c4a5 8e6f f8ae c23f 951e daf7 4c4b cdbf
000007a0: a4d9 313a 1c02 b8bf 0ce6 3d5a 502f 953f
000007b0: 1d4e 83d9 2e47 c2bf 8980 34b5 8eed d3bf
000007c0: e63b 6cf6 a706 c5bf 894e 3702 c74b a5bf
000007d0: ec06 0070 059d 7ebf d786 8a71 fe26 34bf
000007e0: e1bc 2526 9516 fbbe 5ebe 0318 9f47 6ebf
000007f0: e3ef f11c a4ba 63bf dde6 039c c4ae 80bf
