Multiclass_weights6k 10I/class8weights.npy (npy, 6400 bytes, 1 tensors)

array f8 [1, 784]
0.0 0.0 0.0 0.0 0.0 0.0 0.0 0.0
0.0 0.0 0.0 0.0 0.0 0.0 0.0 0.0
0.0 0.0 0.0 0.0 0.0 0.0 0.0 0.0
0.0 0.0 0.0 0.0 0.0 0.0 0.0 0.0
0.0 0.0 0.0 -8.5e-05 -0.0002891666666666667 -0.0003925 -0.0003483333333333333 -0.0006875
-0.0005325 -0.0009433333333333334 -0.0006258333333333333 -0.000855 -0.0018441666666666667 -0.0009433333333333334 -0.0005566666666666667 -0.0003225
-0.00041833333333333333 -0.0005708333333333333 -0.00035499999999999996 0.0 0.0 0.0 0.0 0.0
0.0 0.0 0.0 0.0 -4.8333333333333334e-05 -3.25e-05 -0.0001275 -0.00020833333333333332
-0.0008116666666666667 -0.02556973345905428 -0.012755487626865033 -0.0074880796368468165 -0.011124969832423651 -0.03714394600452351 -0.937371230318538 -0.7801263924468279
-0.10476609841259535 -0.10670290936324353 -0.5929008025035026 -1.143054972098144 -0.06277950922241729 -0.005350342671205391 -0.0009618190989508894 -0.5700401034671924
-0.257345143798296 0.0 0.0 0.0 0.0 0.0 0.0 0.0
-1.4166666666666666e-05 -0.0008008333333344018 -0.14353773189524435 -0.6053294542816232 -0.8128586177105858 -0.8807274187252531 -1.5266540372109507 -0.676348411590539
-0.1956866844531935 0.32692646718049895 -1.790061499507416 0.19730090582145443 -1.4271524624839835 -1.852942060945669 -1.8183369739306234 -1.2482914337645252
-1.4538250968271802 -0.831540369252391 -0.25481362466655294 -0.6956026423793947 -0.09447685559321825 0.0 0.0 0.0
0.0 0.0 0.0 -5e-05 -0.2219951009234575 -0.5816718513560765 -0.9385568220649717 2.5335134713621112
3.6864133634375214 3.1908256264963524 -0.5490403846419333 0.3159156538865748 -0.06118896180473409 -0.7776049915773262 -0.5408939829056789 -1.5571175546322609
0.964962176478501 -0.38688749262899513 -0.976746956702964 0.7851294130304027 -1.761540606621786 0.2965824741804343 -1.8787659192362733 -0.5296290533431183
0.595140341348815 -0.021169724388106673 0.0 0.0 0.0 0.0 -0.00031666667441569094 -0.0015616664808867319
-0.01413010761443466 -1.9188337105651192 -3.131465383539187 -1.2867786307539744 -3.4823524545266844 -1.9063426329590187 -1.8602400365759617 0.967549959457383
0.13987776484730016 -1.7085701571743586 2.3831405448921443 -0.8321140472825084 0.6079508638436305 -0.7507450920229243 0.9478222002195208 -0.3766828357867201
-0.15188310471848754 0.5875653957769855 -1.8044755673383013 0.08806014513003342 -0.9894338312799795 -0.09316873310157861 0.7353123508955567 -0.00016500000000000106
0.0 0.0 -0.00028666666860202355 -0.003324166602831751 0.0976403267536554 -1.973881294032988 -0.1826399521099513 -0.3497292985885658
-0.8707068979812552 0.9819649239579533 -1.368769054608766 0.4245926864386634 -1.4653466294776563 1.3984925571443205 -1.4683542638321625 0.5507986339167104
-0.7299595882559851 1.6996104096934694 -0.8011878348977318 -0.5369323000201038 -0.4483867742755752 0.4673970156464683 1.0588548979546322 -0.6673434366777714
0.31052257024689883 0.9402171704238382 -1.6351497069922811 -0.07848042842601645 -3.9166666666666665e-05 -0.00031416666666666664 -0.0008749999999649717 -0.010542918637874465
-0.4861684178776197 -0.6284832113399815 0.3480945412702039 -1.8655262818964486 1.0234944443601894 -0.2734607991398627 0.2635976113814432 0.4451974379638354
0.06177001906462634 0.39409820353028663 0.12535437351588608 0.1264845206601699 0.08581524999385473 -1.124411784573136 -1.3054257221140402 0.8664710195569517
-0.7844722291709603 0.26487755116747924 -1.5494140818241255 2.738435088767375 -3.040731055186597 -0.11240143236991289 -0.47813320617336424 -0.18830413324793907
-0.00015916666666666667 -0.0005258333333333333 -0.0020274999999807977 -0.06318809954633528 -1.4777919867147802 -3.895321255128515 0.9392915313471861 1.3927784916364838
0.012401514913866152 0.24958845204473534 -0.012846088183094448 -0.003964520290529974 -1.2488023019373573 -0.5848171991301123 -1.6044343689550207 0.17280804778948944
0.15787234039931708 -0.38095917971157434 0.7624159066594993 0.4376525028933655 -0.7706707497439621 -0.35808845435162134 1.5089709557987245 -0.9900791615887637
0.5078815882399277 -1.4538531643726216 -0.059280963232174015 0.03302117589190406 -2.5833333333333332e-05 -0.867454760702704 -0.003363333333333333 -0.2249899127701894
00000000: 0000 0000 0000 0000 0000 0000 0000 0000
00000010: 0000 0000 0000 0000 0000 0000 0000 0000
00000020: 0000 0000 0000 0000 0000 0000 0000 0000
00000030: 0000 0000 0000 0000 0000 0000 0000 0000
00000040: 0000 0000 0000 0000 0000 0000 0000 0000
00000050: 0000 0000 0000 0000 0000 0000 0000 0000
00000060: 0000 0000 0000 0000 0000 0000 0000 0000
00000070: 0000 0000 0000 0000 0000 0000 0000 0000
00000080: 0000 0000 0000 0000 0000 0000 0000 0000
00000090: 0000 0000 0000 0000 0000 0000 0000 0000
000000a0: 0000 0000 0000 0000 0000 0000 0000 0000
000000b0: 0000 0000 0000 0000 0000 0000 0000 0000
000000c0: 0000 0000 0000 0000 0000 0000 0000 0000
000000d0: 0000 0000 0000 0000 0000 0000 0000 0000
000000e0: 0000 0000 0000 0000 0000 0000 0000 0000
000000f0: 0000 0000 0000 0000 0000 0000 0000 0000
00000100: 0000 0000 0000 0000 0000 0000 0000 0000
00000110: 0000 0000 0000 0000 809f 71e1 4048 16bf
00000120: 7f7f 5d60 69f3 32bf b7ee e6a9 0eb9 39bf
00000130: 908b 5746 10d4 36bf ba49 0c02 2b87 46bf
00000140: 5036 e50a ef72 41bf 5831 6fe8 40e9 4ebf
00000150: 4860 86d9 de81 44bf 31ce df84 4204 4cbf
00000160: 5ca4 63e1 fe36 5ebf 5831 6fe8 40e9 4ebf
00000170: 9ccc 6590 a83d 42bf c22f f5f3 a622 35bf
00000180: 854a 49fc 776a 3bbf 44d5 c23f 7fb4 42bf
00000190: 6a48 dc63 e943 37bf 0000 0000 0000 0000
000001a0: 0000 0000 0000 0000 0000 0000 0000 0000
000001b0: 0000 0000 0000 0000 0000 0000 0000 0000
000001c0: 0000 0000 0000 0000 0000 0000 0000 0000
000001d0: 0000 0000 0000 0000 0000 0000 0000 0000
000001e0: 78c9 12b0 3057 09bf 43c5 387f 130a 01bf
000001f0: a037 15a9 30b6 20bf 4e1b e8b4 814e 2bbf
00000200: 6c68 f0e4 c098 4abf f173 e5c3 f32e 9abf
00000210: 2b87 9d91 8c1f 8abf eccf 6612 d2ab 7ebf
00000220: 9541 cb2c b0c8 86bf 3dea aa02 8804 a3bf
00000230: aebd 4df3 f1fe edbf 5fc7 c99f cbf6 e8bf
00000240: 925f 6976 f3d1 babf 366a 1ac2 e150 bbbf
00000250: 55ca 901a 0bf9 e2bf 4a11 ab02 f449 f2bf
00000260: 521e f862 5112 b0bf 1039 b9ac 3dea 75bf
00000270: 6a88 8ec9 5284 4fbf fd99 39be c43d e2bf
00000280: 727a 19c4 5778 d0bf 0000 0000 0000 0000
00000290: 0000 0000 0000 0000 0000 0000 0000 0000
000002a0: 0000 0000 0000 0000 0000 0000 0000 0000
000002b0: 0000 0000 0000 0000 0000 0000 0000 0000
000002c0: ff29 42d7 abb5 edbe 79b5 f47c e03d 4abf
000002d0: 25b5 1dc4 715f c2bf 403e 2ee0 db5e e3bf
000002e0: e5d6 6a13 f002 eabf d9b1 8344 eb2e ecbf
000002f0: d509 a2c8 2c6d f8bf 0574 8f6c a5a4 e5bf
00000300: 119c fee2 420c c9bf ff2b 2ffd 5cec d43f
00000310: be68 e386 17a4 fcbf 9cb6 fcf4 2741 c93f
00000320: aa64 0cd2 9dd5 f6bf d24f 1293 a6a5 fdbf
00000330: ef3b c282 e817 fdbf 5254 3e70 00f9 f3bf
00000340: dca0 cf1a de42 f7bf e2c4 678c fa9b eabf
00000350: f527 21ce dd4e d0bf 5dfb 0079 6042 e6bf
00000360: 1e75 009d a22f b8bf 0000 0000 0000 0000
00000370: 0000 0000 0000 0000 0000 0000 0000 0000
00000380: 0000 0000 0000 0000 0000 0000 0000 0000
00000390: 0000 0000 0000 0000 2d43 1ceb e236 0abf
000003a0: f752 2be1 556a ccbf f97f 5249 0e9d e2bf
000003b0: a79d 0651 a808 eebf 3cce fbb5 a244 0440
000003c0: 1b03 1c4a c67d 0d40 0953 0896 cf86 0940
000003d0: 390d 0724 bd91 e1bf d32f 6f4a f637 d43f
000003e0: 7fb1 a7db 2854 afbf b8fd 00dd 23e2 e8bf
000003f0: bedb e5e5 004f e1bf d4c4 d218 f4e9 f8bf
00000400: c044 bb5b f8e0 ee3f a0ab 04c2 c3c2 d8bf
00000410: 5d37 70d5 8241 efbf f4fb 02b8 c71f e93f
00000420: e143 0034 452f fcbf 9ffd ca0e 35fb d23f
00000430: c458 3fda 6c0f febf 20d8 e3a0 b8f2 e0bf
00000440: 32f3 d3c1 630b e33f 5425 a627 84ad 95bf
00000450: 0000 0000 0000 0000 0000 0000 0000 0000
00000460: 0000 0000 0000 0000 0000 0000 0000 0000
00000470: 8f32 a602 c9c0 34bf eb59 9c9d 1a96 59bf
00000480: 7960 bef0 3ef0 8cbf a96e 15fa 8ab3 febf
00000490: f1da 16b9 3d0d 09c0 cc7a 8430 a596 f4bf
000004a0: 12b3 8a9a dbdb 0bc0 e778 f821 6180 febf
000004b0: 8bdb 7c0e 8bc3 fdbf e1b2 2355 2bf6 ee3f
000004c0: 3776 babc 83e7 c13f 67c4 3fa9 4d56 fbbf
000004d0: c3aa 70fd ab10 0340 b8db 73a3 ada0 eabf
000004e0: 2311 b95e 5574 e33f fdde 3b92 1a06 e8bf
000004f0: 0bb3 0b39 8f54 ee3f bac8 2a53 921b d8bf
00000500: 3459 cad3 e770 c3bf 4cf3 e3f1 55cd e23f
00000510: 8262 c2c5 21df fcbf 251d 6a13 1c8b b63f
00000520: 6ce9 5c23 71a9 efbf 2a58 aef5 e7d9 b7bf
00000530: 111f 6ec4 ad87 e73f 5f84 2a35 7ba0 25bf
00000540: 0000 0000 0000 0000 0000 0000 0000 0000
00000550: d679 6cf7 77c9 32bf 0b4d 0f5b 483b 6bbf
00000560: ff7d 2dda f4fe b83f edec 408d 0495 ffbf
00000570: efab a0f6 be60 c7bf a704 f9fe f661 d6bf
00000580: 2b65 67b6 d4dc ebbf 40fe 46b4 416c ef3f
00000590: d124 5561 7ae6 f5bf 69fd 97cd 862c db3f
000005a0: d990 ae4e 0f72 f7bf f625 4abb 3960 f63f
000005b0: e69e 610a 617e f7bf e651 eb74 24a0 e13f
000005c0: 2ec1 de35 d45b e7bf 9d31 59af 9a31 fb3f
000005d0: 7fd7 9aab 54a3 e9bf b613 98a5 8c2e e1bf
000005e0: ed3d de70 5eb2 dcbf f2c5 1c2c d5e9 dd3f
000005f0: 02cb 5ed5 11f1 f03f 9b66 779f e05a e5bf
00000600: b956 f80e 9adf d33f 1875 c351 4216 ee3f
00000610: 8588 39bd 9229 fabf 493f 7719 4b17 b4bf
00000620: 16ac 5e6b dc88 04bf b143 0f8f d796 34bf
00000630: 72fb 2131 08ac 4cbf 7350 0896 8697 85bf
00000640: df79 c823 621d dfbf f349 d9d2 881c e4bf
00000650: 48fc aa53 2e47 d63f f92d 2916 32d9 fdbf
00000660: a2a2 e2b5 3b60 f03f 8fcc 42b9 6180 d1bf
00000670: 12f8 0b84 c8de d03f 9254 1465 1d7e dc3f
00000680: f400 83e7 51a0 af3f b3cb e4ab e738 d93f
00000690: 74a5 54b3 9c0b c03f e8c3 d70f a530 c03f
000006a0: 62bf 38fc fcf7 b53f 6aa8 1f36 97fd f1bf
000006b0: 4c64 fd14 06e3 f4bf 6bb9 7d6e 21ba eb3f
000006c0: 8e1a 1d81 651a e9bf 745e edf8 c0f3 d03f
000006d0: 0358 966b 66ca f8bf 41cc e3a7 50e8 0540
000006e0: ffa9 afcd 6a53 08c0 9b65 0d1c 57c6 bcbf
000006f0: bf5b e904 bc99 debf f531 008f 591a c8bf
00000700: ba39 8241 bfdc 24bf e3d7 227c 023b 41bf
00000710: 676e 29c6 f99b 60bf 5643 0c65 182d b0bf
00000720: 8db1 d335 09a5 f7bf 7086 b130 9e29 0fc0
00000730: 3478 111d ad0e ee3f 1e6a 8219 d248 f63f
00000740: a0aa ce27 f765 893f 48e6 7eaf 83f2 cf3f
00000750: 58fc 05c5 0c4f 8abf 90dd dfcf 193d 70bf
00000760: f4d8 5f1f 18fb f3bf 6ede 0c8f d2b6 e2bf
00000770: e8d7 735f c3ab f9bf 3ce8 def8 921e c63f
00000780: 44a1 7a2d 2935 c43f 8038 7e9c a261 d8bf
00000790: 08b0 210b b665 e83f 9721 bca4 7f02 dc3f
000007a0: b14a 44b4 55a9 e8bf 5bfc 20d6 ebea d6bf
000007b0: 654f 9cba be24 f83f e331 6f7e baae efbf
000007c0: 9464 77e3 9040 e03f 13aa 2289 fb42 f7bf
000007d0: df12 b70c 135a aebf 57f8 0fcd 26e8 a03f
000007e0: e1bc 2526 9516 fbbe a948 7f7c 30c2 ebbf
000007f0: 89c5 82d5 6b8d 6bbf cb90 a32e 78cc ccbf
