Multiclass_weights6k 10I/class4weights.npy (npy, 6400 bytes, 1 tensors)

array f8 [1, 784]
0.0 0.0 0.0 0.0 0.0 0.0 0.0 0.0
0.0 0.0 0.0 0.0 0.0 0.0 0.0 0.0
0.0 0.0 0.0 0.0 0.0 0.0 0.0 0.0
0.0 0.0 0.0 0.0 0.0 0.0 0.0 0.0
0.0 0.0 0.0 -0.0004801238612517735 -0.003131958162148381 -0.005729879567751549 -0.08252718782290214 -0.422155395946234
-0.14287878827237427 -0.2633726750052671 -0.1455741181827012 -0.18908588936990978 -0.165555095872373 -0.06177926353109345 -0.05133902355944632 -0.007079132214473175
-0.0029616666666666654 -0.0011324999999999996 -0.00035499999999999996 0.0 0.0 0.0 0.0 0.0
0.0 0.0 0.0 0.0 -4.8333333333333334e-05 -0.0011036015545142172 -0.005093516298202284 -0.0034424608165752545
-0.014249208784849131 -0.02722763257930782 -0.5342501851771634 -0.7014933924569253 -0.33705923145613687 -0.4826087981729491 -0.8411351142031663 -0.3764432332559423
-0.1849734790299235 -0.7574179275463553 -0.4468665701111756 -0.3355328474975733 -0.2143930171707315 -0.41754378626419125 -0.26538220394367257 -0.00021166666666666667
-9.25e-05 0.0 0.0 0.0 0.0 0.0 0.0 0.0
-1.4166666666994854e-05 -0.01758633959978604 -0.02700797823053102 -0.029749780454054953 -0.04053837326422655 -0.17387774606603182 -0.8315793603639707 -0.9638390336870236
-0.4741516033885883 -1.1053855356254212 -0.8326316969568308 -0.35176444331747053 -0.712841565593343 -0.7859864887950749 -0.47034559940719234 -0.37996527428978727
-0.5211441620063169 -0.5571043292514994 -0.24888682143948043 -0.0031603775105251064 -0.001417495504602833 0.0 0.0 0.0
0.0 0.0 0.0 -5e-05 0.084390461860191 -0.1386637568356507 -0.3919122730975278 -0.06326838496110977
-0.05856122456927274 -0.22634512367093443 -0.35296075847967223 -0.10500659816397774 -0.38163538096579097 -0.609296143729087 -0.40374644891861095 0.21910271111187424
-0.6540842608232109 -0.47427085010009495 -0.6514079980829691 -0.17811973688913546 0.2694022135875088 0.22117085665397782 0.6777451030169681 0.051049454800729054
0.016119485582753463 -0.008911154671882561 0.0 0.0 0.0 0.0 -6.333333333333333e-05 -0.000680001502742458
0.27103416951854226 0.057272776126797834 -0.21514385507407421 -0.10028903568058582 -0.02409547588819116 -0.11347409571894343 0.20350575489399708 -0.06847499117168027
-0.13602593697743176 -0.35050730070997127 -0.09960460127813003 -0.10219157387452914 0.08014711003246644 0.9546982784760594 -0.36825613251957384 -0.24041437401581892
0.5620298924463784 0.3789924425164729 0.3038089186503071 0.009984062651659622 -0.2421591453944231 -0.019364860217159083 -0.014174804094813934 -0.00028500584895037003
0.0 0.0 -0.0033600352431796183 -0.009219335852670922 0.519373800904198 0.2179961956085714 -0.017971436030586367 0.05015118333216752
0.3815822705328512 -0.008640435777936353 -0.21000443206837235 -0.36205132641554083 -0.08333759374611163 -0.4469757883249731 0.13960966519632997 -0.4348151690476492
0.1858549118553107 -0.6468035081727969 -0.4499722279711195 0.0239425049770091 0.39296598537886573 -0.12994974845806628 0.31903496315095653 0.5611657418726281
-0.2756399122620315 0.044760678152140854 -0.3502103334882425 -0.0023008532171660038 -3.9166666666666665e-05 -0.00031416666666666664 -0.0009449976160590912 -0.11558324075255
0.10208075493515084 0.09491504983421328 -0.1503565096567415 -0.30307646401198896 0.35180824175607045 0.10389127716132518 -0.2964644411945688 -0.3442301026909205
-0.6140911148965229 -0.3198906215047554 -0.2203501932140626 -0.7104833039065976 -0.8966733068332798 -0.37104621642764996 0.7062601402651841 -0.3331926106638645
0.0068750202945677946 0.44354493405956236 0.05599583482569252 0.1955788619228889 -0.1139417610413746 -0.3794106251029957 -0.5360236346731151 -0.009072294489665591
-0.00015916666666666667 -0.0005258333333333333 -0.007854128821596008 -0.19815737147316045 0.30271649833006103 9.616580834740493e-05 -0.16843049016083286 0.12869965083321339
-0.47526301280504024 -0.30005360558015537 0.17294893586636548 -0.05046676027096118 -0.5480326637300046 -0.09795587070535608 -0.531604495489809 -0.11881222763527766
0.3484948585288242 0.11388914366531527 -0.264928424028871 -0.21719841891835928 -0.02021814177730025 0.1822541684685417 -0.012851621916706439 -0.323669494937552
0.05758386144991391 -0.09420182787332378 -0.28929946126525685 -0.14983864830207286 -2.5833333333333332e-05 -0.0027228363070868323 -0.0916307155363506 -0.23439393973782532
00000000: 0000 0000 0000 0000 0000 0000 0000 0000
00000010: 0000 0000 0000 0000 0000 0000 0000 0000
00000020: 0000 0000 0000 0000 0000 0000 0000 0000
00000030: 0000 0000 0000 0000 0000 0000 0000 0000
00000040: 0000 0000 0000 0000 0000 0000 0000 0000
00000050: 0000 0000 0000 0000 0000 0000 0000 0000
00000060: 0000 0000 0000 0000 0000 0000 0000 0000
00000070: 0000 0000 0000 0000 0000 0000 0000 0000
00000080: 0000 0000 0000 0000 0000 0000 0000 0000
00000090: 0000 0000 0000 0000 0000 0000 0000 0000
000000a0: 0000 0000 0000 0000 0000 0000 0000 0000
000000b0: 0000 0000 0000 0000 0000 0000 0000 0000
000000c0: 0000 0000 0000 0000 0000 0000 0000 0000
000000d0: 0000 0000 0000 0000 0000 0000 0000 0000
000000e0: 0000 0000 0000 0000 0000 0000 0000 0000
000000f0: 0000 0000 0000 0000 0000 0000 0000 0000
00000100: 0000 0000 0000 0000 0000 0000 0000 0000
00000110: 0000 0000 0000 0000 bc12 3848 2477 3fbf
00000120: ddae 1f3c 31a8 69bf b2fb a7d5 3678 77bf
00000130: 50ef ba74 8020 b5bf ffd0 da10 9804 dbbf
00000140: a602 7625 da49 c2bf afb0 7310 19db d0bf
00000150: 0d8f 5e36 2ca2 c2bf 844a 7d67 f733 c8bf
00000160: 4e9f 3acd e830 c5bf 04c0 df18 88a1 afbf
00000170: f28d 64c6 1b49 aabf dd07 8615 02ff 7cbf
00000180: 3a17 33af 1043 68bf 5734 9d9d 0c8e 52bf
00000190: 6a48 dc63 e943 37bf 0000 0000 0000 0000
000001a0: 0000 0000 0000 0000 0000 0000 0000 0000
000001b0: 0000 0000 0000 0000 0000 0000 0000 0000
000001c0: 0000 0000 0000 0000 0000 0000 0000 0000
000001d0: 0000 0000 0000 0000 0000 0000 0000 0000
000001e0: 78c9 12b0 3057 09bf eaae 6725 d714 52bf
000001f0: 5b3d c25e f0dc 74bf b39b ff13 5d33 6cbf
00000200: 7965 cc6d b02e 8dbf de0b e77d 8fe1 9bbf
00000210: b7f8 26d8 9318 e1bf 84cd 5e45 a272 e6bf
00000220: efd0 fae1 6092 d5bf 228a 3a03 10e3 debf
00000230: 67a2 e02f 94ea eabf 1aa0 e85b a517 d8bf
00000240: 5eca 8701 36ad c7bf f6e6 8685 c43c e8bf
00000250: 7867 133e 7699 dcbf e217 afc3 5e79 d5bf
00000260: 7699 9efa 3a71 cbbf 17c6 a992 09b9 dabf
00000270: f338 b8a3 05fc d0bf 29d8 6cd2 5abe 2bbf
00000280: 56f1 46e6 913f 18bf 0000 0000 0000 0000
00000290: 0000 0000 0000 0000 0000 0000 0000 0000
000002a0: 0000 0000 0000 0000 0000 0000 0000 0000
000002b0: 0000 0000 0000 0000 0000 0000 0000 0000
000002c0: bf1e 45d7 abb5 edbe daed bf45 2702 92bf
000002d0: 7ec2 ecbc faa7 9bbf fd10 74f8 b976 9ebf
000002e0: 1948 ce16 72c1 a4bf d58a 6d40 a041 c6bf
000002f0: dc56 9951 4c9c eabf 8568 09f5 c4d7 eebf
00000300: c698 79f7 7f58 debf d7b8 4fbe a8af f1bf
00000310: be5c 813a eba4 eabf 796d fc02 4f83 d6bf
00000320: b97d 6e1d 99cf e6bf 8020 0f23 cd26 e9bf
00000330: c05e d16d 241a debf f92d acde 5951 d8bf
00000340: cc30 8a85 36ad e0bf ee0b 5375 ccd3 e1bf
00000350: 7a75 3efb 85db cfbf ee7d 9fc1 cae3 69bf
00000360: b062 6835 6839 57bf 0000 0000 0000 0000
00000370: 0000 0000 0000 0000 0000 0000 0000 0000
00000380: 0000 0000 0000 0000 0000 0000 0000 0000
00000390: 0000 0000 0000 0000 2d43 1ceb e236 0abf
000003a0: c4aa c801 9d9a b53f 6cf3 5fe6 bbbf c1bf
000003b0: b9b6 f636 1715 d9bf 3159 475c 5b32 b0bf
000003c0: 156f ada0 bcfb adbf 694b e383 e0f8 ccbf
000003d0: 4e42 9cb8 e896 d6bf d97e fa60 b6e1 babf
000003e0: 16a7 0fce b66c d8bf a9a6 5ca0 5a7f e3bf
000003f0: 05d2 7e58 fbd6 d9bf 3260 58c1 8e0b cc3f
00000400: 7e0c a21d 42ee e4bf d010 a81f 745a debf
00000410: 59d0 0396 55d8 e4bf ca00 5ba6 a0cc c6bf
00000420: ce03 35c8 e23d d13f 1f1d 149e 534f cc3f
00000430: c86c 8f7f 16b0 e53f cb0d b275 2723 aa3f
00000440: 2505 a05d a081 903f 9429 15ef 0240 82bf
00000450: 0000 0000 0000 0000 0000 0000 0000 0000
00000460: 0000 0000 0000 0000 0000 0000 0000 0000
00000470: 6908 b461 3a9a 10bf 7dd2 951b 4448 46bf
00000480: eb8f 8bb3 9f58 d13f 12da d478 db52 ad3f
00000490: e53f bd76 d589 cbbf 0b3f 65d0 8aac b9bf
000004a0: 1f73 af03 7cac 98bf 5a58 0e6a a30c bdbf
000004b0: 26a4 e800 7a0c ca3f 141f adb7 9387 b1bf
000004c0: e2e7 5c43 4c69 c1bf 84bf 632c b66e d6bf
000004d0: d44b 05e9 af7f b9bf 5fc6 b71b 3a29 babf
000004e0: e056 7560 8584 b43f 0645 7367 e38c ee3f
000004f0: d345 6e2b 8291 d7bf c970 f1f0 e5c5 cebf
00000500: 9bcf ed1c 26fc e13f b685 8284 6941 d83f
00000510: 3284 75f6 9a71 d33f fb8c 8f34 8672 843f
00000520: cdbb f224 12ff cebf d917 4cc5 61d4 93bf
00000530: e88e 1d00 ae07 8dbf c6b4 e7cc 9aad 32bf
00000540: 0000 0000 0000 0000 0000 0000 0000 0000
00000550: ed9e 732f 8186 6bbf 1c12 d34f 96e1 82bf
00000560: 410c 29ce b59e e03f 1f47 65a1 4ce7 cb3f
00000570: 5ed9 0da8 1a67 92bf 62e3 8878 6aad a93f
00000580: 6202 2b0b d86b d83f 6e24 b7a8 13b2 81bf
00000590: d3d5 dfdb 6ce1 cabf 1e67 9b53 d92b d7bf
000005a0: e2b8 aacf 9c55 b5bf ba69 3d56 409b dcbf
000005b0: bba3 1cc1 bade c13f c151 b700 03d4 dbbf
000005c0: 4d19 1c00 18ca c73f 9349 5145 9db2 e4bf
000005d0: 37a1 cf50 58cc dcbf 9b39 714f 6284 983f
000005e0: 0e21 e9cd 5a26 d93f e81a e07f 31a2 c0bf
000005f0: 1fe4 409f 116b d43f 0050 9fdb 11f5 e13f
00000600: a5d0 2896 15a4 d1bf 08d6 9e21 dfea a63f
00000610: 8868 439a d869 d6bf 0b8e 422a 3dd9 62bf
00000620: 16ac 5e6b dc88 04bf b143 0f8f d796 34bf
00000630: d7ed 89ed 36f7 4ebf 2876 fffe dc96 bdbf
00000640: c459 ffdf f621 ba3f f0a7 ef4a 5a4c b83f
00000650: 6bb3 dbd1 e13e c3bf a49a 47d3 9a65 d3bf
00000660: b18e 33b7 0684 d63f 5060 bf65 9e98 ba3f
00000670: b9e2 d6fd 45f9 d2bf 65cc 56b2 dd07 d6bf
00000680: f2d4 e768 a2a6 e3bf 133e 6a83 1679 d4bf
00000690: 69c6 c264 6f34 ccbf 7040 547b 47bc e6bf
000006a0: 8b71 0138 8cb1 ecbf 731f 37a1 38bf d7bf
000006b0: eb08 9ddd ae99 e63f 7c7d 8419 0753 d5bf
000006c0: 1e2c 3135 fb28 7c3f 31e8 854a 0a63 dc3f
000006d0: 16bf 936e 7cab ac3f e1b4 df67 ba08 c93f
000006e0: 0c44 5289 492b bdbf 4aa0 a480 4348 d8bf
000006f0: 08bb 9909 1b27 e1bf aef6 0fc1 7e94 82bf
00000700: ba39 8241 bfdc 24bf e3d7 227c 023b 41bf
00000710: d429 6b53 d315 80bf 5322 f882 385d c9bf
00000720: 5162 1205 b55f d33f f2c9 e301 9435 193f
00000730: 67ec 715b 218f c5bf 26ea aaeb 3a79 c03f
00000740: babf 3f8e b56a debf a6df c009 1434 d3bf
00000750: fb46 b6d3 3023 c63f 1e36 cc79 c7d6 a9bf
00000760: 3a86 fbcb 7b89 e1bf 2276 21cd a213 b9bf
00000770: 4121 516e e702 e1bf f0f4 0e68 7a6a bebf
00000780: 0a26 0d61 bd4d d63f 2c77 69c3 d627 bd3f
00000790: 5107 3f59 96f4 d0bf 3ea6 ff64 28cd cbbf
000007a0: 51a9 e086 10b4 94bf 60e7 90c6 1a54 c73f
000007b0: cf98 a97e f351 8abf 4f0e de41 00b7 d4bf
000007c0: 52d8 68c3 a17b ad3f 0979 f069 9c1d b8bf
000007d0: e09e 38e3 e183 d2bf 112f 11af e92d c3bf
000007e0: e1bc 2526 9516 fbbe 3b86 859c 334e 66bf
000007f0: 08a7 894e 1c75 b7bf a5fb c6e0 9e00 cebf
