Multiclass_weights6k 10I/class2weights.npy (npy, 6400 bytes, 1 tensors)

array f8 [1, 784]
00000000: 0000 0000 0000 0000 0000 0000 0000 0000
00000010: 0000 0000 0000 0000 0000 0000 0000 0000
00000020: 0000 0000 0000 0000 0000 0000 0000 0000
00000030: 0000 0000 0000 0000 0000 0000 0000 0000
00000040: 0000 0000 0000 0000 0000 0000 0000 0000
00000050: 0000 0000 0000 0000 0000 0000 0000 0000
00000060: 0000 0000 0000 0000 0000 0000 0000 0000
00000070: 0000 0000 0000 0000 0000 0000 0000 0000
00000080: 0000 0000 0000 0000 0000 0000 0000 0000
00000090: 0000 0000 0000 0000 0000 0000 0000 0000
000000a0: 0000 0000 0000 0000 0000 0000 0000 0000
000000b0: 0000 0000 0000 0000 0000 0000 0000 0000
000000c0: 0000 0000 0000 0000 0000 0000 0000 0000
000000d0: 0000 0000 0000 0000 0000 0000 0000 0000
000000e0: 0000 0000 0000 0000 0000 0000 0000 0000
000000f0: 0000 0000 0000 0000 0000 0000 0000 0000
00000100: 0000 0000 0000 0000 0000 0000 0000 0000
00000110: 0000 0000 0000 0000 c365 40ad 8c09 86bf
00000120: f2a7 d385 f364 d3bf 25fb 4bc5 3b93 e5bf
00000130: ddd0 6ae9 89fe debf 1d7f 33c4 a536 ccbf
00000140: 7b6b 81f2 90df 99bf 837d 780c dd04 9dbf
00000150: b2d7 3209 6609 d0bf 427c 4201 45df c83f
00000160: 13ad 3cc3 7689 f63f 0025 d5a4 d021 c63f
00000170: d883 b247 b78c 95bf f7af ff73 cfb5 89bf
00000180: cd50 8388 3116 97bf cd2e 3f80 d3ca afbf
00000190: 5502 5c76 d7c9 a4bf 0000 0000 0000 0000
000001a0: 0000 0000 0000 0000 0000 0000 0000 0000
000001b0: 0000 0000 0000 0000 0000 0000 0000 0000
000001c0: 0000 0000 0000 0000 0000 0000 0000 0000
000001d0: 0000 0000 0000 0000 0000 0000 0000 0000
000001e0: 82ea 0c79 f16b 41bf f66c a0e9 a6bb 65bf
000001f0: fa48 b1c3 15ab 88bf 4c01 eab8 0bcc 99bf
00000200: 5b22 e345 4bc7 e0bf 85d0 4b06 ff3f ebbf
00000210: 4ce3 6b6e 1802 e8bf 6c17 1aed 58a2 8bbf
00000220: fccc b324 30ba f33f 8f2a 74fe 6610 d23f
00000230: 89bd 373c 391b dabf eabf 96e0 d2e8 dbbf
00000240: 3d1f 8cd2 eafd f0bf 8472 e3d0 0525 a83f
00000250: 8880 a7cf de18 e9bf e229 4f69 82e8 ddbf
00000260: f795 df0e 1a4d d8bf daa6 7e37 62c4 d1bf
00000270: e1d7 2047 ba09 b3bf b3ce 8962 a6cd c53f
00000280: 9c6a 9f9d cbd2 b33f 0000 0000 0000 0000
00000290: 0000 0000 0000 0000 0000 0000 0000 0000
000002a0: 0000 0000 0000 0000 0000 0000 0000 0000
000002b0: 0000 0000 0000 0000 0000 0000 0000 0000
000002c0: aaaf 354a 7d47 54bf 5acd 9aa6 c55e babf
000002d0: 594e 79f6 c54e dcbf e24f f2ae 49bf c9bf
000002e0: d958 cc56 f587 e3bf 536a f7ac f90b d83f
000002f0: 1c42 a637 cba3 f13f 36eb 27c2 ecc6 f03f
00000300: 7b05 c147 edf9 f2bf 0d3f 0c76 fbf3 ba3f
00000310: 09ea 21a7 5052 d43f 326b e654 e101 edbf
00000320: 29ff b70e 14a7 b43f 4a81 be3a 5f2b d8bf
00000330: e0a3 455d ee79 fabf 91df 14a0 8982 dbbf
00000340: a67b 180d 871d e13f aa23 7161 6905 e2bf
00000350: 6e62 dda1 84b4 d53f fd25 cfcc ff7a ba3f
00000360: b86d a5f8 aaee 983f 0000 0000 0000 0000
00000370: 0000 0000 0000 0000 0000 0000 0000 0000
00000380: 0000 0000 0000 0000 0000 0000 0000 0000
00000390: 0000 0000 0000 0000 8f58 526c cd24 b0bf
000003a0: 834b 1cee f754 d7bf 2f74 cda4 d771 bc3f
000003b0: 1101 e19f c200 d73f 862a b560 fe3f e03f
000003c0: 85c5 4216 383d eabf 6994 da56 b444 f83f
000003d0: 3fba ffb8 c49c d53f f3eb b19d b5ff bebf
000003e0: 3a95 d741 2538 ddbf ff96 89a9 08ec e03f
000003f0: 663f 6de4 1819 9a3f 26ce 1cf6 625c d6bf
00000400: 8d4d 6bb0 66d0 de3f 4b83 9969 6056 e0bf
00000410: 6c90 cc24 5666 d53f ba9d 6c4c da45 d2bf
00000420: 4ab4 4ce3 0f28 cebf bca0 b12b 3af5 d63f
00000430: e01a 455c 537d efbf d8dc 81d5 7e5b d5bf
00000440: b401 1514 0253 d2bf 464a 2c04 ee09 d1bf
00000450: 0000 0000 0000 0000 0000 0000 0000 0000
00000460: 0000 0000 0000 0000 0000 0000 0000 0000
00000470: f01e 833c 6979 70bf f390 1689 43c1 c5bf
00000480: 89bd a8f6 c6d5 d0bf b657 11cf b7a5 d53f
00000490: 0186 02de ad20 f23f 233a e271 8d95 cf3f
000004a0: a9b2 cf14 c860 df3f e0d5 763b 60e8 ebbf
000004b0: daa7 c7e3 4bb7 b4bf 7e1b ae5b 1baf ea3f
000004c0: c173 4205 d349 d8bf a224 3fdd ffcb eb3f
000004d0: b3a1 dd79 7817 da3f 1a20 65d6 4b26 af3f
000004e0: a687 ce60 be19 ca3f 659f 9f6a 227a c83f
000004f0: 5df0 edde 088e d73f 0578 66aa 9b47 e9bf
00000500: 74b0 f507 ed1b dc3f e0e8 8a6a e3e5 ecbf
00000510: a94d 2bc0 a45d e6bf a479 2910 0492 dbbf
00000520: 2008 fe47 e467 cb3f f7aa 2d1f fae2 d83f
00000530: 5a66 4c80 25e0 61bf 691d 554d 1075 efbe
00000540: 0000 0000 0000 0000 0000 0000 0000 0000
00000550: 840b 0653 7149 813f 9a43 a94c 1786 e6bf
00000560: 77c9 cddf bd0e e6bf 6d89 5eb3 259e d23f
00000570: 99a6 9d78 5fd7 a33f d2fe b0cd 58aa d0bf
00000580: b752 75ca aea4 e1bf f8c2 735e 2745 e93f
00000590: eda4 0329 0942 b03f bb33 e238 a33a e5bf
000005a0: 2f8c 4805 77de c6bf 31f3 ef9b 5b84 d8bf
000005b0: c468 2ce1 de8a d9bf f295 030c a13f e93f
000005c0: a008 bca5 8c2a debf eb08 daa1 22c2 e33f
000005d0: 4f22 5552 059e dabf f8f0 7f23 1d61 9b3f
000005e0: 9abb 8de7 d7e5 c5bf f929 3d25 5c34 aa3f
000005f0: fb97 16ad 841d d4bf e1af 9c5b 4503 e4bf
00000600: e3c9 f57c fd7d e2bf ac94 b8d1 214e ddbf
00000610: ce9f f473 e023 82bf 4363 0d20 4adb 75bf
00000620: 16ac 5e6b dc88 04bf 50fc 51e7 0e9b 64bf
00000630: 2e92 9f4c 5849 d13f cdd9 44b4 1d8e dcbf
00000640: 8cc8 664d bc92 b33f 3806 bb92 2d37 e8bf
00000650: c852 e4a3 f84f f2bf f8cc 3823 977d d93f
00000660: de95 5167 ca4c f43f dfcd f901 89d6 f8bf
00000670: b49f 6b21 4c2b bb3f f58a 202f 7a31 ee3f
00000680: 8f0a 587c 8ad6 e93f 267a 5937 b1cd a13f
00000690: b0f0 8bc0 5915 e13f 6762 bbb9 463e e2bf
000006a0: 4d4a 39cb 7896 c23f d820 8ffb 3a0f f6bf
000006b0: 473c 33d9 488c d1bf 0eb8 daa0 404c d0bf
000006c0: c30d e724 ec84 e1bf 18c2 d972 e60a d3bf
000006d0: b06c 9fd2 9f5e ba3f dd35 e7b0 698f f6bf
000006e0: b524 3f33 988a f5bf 5e3e 40bc 6206 e0bf
000006f0: 2b36 9c72 d1ec 86bf 5571 77c7 9827 6cbf
00000700: ba39 8241 bfdc 24bf e953 be0e 3670 71bf
00000710: b154 a721 0a81 c23f e3ab 840c 3611 e5bf
00000720: 2a16 1ed7 3147 ca3f 7942 258b ccca f93f
00000730: ef5b cb6c 702f f1bf 7f39 2dac b879 dd3f
00000740: 94cf 9ac4 5da4 e3bf 1dd8 c939 8f1c d43f
00000750: cdbd 1ee3 c140 ea3f ac06 ef33 b3e4 d1bf
00000760: 3ed4 2d58 ea2b e3bf afcf 2fae 9448 e7bf
00000770: b7d5 f41f 12b3 c3bf b0b9 d387 f452 a0bf
00000780: c808 acb6 8143 95bf 9082 4bda f1ad f33f
00000790: f260 fe3e 30a1 b73f b2fa 8cb8 b706 cb3f
000007a0: c907 ae0a 91a2 f43f b898 7c0a 1401 da3f
000007b0: 6d7b 0019 44d4 f63f c039 1b1b ed0a f6bf
000007c0: 1d6a 3d66 6967 fdbf 1ea3 9ccf f031 e7bf
000007d0: 01c9 07d8 e766 80bf d786 8a71 fe26 34bf
000007e0: e1bc 2526 9516 fbbe 235f 3267 6da7 8fbf
000007f0: c2f2 56c0 95ea c1bf 6448 9589 832a c4bf
0.0 0.0 0.0 0.0 0.0 0.0 0.0 0.0
0.0 0.0 0.0 0.0 0.0 0.0 0.0 0.0
0.0 0.0 0.0 0.0 0.0 0.0 0.0 0.0
0.0 0.0 0.0 0.0 0.0 0.0 0.0 0.0
0.0 0.0 0.0 -0.0107604017612627 -0.3030365759756243 -0.6742228368237632 -0.4842858104195907 -0.22041771011480984
-0.025266899873126896 -0.02833886517157459 -0.2505736436681857 0.1943136459494515 1.4085605265088972 0.17290695236651032 -0.021044601203019514 -0.012553806998731416
-0.02254559894284185 -0.062094315915229716 -0.04060242957894348 0.0 0.0 0.0 0.0 0.0
0.0 0.0 0.0 0.0 -0.0005316666666666666 -0.0026529560100364514 -0.01204506877380539 -0.025192435418376832
-0.5243278851494994 -0.851562034890336 -0.7502557903927509 -0.013493246780182232 1.232956069344083 0.28225111817361265 -0.40791159515989556 -0.4360854333162921
-1.0619915222650456 0.0471574609270862 -0.784285932135405 -0.46731624874214905 -0.3797059197662231 -0.27761130732925 -0.07436718212633721 0.17033843814316682
0.07743523214541387 0.0 0.0 0.0 0.0 0.0 0.0 0.0
-0.0012377475294113962 -0.10300860707757434 -0.4423079401942452 -0.20115014116583924 -0.6103464789655632 0.37573091403252085 1.1024887250715727 1.0485656341758847
-1.1860173037424306 0.10528537399318001 0.3175241119530772 -0.9064795168118052 0.08067441329330606 -0.37764721619352726 -1.6547683375776998 -0.4298423827453855
0.5348544364713816 -0.5631606009638876 0.339142950125768 0.1034393191358944 0.024347945619735717 0.0 0.0 0.0
0.0 0.0 0.0 -0.06306156057903166 -0.36456106427174734 0.11111209653377395 0.35942140210319545 0.5078117264577748
-0.8199730334073797 1.5167735474326725 0.33769338671018895 -0.12108931636787172 -0.4565518515576802 0.5288127242353936 0.025486363355696005 -0.34938882860589826
0.4814697954982073 -0.5105440199368813 0.33437112420711546 -0.28551347220715295 -0.2355975971089797 0.358717482251915 -0.9840485384127895 -0.33370943880386283
-0.28631641350878145 -0.266231063914493 0.0 0.0 0.0 0.0 -0.004022036628334766 -0.16996044343716896
-0.26304792487913936 0.3382396242280906 1.1329783127079056 0.24675148068168182 0.49028207809787233 -0.872116199627893 -0.08092188178093754 0.8338753500582781
-0.37950587762480487 0.8686522790168463 0.4076825323195649 0.060839052125231954 0.2039106342972989 0.19122724729754306 0.3680441071553611 -0.7899912193422557
0.43920446183506745 -0.9030625420484988 -0.6989310982993874 -0.43078710153886335 0.21410802378892502 0.3888535789944138 -0.0021820766873020094 -1.5e-05
0.0 0.0 0.008440862032107928 -0.7038685319222282 -0.689299523465066 0.29090254322559056 0.03875254008637547 -0.2603971489624942
-0.5513528780234854 0.7896916241425904 0.06350762606929879 -0.6634079085357522 -0.17866409070947628 -0.3830784819436302 -0.3991009901961997 0.7890172228478021
-0.4713470095158616 0.6174481545606602 -0.4158948234585624 0.02673764733479886 -0.17107676321344628 0.05118072466446572 -0.3143016519846921 -0.6253992833421728
-0.5778796616198715 -0.4578938053185293 -0.008857492006953207 -0.005336083938197347 -3.9166666666666665e-05 -0.0025153437696299533 0.2701016186022426 -0.44617407421483507
0.07645775689778328 -0.7567355981665917 -1.1445242311503296 0.39829042853962404 1.268747714604039 -1.5523767544917673 0.10612941566398498 0.9435397072269028
0.8074390820114149 0.034772432333501066 0.5338562737156476 -0.5701020839288277 0.14521703646694775 -1.3787183596160073 -0.2741872902960875 -0.2546540804713694
-0.5474758835556987 -0.2975402947986665 0.10300635234982525 -1.4100129041938694 -1.3463365556547562 -0.5007795025612258 -0.011193882284284381 -0.003436849972542936
-0.00015916666666666667 -0.0042574035286593115 0.144562975342216 -0.6583509678360965 0.20529768947396693 1.6120114741680978 -1.0740818261890543 0.46055428327681364
-0.6138142433105593 0.31424313205150317 0.8204049526156553 -0.27958374091768223 -0.599110767578743 -0.7276099588475428 -0.15390230713243877 -0.03188289793057508
-0.02076533009950124 1.2299669768473542 0.0923032907288677 0.21114250670685447 1.2896891038112577 0.4063158132943374 1.426822755492789 -1.3776675280420108
-1.8377470010515318 -0.7248462729377001 -0.008008776931977215 -0.0003075 -2.5833333333333332e-05 -0.01545606108838588 -0.13997146503051822 -0.1575474187653213
